node {
  name: "global_step/Initializer/zeros"
  op: "Const"
  attr {
    key: "_class"
    value {
      list {
        s: "loc:@global_step"
      }
    }
  }
  attr {
    key: "_output_shapes"
    value {
      list {
        shape {
        }
      }
    }
  }
  attr {
    key: "dtype"
    value {
      type: DT_INT64
    }
  }
  attr {
    key: "value"
    value {
      tensor {
        dtype: DT_INT64
        tensor_shape {
        }
        int64_val: 0
      }
    }
  }
}
node {
  name: "global_step"
  op: "VariableV2"
  attr {
    key: "_class"
    value {
      list {
        s: "loc:@global_step"
      }
    }
  }
  attr {
    key: "_output_shapes"
    value {
      list {
        shape {
        }
      }
    }
  }
  attr {
    key: "container"
    value {
      s: ""
    }
  }
  attr {
    key: "dtype"
    value {
      type: DT_INT64
    }
  }
  attr {
    key: "shape"
    value {
      shape {
      }
    }
  }
  attr {
    key: "shared_name"
    value {
      s: ""
    }
  }
}
node {
  name: "global_step/Assign"
  op: "Assign"
  input: "global_step"
  input: "global_step/Initializer/zeros"
  attr {
    key: "T"
    value {
      type: DT_INT64
    }
  }
  attr {
    key: "_class"
    value {
      list {
        s: "loc:@global_step"
      }
    }
  }
  attr {
    key: "_output_shapes"
    value {
      list {
        shape {
        }
      }
    }
  }
  attr {
    key: "use_locking"
    value {
      b: true
    }
  }
  attr {
    key: "validate_shape"
    value {
      b: true
    }
  }
}
node {
  name: "global_step/read"
  op: "Identity"
  input: "global_step"
  attr {
    key: "T"
    value {
      type: DT_INT64
    }
  }
  attr {
    key: "_class"
    value {
      list {
        s: "loc:@global_step"
      }
    }
  }
  attr {
    key: "_output_shapes"
    value {
      list {
        shape {
        }
      }
    }
  }
}
node {
  name: "global_step/IsVariableInitialized"
  op: "IsVariableInitialized"
  input: "global_step"
  attr {
    key: "_class"
    value {
      list {
        s: "loc:@global_step"
      }
    }
  }
  attr {
    key: "_output_shapes"
    value {
      list {
        shape {
        }
      }
    }
  }
  attr {
    key: "dtype"
    value {
      type: DT_INT64
    }
  }
}
node {
  name: "global_step/cond/Switch"
  op: "Switch"
  input: "global_step/IsVariableInitialized"
  input: "global_step/IsVariableInitialized"
  attr {
    key: "T"
    value {
      type: DT_BOOL
    }
  }
  attr {
    key: "_output_shapes"
    value {
      list {
        shape {
        }
        shape {
        }
      }
    }
  }
}
node {
  name: "global_step/cond/switch_t"
  op: "Identity"
  input: "global_step/cond/Switch:1"
  attr {
    key: "T"
    value {
      type: DT_BOOL
    }
  }
  attr {
    key: "_output_shapes"
    value {
      list {
        shape {
        }
      }
    }
  }
}
node {
  name: "global_step/cond/switch_f"
  op: "Identity"
  input: "global_step/cond/Switch"
  attr {
    key: "T"
    value {
      type: DT_BOOL
    }
  }
  attr {
    key: "_output_shapes"
    value {
      list {
        shape {
        }
      }
    }
  }
}
node {
  name: "global_step/cond/pred_id"
  op: "Identity"
  input: "global_step/IsVariableInitialized"
  attr {
    key: "T"
    value {
      type: DT_BOOL
    }
  }
  attr {
    key: "_output_shapes"
    value {
      list {
        shape {
        }
      }
    }
  }
}
node {
  name: "global_step/cond/read"
  op: "Identity"
  input: "global_step/cond/read/Switch:1"
  attr {
    key: "T"
    value {
      type: DT_INT64
    }
  }
  attr {
    key: "_output_shapes"
    value {
      list {
        shape {
        }
      }
    }
  }
}
node {
  name: "global_step/cond/read/Switch"
  op: "RefSwitch"
  input: "global_step"
  input: "global_step/cond/pred_id"
  attr {
    key: "T"
    value {
      type: DT_INT64
    }
  }
  attr {
    key: "_class"
    value {
      list {
        s: "loc:@global_step"
      }
    }
  }
  attr {
    key: "_output_shapes"
    value {
      list {
        shape {
        }
        shape {
        }
      }
    }
  }
}
node {
  name: "global_step/cond/Switch_1"
  op: "Switch"
  input: "global_step/Initializer/zeros"
  input: "global_step/cond/pred_id"
  attr {
    key: "T"
    value {
      type: DT_INT64
    }
  }
  attr {
    key: "_class"
    value {
      list {
        s: "loc:@global_step"
      }
    }
  }
  attr {
    key: "_output_shapes"
    value {
      list {
        shape {
        }
        shape {
        }
      }
    }
  }
}
node {
  name: "global_step/cond/Merge"
  op: "Merge"
  input: "global_step/cond/Switch_1"
  input: "global_step/cond/read"
  attr {
    key: "N"
    value {
      i: 2
    }
  }
  attr {
    key: "T"
    value {
      type: DT_INT64
    }
  }
  attr {
    key: "_output_shapes"
    value {
      list {
        shape {
        }
        shape {
        }
      }
    }
  }
}
node {
  name: "global_step/add/y"
  op: "Const"
  attr {
    key: "_output_shapes"
    value {
      list {
        shape {
        }
      }
    }
  }
  attr {
    key: "dtype"
    value {
      type: DT_INT64
    }
  }
  attr {
    key: "value"
    value {
      tensor {
        dtype: DT_INT64
        tensor_shape {
        }
        int64_val: 0
      }
    }
  }
}
node {
  name: "global_step/add"
  op: "Add"
  input: "global_step/cond/Merge"
  input: "global_step/add/y"
  attr {
    key: "T"
    value {
      type: DT_INT64
    }
  }
  attr {
    key: "_output_shapes"
    value {
      list {
        shape {
        }
      }
    }
  }
}
node {
  name: "tensors/normalize_tensors/component_0"
  op: "Const"
  device: "/device:CPU:0"
  attr {
    key: "_output_shapes"
    value {
      list {
        shape {
          dim {
            size: 2861
          }
        }
      }
    }
  }
  attr {
    key: "dtype"
    value {
      type: DT_STRING
    }
  }
  attr {
    key: "value"
    value {
      tensor {
        dtype: DT_STRING
        tensor_shape {
          dim {
            size: 2861
          }
        }
        string_val: "./topology/tfrecords/train_data_per_200/1001.tfrecords"
        string_val: "./topology/tfrecords/train_data_per_200/1002.tfrecords"
        string_val: "./topology/tfrecords/train_data_per_200/1003.tfrecords"
        string_val: "./topology/tfrecords/train_data_per_200/1005.tfrecords"
        string_val: "./topology/tfrecords/train_data_per_200/1006.tfrecords"
        string_val: "./topology/tfrecords/train_data_per_200/1007.tfrecords"
        string_val: "./topology/tfrecords/train_data_per_200/1008.tfrecords"
        string_val: "./topology/tfrecords/train_data_per_200/1009.tfrecords"
        string_val: "./topology/tfrecords/train_data_per_200/100.tfrecords"
        string_val: "./topology/tfrecords/train_data_per_200/1010.tfrecords"
        string_val: "./topology/tfrecords/train_data_per_200/1011.tfrecords"
        string_val: "./topology/tfrecords/train_data_per_200/1013.tfrecords"
        string_val: "./topology/tfrecords/train_data_per_200/1014.tfrecords"
        string_val: "./topology/tfrecords/train_data_per_200/1016.tfrecords"
        string_val: "./topology/tfrecords/train_data_per_200/1017.tfrecords"
        string_val: "./topology/tfrecords/train_data_per_200/1018.tfrecords"
        string_val: "./topology/tfrecords/train_data_per_200/1019.tfrecords"
        string_val: "./topology/tfrecords/train_data_per_200/101.tfrecords"
        string_val: "./topology/tfrecords/train_data_per_200/1021.tfrecords"
        string_val: "./topology/tfrecords/train_data_per_200/1022.tfrecords"
        string_val: "./topology/tfrecords/train_data_per_200/1023.tfrecords"
        string_val: "./topology/tfrecords/train_data_per_200/1024.tfrecords"
        string_val: "./topology/tfrecords/train_data_per_200/1026.tfrecords"
        string_val: "./topology/tfrecords/train_data_per_200/1027.tfrecords"
        string_val: "./topology/tfrecords/train_data_per_200/1028.tfrecords"
        string_val: "./topology/tfrecords/train_data_per_200/1029.tfrecords"
        string_val: "./topology/tfrecords/train_data_per_200/102.tfrecords"
        string_val: "./topology/tfrecords/train_data_per_200/1030.tfrecords"
        string_val: "./topology/tfrecords/train_data_per_200/1031.tfrecords"
        string_val: "./topology/tfrecords/train_data_per_200/1032.tfrecords"
        string_val: "./topology/tfrecords/train_data_per_200/1033.tfrecords"
        string_val: "./topology/tfrecords/train_data_per_200/1034.tfrecords"
        string_val: "./topology/tfrecords/train_data_per_200/1035.tfrecords"
        string_val: "./topology/tfrecords/train_data_per_200/1036.tfrecords"
        string_val: "./topology/tfrecords/train_data_per_200/1038.tfrecords"
        string_val: "./topology/tfrecords/train_data_per_200/1039.tfrecords"
        string_val: "./topology/tfrecords/train_data_per_200/1040.tfrecords"
        string_val: "./topology/tfrecords/train_data_per_200/1041.tfrecords"
        string_val: "./topology/tfrecords/train_data_per_200/1042.tfrecords"
        string_val: "./topology/tfrecords/train_data_per_200/1043.tfrecords"
        string_val: "./topology/tfrecords/train_data_per_200/1045.tfrecords"
        string_val: "./topology/tfrecords/train_data_per_200/1048.tfrecords"
        string_val: "./topology/tfrecords/train_data_per_200/1049.tfrecords"
        string_val: "./topology/tfrecords/train_data_per_200/104.tfrecords"
        string_val: "./topology/tfrecords/train_data_per_200/1051.tfrecords"
        string_val: "./topology/tfrecords/train_data_per_200/1052.tfrecords"
        string_val: "./topology/tfrecords/train_data_per_200/1053.tfrecords"
        string_val: "./topology/tfrecords/train_data_per_200/1054.tfrecords"
        string_val: "./topology/tfrecords/train_data_per_200/1055.tfrecords"
        string_val: "./topology/tfrecords/train_data_per_200/1056.tfrecords"
        string_val: "./topology/tfrecords/train_data_per_200/1058.tfrecords"
        string_val: "./topology/tfrecords/train_data_per_200/1059.tfrecords"
        string_val: "./topology/tfrecords/train_data_per_200/105.tfrecords"
        string_val: "./topology/tfrecords/train_data_per_200/1060.tfrecords"
        string_val: "./topology/tfrecords/train_data_per_200/1061.tfrecords"
        string_val: "./topology/tfrecords/train_data_per_200/1062.tfrecords"
        string_val: "./topology/tfrecords/train_data_per_200/1063.tfrecords"
        string_val: "./topology/tfrecords/train_data_per_200/1064.tfrecords"
        string_val: "./topology/tfrecords/train_data_per_200/1066.tfrecords"
        string_val: "./topology/tfrecords/train_data_per_200/1067.tfrecords"
        string_val: "./topology/tfrecords/train_data_per_200/1068.tfrecords"
        string_val: "./topology/tfrecords/train_data_per_200/1069.tfrecords"
        string_val: "./topology/tfrecords/train_data_per_200/106.tfrecords"
        string_val: "./topology/tfrecords/train_data_per_200/1070.tfrecords"
        string_val: "./topology/tfrecords/train_data_per_200/1072.tfrecords"
        string_val: "./topology/tfrecords/train_data_per_200/1074.tfrecords"
        string_val: "./topology/tfrecords/train_data_per_200/1075.tfrecords"
        string_val: "./topology/tfrecords/train_data_per_200/1076.tfrecords"
        string_val: "./topology/tfrecords/train_data_per_200/1077.tfrecords"
        string_val: "./topology/tfrecords/train_data_per_200/1078.tfrecords"
        string_val: "./topology/tfrecords/train_data_per_200/1079.tfrecords"
        string_val: "./topology/tfrecords/train_data_per_200/107.tfrecords"
        string_val: "./topology/tfrecords/train_data_per_200/1080.tfrecords"
        string_val: "./topology/tfrecords/train_data_per_200/1081.tfrecords"
        string_val: "./topology/tfrecords/train_data_per_200/1083.tfrecords"
        string_val: "./topology/tfrecords/train_data_per_200/1085.tfrecords"
        string_val: "./topology/tfrecords/train_data_per_200/1086.tfrecords"
        string_val: "./topology/tfrecords/train_data_per_200/1087.tfrecords"
        string_val: "./topology/tfrecords/train_data_per_200/1089.tfrecords"
        string_val: "./topology/tfrecords/train_data_per_200/108.tfrecords"
        string_val: "./topology/tfrecords/train_data_per_200/1090.tfrecords"
        string_val: "./topology/tfrecords/train_data_per_200/1091.tfrecords"
        string_val: "./topology/tfrecords/train_data_per_200/1092.tfrecords"
        string_val: "./topology/tfrecords/train_data_per_200/1093.tfrecords"
        string_val: "./topology/tfrecords/train_data_per_200/1095.tfrecords"
        string_val: "./topology/tfrecords/train_data_per_200/1096.tfrecords"
        string_val: "./topology/tfrecords/train_data_per_200/1097.tfrecords"
        string_val: "./topology/tfrecords/train_data_per_200/1099.tfrecords"
        string_val: "./topology/tfrecords/train_data_per_200/109.tfrecords"
        string_val: "./topology/tfrecords/train_data_per_200/10.tfrecords"
        string_val: "./topology/tfrecords/train_data_per_200/1100.tfrecords"
        string_val: "./topology/tfrecords/train_data_per_200/1102.tfrecords"
        string_val: "./topology/tfrecords/train_data_per_200/1104.tfrecords"
        string_val: "./topology/tfrecords/train_data_per_200/1106.tfrecords"
        string_val: "./topology/tfrecords/train_data_per_200/1107.tfrecords"
        string_val: "./topology/tfrecords/train_data_per_200/1108.tfrecords"
        string_val: "./topology/tfrecords/train_data_per_200/110.tfrecords"
        string_val: "./topology/tfrecords/train_data_per_200/1111.tfrecords"
        string_val: "./topology/tfrecords/train_data_per_200/1112.tfrecords"
        string_val: "./topology/tfrecords/train_data_per_200/1113.tfrecords"
        string_val: "./topology/tfrecords/train_data_per_200/1114.tfrecords"
        string_val: "./topology/tfrecords/train_data_per_200/1115.tfrecords"
        string_val: "./topology/tfrecords/train_data_per_200/1116.tfrecords"
        string_val: "./topology/tfrecords/train_data_per_200/1117.tfrecords"
        string_val: "./topology/tfrecords/train_data_per_200/1118.tfrecords"
        string_val: "./topology/tfrecords/train_data_per_200/1119.tfrecords"
        string_val: "./topology/tfrecords/train_data_per_200/111.tfrecords"
        string_val: "./topology/tfrecords/train_data_per_200/1120.tfrecords"
        string_val: "./topology/tfrecords/train_data_per_200/1122.tfrecords"
        string_val: "./topology/tfrecords/train_data_per_200/1123.tfrecords"
        string_val: "./topology/tfrecords/train_data_per_200/1124.tfrecords"
        string_val: "./topology/tfrecords/train_data_per_200/1126.tfrecords"
        string_val: "./topology/tfrecords/train_data_per_200/1127.tfrecords"
        string_val: "./topology/tfrecords/train_data_per_200/1128.tfrecords"
        string_val: "./topology/tfrecords/train_data_per_200/112.tfrecords"
        string_val: "./topology/tfrecords/train_data_per_200/1132.tfrecords"
        string_val: "./topology/tfrecords/train_data_per_200/1133.tfrecords"
        string_val: "./topology/tfrecords/train_data_per_200/1134.tfrecords"
        string_val: "./topology/tfrecords/train_data_per_200/1135.tfrecords"
        string_val: "./topology/tfrecords/train_data_per_200/1136.tfrecords"
        string_val: "./topology/tfrecords/train_data_per_200/1137.tfrecords"
        string_val: "./topology/tfrecords/train_data_per_200/1138.tfrecords"
        string_val: "./topology/tfrecords/train_data_per_200/1139.tfrecords"
        string_val: "./topology/tfrecords/train_data_per_200/1140.tfrecords"
        string_val: "./topology/tfrecords/train_data_per_200/1142.tfrecords"
        string_val: "./topology/tfrecords/train_data_per_200/1144.tfrecords"
        string_val: "./topology/tfrecords/train_data_per_200/1145.tfrecords"
        string_val: "./topology/tfrecords/train_data_per_200/1146.tfrecords"
        string_val: "./topology/tfrecords/train_data_per_200/1147.tfrecords"
        string_val: "./topology/tfrecords/train_data_per_200/1148.tfrecords"
        string_val: "./topology/tfrecords/train_data_per_200/1149.tfrecords"
        string_val: "./topology/tfrecords/train_data_per_200/114.tfrecords"
        string_val: "./topology/tfrecords/train_data_per_200/1151.tfrecords"
        string_val: "./topology/tfrecords/train_data_per_200/1152.tfrecords"
        string_val: "./topology/tfrecords/train_data_per_200/1153.tfrecords"
        string_val: "./topology/tfrecords/train_data_per_200/1155.tfrecords"
        string_val: "./topology/tfrecords/train_data_per_200/1157.tfrecords"
        string_val: "./topology/tfrecords/train_data_per_200/1158.tfrecords"
        string_val: "./topology/tfrecords/train_data_per_200/1159.tfrecords"
        string_val: "./topology/tfrecords/train_data_per_200/115.tfrecords"
        string_val: "./topology/tfrecords/train_data_per_200/1160.tfrecords"
        string_val: "./topology/tfrecords/train_data_per_200/1161.tfrecords"
        string_val: "./topology/tfrecords/train_data_per_200/1162.tfrecords"
        string_val: "./topology/tfrecords/train_data_per_200/1165.tfrecords"
        string_val: "./topology/tfrecords/train_data_per_200/1166.tfrecords"
        string_val: "./topology/tfrecords/train_data_per_200/1167.tfrecords"
        string_val: "./topology/tfrecords/train_data_per_200/1169.tfrecords"
        string_val: "./topology/tfrecords/train_data_per_200/116.tfrecords"
        string_val: "./topology/tfrecords/train_data_per_200/1170.tfrecords"
        string_val: "./topology/tfrecords/train_data_per_200/1171.tfrecords"
        string_val: "./topology/tfrecords/train_data_per_200/1172.tfrecords"
        string_val: "./topology/tfrecords/train_data_per_200/1173.tfrecords"
        string_val: "./topology/tfrecords/train_data_per_200/1176.tfrecords"
        string_val: "./topology/tfrecords/train_data_per_200/1178.tfrecords"
        string_val: "./topology/tfrecords/train_data_per_200/1179.tfrecords"
        string_val: "./topology/tfrecords/train_data_per_200/117.tfrecords"
        string_val: "./topology/tfrecords/train_data_per_200/1180.tfrecords"
        string_val: "./topology/tfrecords/train_data_per_200/1181.tfrecords"
        string_val: "./topology/tfrecords/train_data_per_200/1182.tfrecords"
        string_val: "./topology/tfrecords/train_data_per_200/1184.tfrecords"
        string_val: "./topology/tfrecords/train_data_per_200/1185.tfrecords"
        string_val: "./topology/tfrecords/train_data_per_200/1186.tfrecords"
        string_val: "./topology/tfrecords/train_data_per_200/1187.tfrecords"
        string_val: "./topology/tfrecords/train_data_per_200/1188.tfrecords"
        string_val: "./topology/tfrecords/train_data_per_200/1189.tfrecords"
        string_val: "./topology/tfrecords/train_data_per_200/1190.tfrecords"
        string_val: "./topology/tfrecords/train_data_per_200/1191.tfrecords"
        string_val: "./topology/tfrecords/train_data_per_200/1192.tfrecords"
        string_val: "./topology/tfrecords/train_data_per_200/1193.tfrecords"
        string_val: "./topology/tfrecords/train_data_per_200/1194.tfrecords"
        string_val: "./topology/tfrecords/train_data_per_200/1195.tfrecords"
        string_val: "./topology/tfrecords/train_data_per_200/1196.tfrecords"
        string_val: "./topology/tfrecords/train_data_per_200/1197.tfrecords"
        string_val: "./topology/tfrecords/train_data_per_200/1198.tfrecords"
        string_val: "./topology/tfrecords/train_data_per_200/1199.tfrecords"
        string_val: "./topology/tfrecords/train_data_per_200/119.tfrecords"
        string_val: "./topology/tfrecords/train_data_per_200/11.tfrecords"
        string_val: "./topology/tfrecords/train_data_per_200/1200.tfrecords"
        string_val: "./topology/tfrecords/train_data_per_200/1201.tfrecords"
        string_val: "./topology/tfrecords/train_data_per_200/1202.tfrecords"
        string_val: "./topology/tfrecords/train_data_per_200/1203.tfrecords"
        string_val: "./topology/tfrecords/train_data_per_200/1204.tfrecords"
        string_val: "./topology/tfrecords/train_data_per_200/1206.tfrecords"
        string_val: "./topology/tfrecords/train_data_per_200/1207.tfrecords"
        string_val: "./topology/tfrecords/train_data_per_200/1208.tfrecords"
        string_val: "./topology/tfrecords/train_data_per_200/1209.tfrecords"
        string_val: "./topology/tfrecords/train_data_per_200/120.tfrecords"
        string_val: "./topology/tfrecords/train_data_per_200/1210.tfrecords"
        string_val: "./topology/tfrecords/train_data_per_200/1211.tfrecords"
        string_val: "./topology/tfrecords/train_data_per_200/1212.tfrecords"
        string_val: "./topology/tfrecords/train_data_per_200/1213.tfrecords"
        string_val: "./topology/tfrecords/train_data_per_200/1214.tfrecords"
        string_val: "./topology/tfrecords/train_data_per_200/1215.tfrecords"
        string_val: "./topology/tfrecords/train_data_per_200/1216.tfrecords"
        string_val: "./topology/tfrecords/train_data_per_200/1217.tfrecords"
        string_val: "./topology/tfrecords/train_data_per_200/121.tfrecords"
        string_val: "./topology/tfrecords/train_data_per_200/1220.tfrecords"
        string_val: "./topology/tfrecords/train_data_per_200/1221.tfrecords"
        string_val: "./topology/tfrecords/train_data_per_200/1222.tfrecords"
        string_val: "./topology/tfrecords/train_data_per_200/1223.tfrecords"
        string_val: "./topology/tfrecords/train_data_per_200/1224.tfrecords"
        string_val: "./topology/tfrecords/train_data_per_200/1225.tfrecords"
        string_val: "./topology/tfrecords/train_data_per_200/1226.tfrecords"
        string_val: "./topology/tfrecords/train_data_per_200/1227.tfrecords"
        string_val: "./topology/tfrecords/train_data_per_200/1228.tfrecords"
        string_val: "./topology/tfrecords/train_data_per_200/1229.tfrecords"
        string_val: "./topology/tfrecords/train_data_per_200/122.tfrecords"
        string_val: "./topology/tfrecords/train_data_per_200/1230.tfrecords"
        string_val: "./topology/tfrecords/train_data_per_200/1232.tfrecords"
        string_val: "./topology/tfrecords/train_data_per_200/1233.tfrecords"
        string_val: "./topology/tfrecords/train_data_per_200/1235.tfrecords"
        string_val: "./topology/tfrecords/train_data_per_200/1237.tfrecords"
        string_val: "./topology/tfrecords/train_data_per_200/1238.tfrecords"
        string_val: "./topology/tfrecords/train_data_per_200/1239.tfrecords"
        string_val: "./topology/tfrecords/train_data_per_200/123.tfrecords"
        string_val: "./topology/tfrecords/train_data_per_200/1241.tfrecords"
        string_val: "./topology/tfrecords/train_data_per_200/1242.tfrecords"
        string_val: "./topology/tfrecords/train_data_per_200/1243.tfrecords"
        string_val: "./topology/tfrecords/train_data_per_200/1244.tfrecords"
        string_val: "./topology/tfrecords/train_data_per_200/1245.tfrecords"
        string_val: "./topology/tfrecords/train_data_per_200/1246.tfrecords"
        string_val: "./topology/tfrecords/train_data_per_200/1247.tfrecords"
        string_val: "./topology/tfrecords/train_data_per_200/1248.tfrecords"
        string_val: "./topology/tfrecords/train_data_per_200/1249.tfrecords"
        string_val: "./topology/tfrecords/train_data_per_200/124.tfrecords"
        string_val: "./topology/tfrecords/train_data_per_200/1250.tfrecords"
        string_val: "./topology/tfrecords/train_data_per_200/1251.tfrecords"
        string_val: "./topology/tfrecords/train_data_per_200/1252.tfrecords"
        string_val: "./topology/tfrecords/train_data_per_200/1253.tfrecords"
        string_val: "./topology/tfrecords/train_data_per_200/1254.tfrecords"
        string_val: "./topology/tfrecords/train_data_per_200/1255.tfrecords"
        string_val: "./topology/tfrecords/train_data_per_200/1256.tfrecords"
        string_val: "./topology/tfrecords/train_data_per_200/1257.tfrecords"
        string_val: "./topology/tfrecords/train_data_per_200/1258.tfrecords"
        string_val: "./topology/tfrecords/train_data_per_200/1259.tfrecords"
        string_val: "./topology/tfrecords/train_data_per_200/125.tfrecords"
        string_val: "./topology/tfrecords/train_data_per_200/1260.tfrecords"
        string_val: "./topology/tfrecords/train_data_per_200/1265.tfrecords"
        string_val: "./topology/tfrecords/train_data_per_200/1266.tfrecords"
        string_val: "./topology/tfrecords/train_data_per_200/1267.tfrecords"
        string_val: "./topology/tfrecords/train_data_per_200/1268.tfrecords"
        string_val: "./topology/tfrecords/train_data_per_200/126.tfrecords"
        string_val: "./topology/tfrecords/train_data_per_200/1271.tfrecords"
        string_val: "./topology/tfrecords/train_data_per_200/1272.tfrecords"
        string_val: "./topology/tfrecords/train_data_per_200/1274.tfrecords"
        string_val: "./topology/tfrecords/train_data_per_200/1275.tfrecords"
        string_val: "./topology/tfrecords/train_data_per_200/1276.tfrecords"
        string_val: "./topology/tfrecords/train_data_per_200/1277.tfrecords"
        string_val: "./topology/tfrecords/train_data_per_200/1278.tfrecords"
        string_val: "./topology/tfrecords/train_data_per_200/1279.tfrecords"
        string_val: "./topology/tfrecords/train_data_per_200/1281.tfrecords"
        string_val: "./topology/tfrecords/train_data_per_200/1282.tfrecords"
        string_val: "./topology/tfrecords/train_data_per_200/1284.tfrecords"
        string_val: "./topology/tfrecords/train_data_per_200/1285.tfrecords"
        string_val: "./topology/tfrecords/train_data_per_200/1286.tfrecords"
        string_val: "./topology/tfrecords/train_data_per_200/1288.tfrecords"
        string_val: "./topology/tfrecords/train_data_per_200/1289.tfrecords"
        string_val: "./topology/tfrecords/train_data_per_200/128.tfrecords"
        string_val: "./topology/tfrecords/train_data_per_200/1290.tfrecords"
        string_val: "./topology/tfrecords/train_data_per_200/1291.tfrecords"
        string_val: "./topology/tfrecords/train_data_per_200/1292.tfrecords"
        string_val: "./topology/tfrecords/train_data_per_200/1294.tfrecords"
        string_val: "./topology/tfrecords/train_data_per_200/1295.tfrecords"
        string_val: "./topology/tfrecords/train_data_per_200/1296.tfrecords"
        string_val: "./topology/tfrecords/train_data_per_200/1297.tfrecords"
        string_val: "./topology/tfrecords/train_data_per_200/1298.tfrecords"
        string_val: "./topology/tfrecords/train_data_per_200/1299.tfrecords"
        string_val: "./topology/tfrecords/train_data_per_200/129.tfrecords"
        string_val: "./topology/tfrecords/train_data_per_200/12.tfrecords"
        string_val: "./topology/tfrecords/train_data_per_200/1300.tfrecords"
        string_val: "./topology/tfrecords/train_data_per_200/1301.tfrecords"
        string_val: "./topology/tfrecords/train_data_per_200/1302.tfrecords"
        string_val: "./topology/tfrecords/train_data_per_200/1303.tfrecords"
        string_val: "./topology/tfrecords/train_data_per_200/1304.tfrecords"
        string_val: "./topology/tfrecords/train_data_per_200/1305.tfrecords"
        string_val: "./topology/tfrecords/train_data_per_200/1307.tfrecords"
        string_val: "./topology/tfrecords/train_data_per_200/130.tfrecords"
        string_val: "./topology/tfrecords/train_data_per_200/1311.tfrecords"
        string_val: "./topology/tfrecords/train_data_per_200/1312.tfrecords"
        string_val: "./topology/tfrecords/train_data_per_200/1313.tfrecords"
        string_val: "./topology/tfrecords/train_data_per_200/1314.tfrecords"
        string_val: "./topology/tfrecords/train_data_per_200/1315.tfrecords"
        string_val: "./topology/tfrecords/train_data_per_200/1316.tfrecords"
        string_val: "./topology/tfrecords/train_data_per_200/1317.tfrecords"
        string_val: "./topology/tfrecords/train_data_per_200/1318.tfrecords"
        string_val: "./topology/tfrecords/train_data_per_200/1321.tfrecords"
        string_val: "./topology/tfrecords/train_data_per_200/1322.tfrecords"
        string_val: "./topology/tfrecords/train_data_per_200/1323.tfrecords"
        string_val: "./topology/tfrecords/train_data_per_200/1325.tfrecords"
        string_val: "./topology/tfrecords/train_data_per_200/1327.tfrecords"
        string_val: "./topology/tfrecords/train_data_per_200/1328.tfrecords"
        string_val: "./topology/tfrecords/train_data_per_200/1329.tfrecords"
        string_val: "./topology/tfrecords/train_data_per_200/132.tfrecords"
        string_val: "./topology/tfrecords/train_data_per_200/1330.tfrecords"
        string_val: "./topology/tfrecords/train_data_per_200/1331.tfrecords"
        string_val: "./topology/tfrecords/train_data_per_200/1333.tfrecords"
        string_val: "./topology/tfrecords/train_data_per_200/1334.tfrecords"
        string_val: "./topology/tfrecords/train_data_per_200/1335.tfrecords"
        string_val: "./topology/tfrecords/train_data_per_200/1336.tfrecords"
        string_val: "./topology/tfrecords/train_data_per_200/1337.tfrecords"
        string_val: "./topology/tfrecords/train_data_per_200/1338.tfrecords"
        string_val: "./topology/tfrecords/train_data_per_200/1339.tfrecords"
        string_val: "./topology/tfrecords/train_data_per_200/133.tfrecords"
        string_val: "./topology/tfrecords/train_data_per_200/1340.tfrecords"
        string_val: "./topology/tfrecords/train_data_per_200/1341.tfrecords"
        string_val: "./topology/tfrecords/train_data_per_200/1342.tfrecords"
        string_val: "./topology/tfrecords/train_data_per_200/1343.tfrecords"
        string_val: "./topology/tfrecords/train_data_per_200/1344.tfrecords"
        string_val: "./topology/tfrecords/train_data_per_200/1345.tfrecords"
        string_val: "./topology/tfrecords/train_data_per_200/1346.tfrecords"
        string_val: "./topology/tfrecords/train_data_per_200/1347.tfrecords"
        string_val: "./topology/tfrecords/train_data_per_200/1349.tfrecords"
        string_val: "./topology/tfrecords/train_data_per_200/134.tfrecords"
        string_val: "./topology/tfrecords/train_data_per_200/1350.tfrecords"
        string_val: "./topology/tfrecords/train_data_per_200/1355.tfrecords"
        string_val: "./topology/tfrecords/train_data_per_200/1356.tfrecords"
        string_val: "./topology/tfrecords/train_data_per_200/1357.tfrecords"
        string_val: "./topology/tfrecords/train_data_per_200/1358.tfrecords"
        string_val: "./topology/tfrecords/train_data_per_200/1359.tfrecords"
        string_val: "./topology/tfrecords/train_data_per_200/135.tfrecords"
        string_val: "./topology/tfrecords/train_data_per_200/1361.tfrecords"
        string_val: "./topology/tfrecords/train_data_per_200/1362.tfrecords"
        string_val: "./topology/tfrecords/train_data_per_200/1363.tfrecords"
        string_val: "./topology/tfrecords/train_data_per_200/1364.tfrecords"
        string_val: "./topology/tfrecords/train_data_per_200/1365.tfrecords"
        string_val: "./topology/tfrecords/train_data_per_200/1366.tfrecords"
        string_val: "./topology/tfrecords/train_data_per_200/1368.tfrecords"
        string_val: "./topology/tfrecords/train_data_per_200/1369.tfrecords"
        string_val: "./topology/tfrecords/train_data_per_200/136.tfrecords"
        string_val: "./topology/tfrecords/train_data_per_200/1371.tfrecords"
        string_val: "./topology/tfrecords/train_data_per_200/1373.tfrecords"
        string_val: "./topology/tfrecords/train_data_per_200/1374.tfrecords"
        string_val: "./topology/tfrecords/train_data_per_200/1375.tfrecords"
        string_val: "./topology/tfrecords/train_data_per_200/1376.tfrecords"
        string_val: "./topology/tfrecords/train_data_per_200/1377.tfrecords"
        string_val: "./topology/tfrecords/train_data_per_200/1378.tfrecords"
        string_val: "./topology/tfrecords/train_data_per_200/137.tfrecords"
        string_val: "./topology/tfrecords/train_data_per_200/1380.tfrecords"
        string_val: "./topology/tfrecords/train_data_per_200/1381.tfrecords"
        string_val: "./topology/tfrecords/train_data_per_200/1382.tfrecords"
        string_val: "./topology/tfrecords/train_data_per_200/1385.tfrecords"
        string_val: "./topology/tfrecords/train_data_per_200/1386.tfrecords"
        string_val: "./topology/tfrecords/train_data_per_200/1389.tfrecords"
        string_val: "./topology/tfrecords/train_data_per_200/138.tfrecords"
        string_val: "./topology/tfrecords/train_data_per_200/1390.tfrecords"
        string_val: "./topology/tfrecords/train_data_per_200/1391.tfrecords"
        string_val: "./topology/tfrecords/train_data_per_200/1392.tfrecords"
        string_val: "./topology/tfrecords/train_data_per_200/1393.tfrecords"
        string_val: "./topology/tfrecords/train_data_per_200/1395.tfrecords"
        string_val: "./topology/tfrecords/train_data_per_200/1396.tfrecords"
        string_val: "./topology/tfrecords/train_data_per_200/1397.tfrecords"
        string_val: "./topology/tfrecords/train_data_per_200/1398.tfrecords"
        string_val: "./topology/tfrecords/train_data_per_200/1399.tfrecords"
        string_val: "./topology/tfrecords/train_data_per_200/139.tfrecords"
        string_val: "./topology/tfrecords/train_data_per_200/1400.tfrecords"
        string_val: "./topology/tfrecords/train_data_per_200/1402.tfrecords"
        string_val: "./topology/tfrecords/train_data_per_200/1403.tfrecords"
        string_val: "./topology/tfrecords/train_data_per_200/1405.tfrecords"
        string_val: "./topology/tfrecords/train_data_per_200/1406.tfrecords"
        string_val: "./topology/tfrecords/train_data_per_200/1407.tfrecords"
        string_val: "./topology/tfrecords/train_data_per_200/1408.tfrecords"
        string_val: "./topology/tfrecords/train_data_per_200/1409.tfrecords"
        string_val: "./topology/tfrecords/train_data_per_200/140.tfrecords"
        string_val: "./topology/tfrecords/train_data_per_200/1410.tfrecords"
        string_val: "./topology/tfrecords/train_data_per_200/1411.tfrecords"
        string_val: "./topology/tfrecords/train_data_per_200/1412.tfrecords"
        string_val: "./topology/tfrecords/train_data_per_200/1413.tfrecords"
        string_val: "./topology/tfrecords/train_data_per_200/1414.tfrecords"
        string_val: "./topology/tfrecords/train_data_per_200/1415.tfrecords"
        string_val: "./topology/tfrecords/train_data_per_200/1416.tfrecords"
        string_val: "./topology/tfrecords/train_data_per_200/1417.tfrecords"
        string_val: "./topology/tfrecords/train_data_per_200/1418.tfrecords"
        string_val: "./topology/tfrecords/train_data_per_200/1419.tfrecords"
        string_val: "./topology/tfrecords/train_data_per_200/141.tfrecords"
        string_val: "./topology/tfrecords/train_data_per_200/1421.tfrecords"
        string_val: "./topology/tfrecords/train_data_per_200/1422.tfrecords"
        string_val: "./topology/tfrecords/train_data_per_200/1423.tfrecords"
        string_val: "./topology/tfrecords/train_data_per_200/1424.tfrecords"
        string_val: "./topology/tfrecords/train_data_per_200/1425.tfrecords"
        string_val: "./topology/tfrecords/train_data_per_200/1427.tfrecords"
        string_val: "./topology/tfrecords/train_data_per_200/1428.tfrecords"
        string_val: "./topology/tfrecords/train_data_per_200/1429.tfrecords"
        string_val: "./topology/tfrecords/train_data_per_200/142.tfrecords"
        string_val: "./topology/tfrecords/train_data_per_200/1430.tfrecords"
        string_val: "./topology/tfrecords/train_data_per_200/1431.tfrecords"
        string_val: "./topology/tfrecords/train_data_per_200/1432.tfrecords"
        string_val: "./topology/tfrecords/train_data_per_200/1433.tfrecords"
        string_val: "./topology/tfrecords/train_data_per_200/1434.tfrecords"
        string_val: "./topology/tfrecords/train_data_per_200/1436.tfrecords"
        string_val: "./topology/tfrecords/train_data_per_200/1437.tfrecords"
        string_val: "./topology/tfrecords/train_data_per_200/1438.tfrecords"
        string_val: "./topology/tfrecords/train_data_per_200/1439.tfrecords"
        string_val: "./topology/tfrecords/train_data_per_200/143.tfrecords"
        string_val: "./topology/tfrecords/train_data_per_200/1441.tfrecords"
        string_val: "./topology/tfrecords/train_data_per_200/1442.tfrecords"
        string_val: "./topology/tfrecords/train_data_per_200/1443.tfrecords"
        string_val: "./topology/tfrecords/train_data_per_200/1444.tfrecords"
        string_val: "./topology/tfrecords/train_data_per_200/1445.tfrecords"
        string_val: "./topology/tfrecords/train_data_per_200/1446.tfrecords"
        string_val: "./topology/tfrecords/train_data_per_200/1447.tfrecords"
        string_val: "./topology/tfrecords/train_data_per_200/1448.tfrecords"
        string_val: "./topology/tfrecords/train_data_per_200/1449.tfrecords"
        string_val: "./topology/tfrecords/train_data_per_200/144.tfrecords"
        string_val: "./topology/tfrecords/train_data_per_200/1451.tfrecords"
        string_val: "./topology/tfrecords/train_data_per_200/1452.tfrecords"
        string_val: "./topology/tfrecords/train_data_per_200/1453.tfrecords"
        string_val: "./topology/tfrecords/train_data_per_200/1454.tfrecords"
        string_val: "./topology/tfrecords/train_data_per_200/1455.tfrecords"
        string_val: "./topology/tfrecords/train_data_per_200/1456.tfrecords"
        string_val: "./topology/tfrecords/train_data_per_200/1459.tfrecords"
        string_val: "./topology/tfrecords/train_data_per_200/145.tfrecords"
        string_val: "./topology/tfrecords/train_data_per_200/1460.tfrecords"
        string_val: "./topology/tfrecords/train_data_per_200/1461.tfrecords"
        string_val: "./topology/tfrecords/train_data_per_200/1462.tfrecords"
        string_val: "./topology/tfrecords/train_data_per_200/1463.tfrecords"
        string_val: "./topology/tfrecords/train_data_per_200/1465.tfrecords"
        string_val: "./topology/tfrecords/train_data_per_200/1466.tfrecords"
        string_val: "./topology/tfrecords/train_data_per_200/1467.tfrecords"
        string_val: "./topology/tfrecords/train_data_per_200/1468.tfrecords"
        string_val: "./topology/tfrecords/train_data_per_200/1469.tfrecords"
        string_val: "./topology/tfrecords/train_data_per_200/146.tfrecords"
        string_val: "./topology/tfrecords/train_data_per_200/1470.tfrecords"
        string_val: "./topology/tfrecords/train_data_per_200/1472.tfrecords"
        string_val: "./topology/tfrecords/train_data_per_200/1473.tfrecords"
        string_val: "./topology/tfrecords/train_data_per_200/1474.tfrecords"
        string_val: "./topology/tfrecords/train_data_per_200/1476.tfrecords"
        string_val: "./topology/tfrecords/train_data_per_200/1477.tfrecords"
        string_val: "./topology/tfrecords/train_data_per_200/1478.tfrecords"
        string_val: "./topology/tfrecords/train_data_per_200/1479.tfrecords"
        string_val: "./topology/tfrecords/train_data_per_200/147.tfrecords"
        string_val: "./topology/tfrecords/train_data_per_200/1480.tfrecords"
        string_val: "./topology/tfrecords/train_data_per_200/1482.tfrecords"
        string_val: "./topology/tfrecords/train_data_per_200/1483.tfrecords"
        string_val: "./topology/tfrecords/train_data_per_200/1484.tfrecords"
        string_val: "./topology/tfrecords/train_data_per_200/1486.tfrecords"
        string_val: "./topology/tfrecords/train_data_per_200/1487.tfrecords"
        string_val: "./topology/tfrecords/train_data_per_200/1488.tfrecords"
        string_val: "./topology/tfrecords/train_data_per_200/1489.tfrecords"
        string_val: "./topology/tfrecords/train_data_per_200/1490.tfrecords"
        string_val: "./topology/tfrecords/train_data_per_200/1491.tfrecords"
        string_val: "./topology/tfrecords/train_data_per_200/1492.tfrecords"
        string_val: "./topology/tfrecords/train_data_per_200/1494.tfrecords"
        string_val: "./topology/tfrecords/train_data_per_200/1496.tfrecords"
        string_val: "./topology/tfrecords/train_data_per_200/1497.tfrecords"
        string_val: "./topology/tfrecords/train_data_per_200/149.tfrecords"
        string_val: "./topology/tfrecords/train_data_per_200/1500.tfrecords"
        string_val: "./topology/tfrecords/train_data_per_200/1501.tfrecords"
        string_val: "./topology/tfrecords/train_data_per_200/1502.tfrecords"
        string_val: "./topology/tfrecords/train_data_per_200/1503.tfrecords"
        string_val: "./topology/tfrecords/train_data_per_200/1505.tfrecords"
        string_val: "./topology/tfrecords/train_data_per_200/1507.tfrecords"
        string_val: "./topology/tfrecords/train_data_per_200/1508.tfrecords"
        string_val: "./topology/tfrecords/train_data_per_200/1509.tfrecords"
        string_val: "./topology/tfrecords/train_data_per_200/150.tfrecords"
        string_val: "./topology/tfrecords/train_data_per_200/1510.tfrecords"
        string_val: "./topology/tfrecords/train_data_per_200/1511.tfrecords"
        string_val: "./topology/tfrecords/train_data_per_200/1512.tfrecords"
        string_val: "./topology/tfrecords/train_data_per_200/1513.tfrecords"
        string_val: "./topology/tfrecords/train_data_per_200/1514.tfrecords"
        string_val: "./topology/tfrecords/train_data_per_200/1515.tfrecords"
        string_val: "./topology/tfrecords/train_data_per_200/1516.tfrecords"
        string_val: "./topology/tfrecords/train_data_per_200/1518.tfrecords"
        string_val: "./topology/tfrecords/train_data_per_200/1519.tfrecords"
        string_val: "./topology/tfrecords/train_data_per_200/151.tfrecords"
        string_val: "./topology/tfrecords/train_data_per_200/1520.tfrecords"
        string_val: "./topology/tfrecords/train_data_per_200/1522.tfrecords"
        string_val: "./topology/tfrecords/train_data_per_200/1523.tfrecords"
        string_val: "./topology/tfrecords/train_data_per_200/1524.tfrecords"
        string_val: "./topology/tfrecords/train_data_per_200/1525.tfrecords"
        string_val: "./topology/tfrecords/train_data_per_200/1526.tfrecords"
        string_val: "./topology/tfrecords/train_data_per_200/1527.tfrecords"
        string_val: "./topology/tfrecords/train_data_per_200/152.tfrecords"
        string_val: "./topology/tfrecords/train_data_per_200/1530.tfrecords"
        string_val: "./topology/tfrecords/train_data_per_200/1531.tfrecords"
        string_val: "./topology/tfrecords/train_data_per_200/1535.tfrecords"
        string_val: "./topology/tfrecords/train_data_per_200/1536.tfrecords"
        string_val: "./topology/tfrecords/train_data_per_200/1538.tfrecords"
        string_val: "./topology/tfrecords/train_data_per_200/1539.tfrecords"
        string_val: "./topology/tfrecords/train_data_per_200/1540.tfrecords"
        string_val: "./topology/tfrecords/train_data_per_200/1541.tfrecords"
        string_val: "./topology/tfrecords/train_data_per_200/1542.tfrecords"
        string_val: "./topology/tfrecords/train_data_per_200/1543.tfrecords"
        string_val: "./topology/tfrecords/train_data_per_200/1544.tfrecords"
        string_val: "./topology/tfrecords/train_data_per_200/1545.tfrecords"
        string_val: "./topology/tfrecords/train_data_per_200/1548.tfrecords"
        string_val: "./topology/tfrecords/train_data_per_200/1549.tfrecords"
        string_val: "./topology/tfrecords/train_data_per_200/154.tfrecords"
        string_val: "./topology/tfrecords/train_data_per_200/1550.tfrecords"
        string_val: "./topology/tfrecords/train_data_per_200/1551.tfrecords"
        string_val: "./topology/tfrecords/train_data_per_200/1553.tfrecords"
        string_val: "./topology/tfrecords/train_data_per_200/1554.tfrecords"
        string_val: "./topology/tfrecords/train_data_per_200/1555.tfrecords"
        string_val: "./topology/tfrecords/train_data_per_200/1557.tfrecords"
        string_val: "./topology/tfrecords/train_data_per_200/1558.tfrecords"
        string_val: "./topology/tfrecords/train_data_per_200/1559.tfrecords"
        string_val: "./topology/tfrecords/train_data_per_200/155.tfrecords"
        string_val: "./topology/tfrecords/train_data_per_200/1561.tfrecords"
        string_val: "./topology/tfrecords/train_data_per_200/1562.tfrecords"
        string_val: "./topology/tfrecords/train_data_per_200/1563.tfrecords"
        string_val: "./topology/tfrecords/train_data_per_200/1564.tfrecords"
        string_val: "./topology/tfrecords/train_data_per_200/1565.tfrecords"
        string_val: "./topology/tfrecords/train_data_per_200/1566.tfrecords"
        string_val: "./topology/tfrecords/train_data_per_200/1567.tfrecords"
        string_val: "./topology/tfrecords/train_data_per_200/1568.tfrecords"
        string_val: "./topology/tfrecords/train_data_per_200/1569.tfrecords"
        string_val: "./topology/tfrecords/train_data_per_200/1570.tfrecords"
        string_val: "./topology/tfrecords/train_data_per_200/1571.tfrecords"
        string_val: "./topology/tfrecords/train_data_per_200/1573.tfrecords"
        string_val: "./topology/tfrecords/train_data_per_200/1575.tfrecords"
        string_val: "./topology/tfrecords/train_data_per_200/1576.tfrecords"
        string_val: "./topology/tfrecords/train_data_per_200/1577.tfrecords"
        string_val: "./topology/tfrecords/train_data_per_200/1578.tfrecords"
        string_val: "./topology/tfrecords/train_data_per_200/1579.tfrecords"
        string_val: "./topology/tfrecords/train_data_per_200/1580.tfrecords"
        string_val: "./topology/tfrecords/train_data_per_200/1581.tfrecords"
        string_val: "./topology/tfrecords/train_data_per_200/1582.tfrecords"
        string_val: "./topology/tfrecords/train_data_per_200/1583.tfrecords"
        string_val: "./topology/tfrecords/train_data_per_200/1585.tfrecords"
        string_val: "./topology/tfrecords/train_data_per_200/1586.tfrecords"
        string_val: "./topology/tfrecords/train_data_per_200/1589.tfrecords"
        string_val: "./topology/tfrecords/train_data_per_200/158.tfrecords"
        string_val: "./topology/tfrecords/train_data_per_200/1590.tfrecords"
        string_val: "./topology/tfrecords/train_data_per_200/1592.tfrecords"
        string_val: "./topology/tfrecords/train_data_per_200/1593.tfrecords"
        string_val: "./topology/tfrecords/train_data_per_200/1594.tfrecords"
        string_val: "./topology/tfrecords/train_data_per_200/1595.tfrecords"
        string_val: "./topology/tfrecords/train_data_per_200/1596.tfrecords"
        string_val: "./topology/tfrecords/train_data_per_200/1599.tfrecords"
        string_val: "./topology/tfrecords/train_data_per_200/159.tfrecords"
        string_val: "./topology/tfrecords/train_data_per_200/15.tfrecords"
        string_val: "./topology/tfrecords/train_data_per_200/1600.tfrecords"
        string_val: "./topology/tfrecords/train_data_per_200/1601.tfrecords"
        string_val: "./topology/tfrecords/train_data_per_200/1603.tfrecords"
        string_val: "./topology/tfrecords/train_data_per_200/1604.tfrecords"
        string_val: "./topology/tfrecords/train_data_per_200/1605.tfrecords"
        string_val: "./topology/tfrecords/train_data_per_200/1606.tfrecords"
        string_val: "./topology/tfrecords/train_data_per_200/1607.tfrecords"
        string_val: "./topology/tfrecords/train_data_per_200/1608.tfrecords"
        string_val: "./topology/tfrecords/train_data_per_200/1609.tfrecords"
        string_val: "./topology/tfrecords/train_data_per_200/1610.tfrecords"
        string_val: "./topology/tfrecords/train_data_per_200/1611.tfrecords"
        string_val: "./topology/tfrecords/train_data_per_200/1612.tfrecords"
        string_val: "./topology/tfrecords/train_data_per_200/1613.tfrecords"
        string_val: "./topology/tfrecords/train_data_per_200/1614.tfrecords"
        string_val: "./topology/tfrecords/train_data_per_200/1615.tfrecords"
        string_val: "./topology/tfrecords/train_data_per_200/1617.tfrecords"
        string_val: "./topology/tfrecords/train_data_per_200/1620.tfrecords"
        string_val: "./topology/tfrecords/train_data_per_200/1622.tfrecords"
        string_val: "./topology/tfrecords/train_data_per_200/1623.tfrecords"
        string_val: "./topology/tfrecords/train_data_per_200/1624.tfrecords"
        string_val: "./topology/tfrecords/train_data_per_200/1626.tfrecords"
        string_val: "./topology/tfrecords/train_data_per_200/1627.tfrecords"
        string_val: "./topology/tfrecords/train_data_per_200/1628.tfrecords"
        string_val: "./topology/tfrecords/train_data_per_200/1629.tfrecords"
        string_val: "./topology/tfrecords/train_data_per_200/162.tfrecords"
        string_val: "./topology/tfrecords/train_data_per_200/1630.tfrecords"
        string_val: "./topology/tfrecords/train_data_per_200/1631.tfrecords"
        string_val: "./topology/tfrecords/train_data_per_200/1633.tfrecords"
        string_val: "./topology/tfrecords/train_data_per_200/1634.tfrecords"
        string_val: "./topology/tfrecords/train_data_per_200/1635.tfrecords"
        string_val: "./topology/tfrecords/train_data_per_200/1636.tfrecords"
        string_val: "./topology/tfrecords/train_data_per_200/1637.tfrecords"
        string_val: "./topology/tfrecords/train_data_per_200/1638.tfrecords"
        string_val: "./topology/tfrecords/train_data_per_200/1639.tfrecords"
        string_val: "./topology/tfrecords/train_data_per_200/163.tfrecords"
        string_val: "./topology/tfrecords/train_data_per_200/1641.tfrecords"
        string_val: "./topology/tfrecords/train_data_per_200/1642.tfrecords"
        string_val: "./topology/tfrecords/train_data_per_200/1643.tfrecords"
        string_val: "./topology/tfrecords/train_data_per_200/1644.tfrecords"
        string_val: "./topology/tfrecords/train_data_per_200/1645.tfrecords"
        string_val: "./topology/tfrecords/train_data_per_200/1647.tfrecords"
        string_val: "./topology/tfrecords/train_data_per_200/1649.tfrecords"
        string_val: "./topology/tfrecords/train_data_per_200/164.tfrecords"
        string_val: "./topology/tfrecords/train_data_per_200/1650.tfrecords"
        string_val: "./topology/tfrecords/train_data_per_200/1651.tfrecords"
        string_val: "./topology/tfrecords/train_data_per_200/1652.tfrecords"
        string_val: "./topology/tfrecords/train_data_per_200/1653.tfrecords"
        string_val: "./topology/tfrecords/train_data_per_200/1655.tfrecords"
        string_val: "./topology/tfrecords/train_data_per_200/1656.tfrecords"
        string_val: "./topology/tfrecords/train_data_per_200/1657.tfrecords"
        string_val: "./topology/tfrecords/train_data_per_200/1658.tfrecords"
        string_val: "./topology/tfrecords/train_data_per_200/1659.tfrecords"
        string_val: "./topology/tfrecords/train_data_per_200/165.tfrecords"
        string_val: "./topology/tfrecords/train_data_per_200/1660.tfrecords"
        string_val: "./topology/tfrecords/train_data_per_200/1663.tfrecords"
        string_val: "./topology/tfrecords/train_data_per_200/1665.tfrecords"
        string_val: "./topology/tfrecords/train_data_per_200/1668.tfrecords"
        string_val: "./topology/tfrecords/train_data_per_200/1672.tfrecords"
        string_val: "./topology/tfrecords/train_data_per_200/1675.tfrecords"
        string_val: "./topology/tfrecords/train_data_per_200/1678.tfrecords"
        string_val: "./topology/tfrecords/train_data_per_200/167.tfrecords"
        string_val: "./topology/tfrecords/train_data_per_200/1681.tfrecords"
        string_val: "./topology/tfrecords/train_data_per_200/1683.tfrecords"
        string_val: "./topology/tfrecords/train_data_per_200/1684.tfrecords"
        string_val: "./topology/tfrecords/train_data_per_200/1685.tfrecords"
        string_val: "./topology/tfrecords/train_data_per_200/1687.tfrecords"
        string_val: "./topology/tfrecords/train_data_per_200/1688.tfrecords"
        string_val: "./topology/tfrecords/train_data_per_200/168.tfrecords"
        string_val: "./topology/tfrecords/train_data_per_200/1691.tfrecords"
        string_val: "./topology/tfrecords/train_data_per_200/1692.tfrecords"
        string_val: "./topology/tfrecords/train_data_per_200/1693.tfrecords"
        string_val: "./topology/tfrecords/train_data_per_200/1694.tfrecords"
        string_val: "./topology/tfrecords/train_data_per_200/1695.tfrecords"
        string_val: "./topology/tfrecords/train_data_per_200/1696.tfrecords"
        string_val: "./topology/tfrecords/train_data_per_200/1698.tfrecords"
        string_val: "./topology/tfrecords/train_data_per_200/1699.tfrecords"
        string_val: "./topology/tfrecords/train_data_per_200/169.tfrecords"
        string_val: "./topology/tfrecords/train_data_per_200/16.tfrecords"
        string_val: "./topology/tfrecords/train_data_per_200/1700.tfrecords"
        string_val: "./topology/tfrecords/train_data_per_200/1702.tfrecords"
        string_val: "./topology/tfrecords/train_data_per_200/1703.tfrecords"
        string_val: "./topology/tfrecords/train_data_per_200/1704.tfrecords"
        string_val: "./topology/tfrecords/train_data_per_200/1705.tfrecords"
        string_val: "./topology/tfrecords/train_data_per_200/1706.tfrecords"
        string_val: "./topology/tfrecords/train_data_per_200/1707.tfrecords"
        string_val: "./topology/tfrecords/train_data_per_200/1708.tfrecords"
        string_val: "./topology/tfrecords/train_data_per_200/1709.tfrecords"
        string_val: "./topology/tfrecords/train_data_per_200/170.tfrecords"
        string_val: "./topology/tfrecords/train_data_per_200/1710.tfrecords"
        string_val: "./topology/tfrecords/train_data_per_200/1712.tfrecords"
        string_val: "./topology/tfrecords/train_data_per_200/1713.tfrecords"
        string_val: "./topology/tfrecords/train_data_per_200/1714.tfrecords"
        string_val: "./topology/tfrecords/train_data_per_200/1716.tfrecords"
        string_val: "./topology/tfrecords/train_data_per_200/1717.tfrecords"
        string_val: "./topology/tfrecords/train_data_per_200/1719.tfrecords"
        string_val: "./topology/tfrecords/train_data_per_200/171.tfrecords"
        string_val: "./topology/tfrecords/train_data_per_200/1720.tfrecords"
        string_val: "./topology/tfrecords/train_data_per_200/1721.tfrecords"
        string_val: "./topology/tfrecords/train_data_per_200/1722.tfrecords"
        string_val: "./topology/tfrecords/train_data_per_200/1724.tfrecords"
        string_val: "./topology/tfrecords/train_data_per_200/1726.tfrecords"
        string_val: "./topology/tfrecords/train_data_per_200/1727.tfrecords"
        string_val: "./topology/tfrecords/train_data_per_200/1728.tfrecords"
        string_val: "./topology/tfrecords/train_data_per_200/1729.tfrecords"
        string_val: "./topology/tfrecords/train_data_per_200/172.tfrecords"
        string_val: "./topology/tfrecords/train_data_per_200/1730.tfrecords"
        string_val: "./topology/tfrecords/train_data_per_200/1731.tfrecords"
        string_val: "./topology/tfrecords/train_data_per_200/1733.tfrecords"
        string_val: "./topology/tfrecords/train_data_per_200/1734.tfrecords"
        string_val: "./topology/tfrecords/train_data_per_200/1736.tfrecords"
        string_val: "./topology/tfrecords/train_data_per_200/1737.tfrecords"
        string_val: "./topology/tfrecords/train_data_per_200/1738.tfrecords"
        string_val: "./topology/tfrecords/train_data_per_200/1739.tfrecords"
        string_val: "./topology/tfrecords/train_data_per_200/173.tfrecords"
        string_val: "./topology/tfrecords/train_data_per_200/1740.tfrecords"
        string_val: "./topology/tfrecords/train_data_per_200/1741.tfrecords"
        string_val: "./topology/tfrecords/train_data_per_200/1742.tfrecords"
        string_val: "./topology/tfrecords/train_data_per_200/1744.tfrecords"
        string_val: "./topology/tfrecords/train_data_per_200/1745.tfrecords"
        string_val: "./topology/tfrecords/train_data_per_200/1746.tfrecords"
        string_val: "./topology/tfrecords/train_data_per_200/1747.tfrecords"
        string_val: "./topology/tfrecords/train_data_per_200/1749.tfrecords"
        string_val: "./topology/tfrecords/train_data_per_200/1751.tfrecords"
        string_val: "./topology/tfrecords/train_data_per_200/1753.tfrecords"
        string_val: "./topology/tfrecords/train_data_per_200/1754.tfrecords"
        string_val: "./topology/tfrecords/train_data_per_200/1755.tfrecords"
        string_val: "./topology/tfrecords/train_data_per_200/1756.tfrecords"
        string_val: "./topology/tfrecords/train_data_per_200/1757.tfrecords"
        string_val: "./topology/tfrecords/train_data_per_200/1759.tfrecords"
        string_val: "./topology/tfrecords/train_data_per_200/175.tfrecords"
        string_val: "./topology/tfrecords/train_data_per_200/1760.tfrecords"
        string_val: "./topology/tfrecords/train_data_per_200/1761.tfrecords"
        string_val: "./topology/tfrecords/train_data_per_200/1762.tfrecords"
        string_val: "./topology/tfrecords/train_data_per_200/1764.tfrecords"
        string_val: "./topology/tfrecords/train_data_per_200/1765.tfrecords"
        string_val: "./topology/tfrecords/train_data_per_200/1767.tfrecords"
        string_val: "./topology/tfrecords/train_data_per_200/1768.tfrecords"
        string_val: "./topology/tfrecords/train_data_per_200/1769.tfrecords"
        string_val: "./topology/tfrecords/train_data_per_200/176.tfrecords"
        string_val: "./topology/tfrecords/train_data_per_200/1770.tfrecords"
        string_val: "./topology/tfrecords/train_data_per_200/1771.tfrecords"
        string_val: "./topology/tfrecords/train_data_per_200/1772.tfrecords"
        string_val: "./topology/tfrecords/train_data_per_200/1773.tfrecords"
        string_val: "./topology/tfrecords/train_data_per_200/1774.tfrecords"
        string_val: "./topology/tfrecords/train_data_per_200/1777.tfrecords"
        string_val: "./topology/tfrecords/train_data_per_200/1778.tfrecords"
        string_val: "./topology/tfrecords/train_data_per_200/1779.tfrecords"
        string_val: "./topology/tfrecords/train_data_per_200/177.tfrecords"
        string_val: "./topology/tfrecords/train_data_per_200/1780.tfrecords"
        string_val: "./topology/tfrecords/train_data_per_200/1783.tfrecords"
        string_val: "./topology/tfrecords/train_data_per_200/1785.tfrecords"
        string_val: "./topology/tfrecords/train_data_per_200/1786.tfrecords"
        string_val: "./topology/tfrecords/train_data_per_200/1788.tfrecords"
        string_val: "./topology/tfrecords/train_data_per_200/1789.tfrecords"
        string_val: "./topology/tfrecords/train_data_per_200/178.tfrecords"
        string_val: "./topology/tfrecords/train_data_per_200/1790.tfrecords"
        string_val: "./topology/tfrecords/train_data_per_200/1791.tfrecords"
        string_val: "./topology/tfrecords/train_data_per_200/1793.tfrecords"
        string_val: "./topology/tfrecords/train_data_per_200/1794.tfrecords"
        string_val: "./topology/tfrecords/train_data_per_200/1795.tfrecords"
        string_val: "./topology/tfrecords/train_data_per_200/1796.tfrecords"
        string_val: "./topology/tfrecords/train_data_per_200/1797.tfrecords"
        string_val: "./topology/tfrecords/train_data_per_200/1798.tfrecords"
        string_val: "./topology/tfrecords/train_data_per_200/1799.tfrecords"
        string_val: "./topology/tfrecords/train_data_per_200/179.tfrecords"
        string_val: "./topology/tfrecords/train_data_per_200/1800.tfrecords"
        string_val: "./topology/tfrecords/train_data_per_200/1801.tfrecords"
        string_val: "./topology/tfrecords/train_data_per_200/1802.tfrecords"
        string_val: "./topology/tfrecords/train_data_per_200/1803.tfrecords"
        string_val: "./topology/tfrecords/train_data_per_200/1804.tfrecords"
        string_val: "./topology/tfrecords/train_data_per_200/1805.tfrecords"
        string_val: "./topology/tfrecords/train_data_per_200/1807.tfrecords"
        string_val: "./topology/tfrecords/train_data_per_200/1809.tfrecords"
        string_val: "./topology/tfrecords/train_data_per_200/180.tfrecords"
        string_val: "./topology/tfrecords/train_data_per_200/1810.tfrecords"
        string_val: "./topology/tfrecords/train_data_per_200/1811.tfrecords"
        string_val: "./topology/tfrecords/train_data_per_200/1813.tfrecords"
        string_val: "./topology/tfrecords/train_data_per_200/1814.tfrecords"
        string_val: "./topology/tfrecords/train_data_per_200/1815.tfrecords"
        string_val: "./topology/tfrecords/train_data_per_200/1816.tfrecords"
        string_val: "./topology/tfrecords/train_data_per_200/1817.tfrecords"
        string_val: "./topology/tfrecords/train_data_per_200/1818.tfrecords"
        string_val: "./topology/tfrecords/train_data_per_200/1819.tfrecords"
        string_val: "./topology/tfrecords/train_data_per_200/181.tfrecords"
        string_val: "./topology/tfrecords/train_data_per_200/1820.tfrecords"
        string_val: "./topology/tfrecords/train_data_per_200/1822.tfrecords"
        string_val: "./topology/tfrecords/train_data_per_200/1823.tfrecords"
        string_val: "./topology/tfrecords/train_data_per_200/1825.tfrecords"
        string_val: "./topology/tfrecords/train_data_per_200/1826.tfrecords"
        string_val: "./topology/tfrecords/train_data_per_200/1827.tfrecords"
        string_val: "./topology/tfrecords/train_data_per_200/1828.tfrecords"
        string_val: "./topology/tfrecords/train_data_per_200/1829.tfrecords"
        string_val: "./topology/tfrecords/train_data_per_200/182.tfrecords"
        string_val: "./topology/tfrecords/train_data_per_200/1830.tfrecords"
        string_val: "./topology/tfrecords/train_data_per_200/1831.tfrecords"
        string_val: "./topology/tfrecords/train_data_per_200/1832.tfrecords"
        string_val: "./topology/tfrecords/train_data_per_200/1833.tfrecords"
        string_val: "./topology/tfrecords/train_data_per_200/1834.tfrecords"
        string_val: "./topology/tfrecords/train_data_per_200/1837.tfrecords"
        string_val: "./topology/tfrecords/train_data_per_200/1838.tfrecords"
        string_val: "./topology/tfrecords/train_data_per_200/1839.tfrecords"
        string_val: "./topology/tfrecords/train_data_per_200/183.tfrecords"
        string_val: "./topology/tfrecords/train_data_per_200/1840.tfrecords"
        string_val: "./topology/tfrecords/train_data_per_200/1841.tfrecords"
        string_val: "./topology/tfrecords/train_data_per_200/1843.tfrecords"
        string_val: "./topology/tfrecords/train_data_per_200/1844.tfrecords"
        string_val: "./topology/tfrecords/train_data_per_200/1845.tfrecords"
        string_val: "./topology/tfrecords/train_data_per_200/1846.tfrecords"
        string_val: "./topology/tfrecords/train_data_per_200/1847.tfrecords"
        string_val: "./topology/tfrecords/train_data_per_200/1848.tfrecords"
        string_val: "./topology/tfrecords/train_data_per_200/184.tfrecords"
        string_val: "./topology/tfrecords/train_data_per_200/1850.tfrecords"
        string_val: "./topology/tfrecords/train_data_per_200/1852.tfrecords"
        string_val: "./topology/tfrecords/train_data_per_200/1853.tfrecords"
        string_val: "./topology/tfrecords/train_data_per_200/1855.tfrecords"
        string_val: "./topology/tfrecords/train_data_per_200/1856.tfrecords"
        string_val: "./topology/tfrecords/train_data_per_200/1857.tfrecords"
        string_val: "./topology/tfrecords/train_data_per_200/1858.tfrecords"
        string_val: "./topology/tfrecords/train_data_per_200/1859.tfrecords"
        string_val: "./topology/tfrecords/train_data_per_200/185.tfrecords"
        string_val: "./topology/tfrecords/train_data_per_200/1861.tfrecords"
        string_val: "./topology/tfrecords/train_data_per_200/1862.tfrecords"
        string_val: "./topology/tfrecords/train_data_per_200/1863.tfrecords"
        string_val: "./topology/tfrecords/train_data_per_200/1864.tfrecords"
        string_val: "./topology/tfrecords/train_data_per_200/1865.tfrecords"
        string_val: "./topology/tfrecords/train_data_per_200/1866.tfrecords"
        string_val: "./topology/tfrecords/train_data_per_200/1867.tfrecords"
        string_val: "./topology/tfrecords/train_data_per_200/1868.tfrecords"
        string_val: "./topology/tfrecords/train_data_per_200/1869.tfrecords"
        string_val: "./topology/tfrecords/train_data_per_200/186.tfrecords"
        string_val: "./topology/tfrecords/train_data_per_200/1870.tfrecords"
        string_val: "./topology/tfrecords/train_data_per_200/1871.tfrecords"
        string_val: "./topology/tfrecords/train_data_per_200/1873.tfrecords"
        string_val: "./topology/tfrecords/train_data_per_200/1874.tfrecords"
        string_val: "./topology/tfrecords/train_data_per_200/1875.tfrecords"
        string_val: "./topology/tfrecords/train_data_per_200/1877.tfrecords"
        string_val: "./topology/tfrecords/train_data_per_200/1878.tfrecords"
        string_val: "./topology/tfrecords/train_data_per_200/1879.tfrecords"
        string_val: "./topology/tfrecords/train_data_per_200/187.tfrecords"
        string_val: "./topology/tfrecords/train_data_per_200/1880.tfrecords"
        string_val: "./topology/tfrecords/train_data_per_200/1881.tfrecords"
        string_val: "./topology/tfrecords/train_data_per_200/1883.tfrecords"
        string_val: "./topology/tfrecords/train_data_per_200/1886.tfrecords"
        string_val: "./topology/tfrecords/train_data_per_200/1887.tfrecords"
        string_val: "./topology/tfrecords/train_data_per_200/1888.tfrecords"
        string_val: "./topology/tfrecords/train_data_per_200/1889.tfrecords"
        string_val: "./topology/tfrecords/train_data_per_200/188.tfrecords"
        string_val: "./topology/tfrecords/train_data_per_200/1890.tfrecords"
        string_val: "./topology/tfrecords/train_data_per_200/1891.tfrecords"
        string_val: "./topology/tfrecords/train_data_per_200/1892.tfrecords"
        string_val: "./topology/tfrecords/train_data_per_200/1893.tfrecords"
        string_val: "./topology/tfrecords/train_data_per_200/1894.tfrecords"
        string_val: "./topology/tfrecords/train_data_per_200/1895.tfrecords"
        string_val: "./topology/tfrecords/train_data_per_200/1896.tfrecords"
        string_val: "./topology/tfrecords/train_data_per_200/1897.tfrecords"
        string_val: "./topology/tfrecords/train_data_per_200/1898.tfrecords"
        string_val: "./topology/tfrecords/train_data_per_200/1899.tfrecords"
        string_val: "./topology/tfrecords/train_data_per_200/189.tfrecords"
        string_val: "./topology/tfrecords/train_data_per_200/18.tfrecords"
        string_val: "./topology/tfrecords/train_data_per_200/1900.tfrecords"
        string_val: "./topology/tfrecords/train_data_per_200/1901.tfrecords"
        string_val: "./topology/tfrecords/train_data_per_200/1903.tfrecords"
        string_val: "./topology/tfrecords/train_data_per_200/1904.tfrecords"
        string_val: "./topology/tfrecords/train_data_per_200/1905.tfrecords"
        string_val: "./topology/tfrecords/train_data_per_200/1906.tfrecords"
        string_val: "./topology/tfrecords/train_data_per_200/1908.tfrecords"
        string_val: "./topology/tfrecords/train_data_per_200/190.tfrecords"
        string_val: "./topology/tfrecords/train_data_per_200/1910.tfrecords"
        string_val: "./topology/tfrecords/train_data_per_200/1911.tfrecords"
        string_val: "./topology/tfrecords/train_data_per_200/1912.tfrecords"
        string_val: "./topology/tfrecords/train_data_per_200/1913.tfrecords"
        string_val: "./topology/tfrecords/train_data_per_200/1914.tfrecords"
        string_val: "./topology/tfrecords/train_data_per_200/1915.tfrecords"
        string_val: "./topology/tfrecords/train_data_per_200/1916.tfrecords"
        string_val: "./topology/tfrecords/train_data_per_200/1917.tfrecords"
        string_val: "./topology/tfrecords/train_data_per_200/1918.tfrecords"
        string_val: "./topology/tfrecords/train_data_per_200/1919.tfrecords"
        string_val: "./topology/tfrecords/train_data_per_200/191.tfrecords"
        string_val: "./topology/tfrecords/train_data_per_200/1920.tfrecords"
        string_val: "./topology/tfrecords/train_data_per_200/1921.tfrecords"
        string_val: "./topology/tfrecords/train_data_per_200/1922.tfrecords"
        string_val: "./topology/tfrecords/train_data_per_200/1923.tfrecords"
        string_val: "./topology/tfrecords/train_data_per_200/1924.tfrecords"
        string_val: "./topology/tfrecords/train_data_per_200/1925.tfrecords"
        string_val: "./topology/tfrecords/train_data_per_200/1926.tfrecords"
        string_val: "./topology/tfrecords/train_data_per_200/1927.tfrecords"
        string_val: "./topology/tfrecords/train_data_per_200/1928.tfrecords"
        string_val: "./topology/tfrecords/train_data_per_200/1929.tfrecords"
        string_val: "./topology/tfrecords/train_data_per_200/1930.tfrecords"
        string_val: "./topology/tfrecords/train_data_per_200/1931.tfrecords"
        string_val: "./topology/tfrecords/train_data_per_200/1934.tfrecords"
        string_val: "./topology/tfrecords/train_data_per_200/1935.tfrecords"
        string_val: "./topology/tfrecords/train_data_per_200/1936.tfrecords"
        string_val: "./topology/tfrecords/train_data_per_200/1937.tfrecords"
        string_val: "./topology/tfrecords/train_data_per_200/1938.tfrecords"
        string_val: "./topology/tfrecords/train_data_per_200/1939.tfrecords"
        string_val: "./topology/tfrecords/train_data_per_200/193.tfrecords"
        string_val: "./topology/tfrecords/train_data_per_200/1940.tfrecords"
        string_val: "./topology/tfrecords/train_data_per_200/1941.tfrecords"
        string_val: "./topology/tfrecords/train_data_per_200/1942.tfrecords"
        string_val: "./topology/tfrecords/train_data_per_200/1943.tfrecords"
        string_val: "./topology/tfrecords/train_data_per_200/1944.tfrecords"
        string_val: "./topology/tfrecords/train_data_per_200/1945.tfrecords"
        string_val: "./topology/tfrecords/train_data_per_200/1946.tfrecords"
        string_val: "./topology/tfrecords/train_data_per_200/1947.tfrecords"
        string_val: "./topology/tfrecords/train_data_per_200/1948.tfrecords"
        string_val: "./topology/tfrecords/train_data_per_200/1949.tfrecords"
        string_val: "./topology/tfrecords/train_data_per_200/194.tfrecords"
        string_val: "./topology/tfrecords/train_data_per_200/1950.tfrecords"
        string_val: "./topology/tfrecords/train_data_per_200/1952.tfrecords"
        string_val: "./topology/tfrecords/train_data_per_200/1953.tfrecords"
        string_val: "./topology/tfrecords/train_data_per_200/1954.tfrecords"
        string_val: "./topology/tfrecords/train_data_per_200/1955.tfrecords"
        string_val: "./topology/tfrecords/train_data_per_200/1956.tfrecords"
        string_val: "./topology/tfrecords/train_data_per_200/1957.tfrecords"
        string_val: "./topology/tfrecords/train_data_per_200/1958.tfrecords"
        string_val: "./topology/tfrecords/train_data_per_200/1959.tfrecords"
        string_val: "./topology/tfrecords/train_data_per_200/195.tfrecords"
        string_val: "./topology/tfrecords/train_data_per_200/1960.tfrecords"
        string_val: "./topology/tfrecords/train_data_per_200/1961.tfrecords"
        string_val: "./topology/tfrecords/train_data_per_200/1963.tfrecords"
        string_val: "./topology/tfrecords/train_data_per_200/1964.tfrecords"
        string_val: "./topology/tfrecords/train_data_per_200/1965.tfrecords"
        string_val: "./topology/tfrecords/train_data_per_200/1966.tfrecords"
        string_val: "./topology/tfrecords/train_data_per_200/1967.tfrecords"
        string_val: "./topology/tfrecords/train_data_per_200/1968.tfrecords"
        string_val: "./topology/tfrecords/train_data_per_200/1969.tfrecords"
        string_val: "./topology/tfrecords/train_data_per_200/1970.tfrecords"
        string_val: "./topology/tfrecords/train_data_per_200/1971.tfrecords"
        string_val: "./topology/tfrecords/train_data_per_200/1972.tfrecords"
        string_val: "./topology/tfrecords/train_data_per_200/1974.tfrecords"
        string_val: "./topology/tfrecords/train_data_per_200/1975.tfrecords"
        string_val: "./topology/tfrecords/train_data_per_200/1976.tfrecords"
        string_val: "./topology/tfrecords/train_data_per_200/1978.tfrecords"
        string_val: "./topology/tfrecords/train_data_per_200/1980.tfrecords"
        string_val: "./topology/tfrecords/train_data_per_200/1981.tfrecords"
        string_val: "./topology/tfrecords/train_data_per_200/1982.tfrecords"
        string_val: "./topology/tfrecords/train_data_per_200/1984.tfrecords"
        string_val: "./topology/tfrecords/train_data_per_200/1985.tfrecords"
        string_val: "./topology/tfrecords/train_data_per_200/1986.tfrecords"
        string_val: "./topology/tfrecords/train_data_per_200/1987.tfrecords"
        string_val: "./topology/tfrecords/train_data_per_200/1988.tfrecords"
        string_val: "./topology/tfrecords/train_data_per_200/1989.tfrecords"
        string_val: "./topology/tfrecords/train_data_per_200/198.tfrecords"
        string_val: "./topology/tfrecords/train_data_per_200/1990.tfrecords"
        string_val: "./topology/tfrecords/train_data_per_200/1991.tfrecords"
        string_val: "./topology/tfrecords/train_data_per_200/1992.tfrecords"
        string_val: "./topology/tfrecords/train_data_per_200/1993.tfrecords"
        string_val: "./topology/tfrecords/train_data_per_200/1995.tfrecords"
        string_val: "./topology/tfrecords/train_data_per_200/1996.tfrecords"
        string_val: "./topology/tfrecords/train_data_per_200/1997.tfrecords"
        string_val: "./topology/tfrecords/train_data_per_200/1998.tfrecords"
        string_val: "./topology/tfrecords/train_data_per_200/1999.tfrecords"
        string_val: "./topology/tfrecords/train_data_per_200/199.tfrecords"
        string_val: "./topology/tfrecords/train_data_per_200/19.tfrecords"
        string_val: "./topology/tfrecords/train_data_per_200/1.tfrecords"
        string_val: "./topology/tfrecords/train_data_per_200/2000.tfrecords"
        string_val: "./topology/tfrecords/train_data_per_200/2001.tfrecords"
        string_val: "./topology/tfrecords/train_data_per_200/2002.tfrecords"
        string_val: "./topology/tfrecords/train_data_per_200/2003.tfrecords"
        string_val: "./topology/tfrecords/train_data_per_200/2004.tfrecords"
        string_val: "./topology/tfrecords/train_data_per_200/2005.tfrecords"
        string_val: "./topology/tfrecords/train_data_per_200/2006.tfrecords"
        string_val: "./topology/tfrecords/train_data_per_200/2007.tfrecords"
        string_val: "./topology/tfrecords/train_data_per_200/200.tfrecords"
        string_val: "./topology/tfrecords/train_data_per_200/2010.tfrecords"
        string_val: "./topology/tfrecords/train_data_per_200/2012.tfrecords"
        string_val: "./topology/tfrecords/train_data_per_200/2013.tfrecords"
        string_val: "./topology/tfrecords/train_data_per_200/2014.tfrecords"
        string_val: "./topology/tfrecords/train_data_per_200/2015.tfrecords"
        string_val: "./topology/tfrecords/train_data_per_200/2019.tfrecords"
        string_val: "./topology/tfrecords/train_data_per_200/201.tfrecords"
        string_val: "./topology/tfrecords/train_data_per_200/2020.tfrecords"
        string_val: "./topology/tfrecords/train_data_per_200/2021.tfrecords"
        string_val: "./topology/tfrecords/train_data_per_200/2022.tfrecords"
        string_val: "./topology/tfrecords/train_data_per_200/2023.tfrecords"
        string_val: "./topology/tfrecords/train_data_per_200/2024.tfrecords"
        string_val: "./topology/tfrecords/train_data_per_200/2027.tfrecords"
        string_val: "./topology/tfrecords/train_data_per_200/2029.tfrecords"
        string_val: "./topology/tfrecords/train_data_per_200/2030.tfrecords"
        string_val: "./topology/tfrecords/train_data_per_200/2032.tfrecords"
        string_val: "./topology/tfrecords/train_data_per_200/2033.tfrecords"
        string_val: "./topology/tfrecords/train_data_per_200/2035.tfrecords"
        string_val: "./topology/tfrecords/train_data_per_200/2037.tfrecords"
        string_val: "./topology/tfrecords/train_data_per_200/2038.tfrecords"
        string_val: "./topology/tfrecords/train_data_per_200/2039.tfrecords"
        string_val: "./topology/tfrecords/train_data_per_200/2040.tfrecords"
        string_val: "./topology/tfrecords/train_data_per_200/2041.tfrecords"
        string_val: "./topology/tfrecords/train_data_per_200/2042.tfrecords"
        string_val: "./topology/tfrecords/train_data_per_200/2043.tfrecords"
        string_val: "./topology/tfrecords/train_data_per_200/2044.tfrecords"
        string_val: "./topology/tfrecords/train_data_per_200/2045.tfrecords"
        string_val: "./topology/tfrecords/train_data_per_200/2046.tfrecords"
        string_val: "./topology/tfrecords/train_data_per_200/2047.tfrecords"
        string_val: "./topology/tfrecords/train_data_per_200/2048.tfrecords"
        string_val: "./topology/tfrecords/train_data_per_200/2049.tfrecords"
        string_val: "./topology/tfrecords/train_data_per_200/204.tfrecords"
        string_val: "./topology/tfrecords/train_data_per_200/2050.tfrecords"
        string_val: "./topology/tfrecords/train_data_per_200/2051.tfrecords"
        string_val: "./topology/tfrecords/train_data_per_200/2052.tfrecords"
        string_val: "./topology/tfrecords/train_data_per_200/2053.tfrecords"
        string_val: "./topology/tfrecords/train_data_per_200/2054.tfrecords"
        string_val: "./topology/tfrecords/train_data_per_200/2056.tfrecords"
        string_val: "./topology/tfrecords/train_data_per_200/2057.tfrecords"
        string_val: "./topology/tfrecords/train_data_per_200/2058.tfrecords"
        string_val: "./topology/tfrecords/train_data_per_200/205.tfrecords"
        string_val: "./topology/tfrecords/train_data_per_200/2060.tfrecords"
        string_val: "./topology/tfrecords/train_data_per_200/2064.tfrecords"
        string_val: "./topology/tfrecords/train_data_per_200/2065.tfrecords"
        string_val: "./topology/tfrecords/train_data_per_200/2066.tfrecords"
        string_val: "./topology/tfrecords/train_data_per_200/2067.tfrecords"
        string_val: "./topology/tfrecords/train_data_per_200/2068.tfrecords"
        string_val: "./topology/tfrecords/train_data_per_200/2069.tfrecords"
        string_val: "./topology/tfrecords/train_data_per_200/206.tfrecords"
        string_val: "./topology/tfrecords/train_data_per_200/2070.tfrecords"
        string_val: "./topology/tfrecords/train_data_per_200/2071.tfrecords"
        string_val: "./topology/tfrecords/train_data_per_200/2073.tfrecords"
        string_val: "./topology/tfrecords/train_data_per_200/2074.tfrecords"
        string_val: "./topology/tfrecords/train_data_per_200/2075.tfrecords"
        string_val: "./topology/tfrecords/train_data_per_200/2076.tfrecords"
        string_val: "./topology/tfrecords/train_data_per_200/2077.tfrecords"
        string_val: "./topology/tfrecords/train_data_per_200/2078.tfrecords"
        string_val: "./topology/tfrecords/train_data_per_200/2079.tfrecords"
        string_val: "./topology/tfrecords/train_data_per_200/2080.tfrecords"
        string_val: "./topology/tfrecords/train_data_per_200/2081.tfrecords"
        string_val: "./topology/tfrecords/train_data_per_200/2082.tfrecords"
        string_val: "./topology/tfrecords/train_data_per_200/2083.tfrecords"
        string_val: "./topology/tfrecords/train_data_per_200/2084.tfrecords"
        string_val: "./topology/tfrecords/train_data_per_200/2085.tfrecords"
        string_val: "./topology/tfrecords/train_data_per_200/2086.tfrecords"
        string_val: "./topology/tfrecords/train_data_per_200/2088.tfrecords"
        string_val: "./topology/tfrecords/train_data_per_200/2090.tfrecords"
        string_val: "./topology/tfrecords/train_data_per_200/2091.tfrecords"
        string_val: "./topology/tfrecords/train_data_per_200/2092.tfrecords"
        string_val: "./topology/tfrecords/train_data_per_200/2093.tfrecords"
        string_val: "./topology/tfrecords/train_data_per_200/2096.tfrecords"
        string_val: "./topology/tfrecords/train_data_per_200/2097.tfrecords"
        string_val: "./topology/tfrecords/train_data_per_200/2098.tfrecords"
        string_val: "./topology/tfrecords/train_data_per_200/2099.tfrecords"
        string_val: "./topology/tfrecords/train_data_per_200/209.tfrecords"
        string_val: "./topology/tfrecords/train_data_per_200/20.tfrecords"
        string_val: "./topology/tfrecords/train_data_per_200/2100.tfrecords"
        string_val: "./topology/tfrecords/train_data_per_200/2101.tfrecords"
        string_val: "./topology/tfrecords/train_data_per_200/2102.tfrecords"
        string_val: "./topology/tfrecords/train_data_per_200/2103.tfrecords"
        string_val: "./topology/tfrecords/train_data_per_200/2104.tfrecords"
        string_val: "./topology/tfrecords/train_data_per_200/2105.tfrecords"
        string_val: "./topology/tfrecords/train_data_per_200/2106.tfrecords"
        string_val: "./topology/tfrecords/train_data_per_200/2108.tfrecords"
        string_val: "./topology/tfrecords/train_data_per_200/2109.tfrecords"
        string_val: "./topology/tfrecords/train_data_per_200/2110.tfrecords"
        string_val: "./topology/tfrecords/train_data_per_200/2112.tfrecords"
        string_val: "./topology/tfrecords/train_data_per_200/2113.tfrecords"
        string_val: "./topology/tfrecords/train_data_per_200/2114.tfrecords"
        string_val: "./topology/tfrecords/train_data_per_200/2115.tfrecords"
        string_val: "./topology/tfrecords/train_data_per_200/2116.tfrecords"
        string_val: "./topology/tfrecords/train_data_per_200/2117.tfrecords"
        string_val: "./topology/tfrecords/train_data_per_200/2118.tfrecords"
        string_val: "./topology/tfrecords/train_data_per_200/2120.tfrecords"
        string_val: "./topology/tfrecords/train_data_per_200/2121.tfrecords"
        string_val: "./topology/tfrecords/train_data_per_200/2122.tfrecords"
        string_val: "./topology/tfrecords/train_data_per_200/2124.tfrecords"
        string_val: "./topology/tfrecords/train_data_per_200/2125.tfrecords"
        string_val: "./topology/tfrecords/train_data_per_200/2126.tfrecords"
        string_val: "./topology/tfrecords/train_data_per_200/2127.tfrecords"
        string_val: "./topology/tfrecords/train_data_per_200/2128.tfrecords"
        string_val: "./topology/tfrecords/train_data_per_200/212.tfrecords"
        string_val: "./topology/tfrecords/train_data_per_200/2132.tfrecords"
        string_val: "./topology/tfrecords/train_data_per_200/2133.tfrecords"
        string_val: "./topology/tfrecords/train_data_per_200/2134.tfrecords"
        string_val: "./topology/tfrecords/train_data_per_200/2135.tfrecords"
        string_val: "./topology/tfrecords/train_data_per_200/2136.tfrecords"
        string_val: "./topology/tfrecords/train_data_per_200/2138.tfrecords"
        string_val: "./topology/tfrecords/train_data_per_200/2139.tfrecords"
        string_val: "./topology/tfrecords/train_data_per_200/213.tfrecords"
        string_val: "./topology/tfrecords/train_data_per_200/2140.tfrecords"
        string_val: "./topology/tfrecords/train_data_per_200/2141.tfrecords"
        string_val: "./topology/tfrecords/train_data_per_200/2142.tfrecords"
        string_val: "./topology/tfrecords/train_data_per_200/2144.tfrecords"
        string_val: "./topology/tfrecords/train_data_per_200/2145.tfrecords"
        string_val: "./topology/tfrecords/train_data_per_200/2147.tfrecords"
        string_val: "./topology/tfrecords/train_data_per_200/2148.tfrecords"
        string_val: "./topology/tfrecords/train_data_per_200/214.tfrecords"
        string_val: "./topology/tfrecords/train_data_per_200/2151.tfrecords"
        string_val: "./topology/tfrecords/train_data_per_200/2153.tfrecords"
        string_val: "./topology/tfrecords/train_data_per_200/2155.tfrecords"
        string_val: "./topology/tfrecords/train_data_per_200/2156.tfrecords"
        string_val: "./topology/tfrecords/train_data_per_200/2157.tfrecords"
        string_val: "./topology/tfrecords/train_data_per_200/2158.tfrecords"
        string_val: "./topology/tfrecords/train_data_per_200/2159.tfrecords"
        string_val: "./topology/tfrecords/train_data_per_200/2160.tfrecords"
        string_val: "./topology/tfrecords/train_data_per_200/2161.tfrecords"
        string_val: "./topology/tfrecords/train_data_per_200/2162.tfrecords"
        string_val: "./topology/tfrecords/train_data_per_200/2163.tfrecords"
        string_val: "./topology/tfrecords/train_data_per_200/2165.tfrecords"
        string_val: "./topology/tfrecords/train_data_per_200/2166.tfrecords"
        string_val: "./topology/tfrecords/train_data_per_200/2167.tfrecords"
        string_val: "./topology/tfrecords/train_data_per_200/2168.tfrecords"
        string_val: "./topology/tfrecords/train_data_per_200/2169.tfrecords"
        string_val: "./topology/tfrecords/train_data_per_200/216.tfrecords"
        string_val: "./topology/tfrecords/train_data_per_200/2170.tfrecords"
        string_val: "./topology/tfrecords/train_data_per_200/2171.tfrecords"
        string_val: "./topology/tfrecords/train_data_per_200/2172.tfrecords"
        string_val: "./topology/tfrecords/train_data_per_200/2173.tfrecords"
        string_val: "./topology/tfrecords/train_data_per_200/2175.tfrecords"
        string_val: "./topology/tfrecords/train_data_per_200/2176.tfrecords"
        string_val: "./topology/tfrecords/train_data_per_200/2177.tfrecords"
        string_val: "./topology/tfrecords/train_data_per_200/2179.tfrecords"
        string_val: "./topology/tfrecords/train_data_per_200/217.tfrecords"
        string_val: "./topology/tfrecords/train_data_per_200/2180.tfrecords"
        string_val: "./topology/tfrecords/train_data_per_200/2181.tfrecords"
        string_val: "./topology/tfrecords/train_data_per_200/2182.tfrecords"
        string_val: "./topology/tfrecords/train_data_per_200/2183.tfrecords"
        string_val: "./topology/tfrecords/train_data_per_200/2184.tfrecords"
        string_val: "./topology/tfrecords/train_data_per_200/2185.tfrecords"
        string_val: "./topology/tfrecords/train_data_per_200/2186.tfrecords"
        string_val: "./topology/tfrecords/train_data_per_200/2187.tfrecords"
        string_val: "./topology/tfrecords/train_data_per_200/2188.tfrecords"
        string_val: "./topology/tfrecords/train_data_per_200/2189.tfrecords"
        string_val: "./topology/tfrecords/train_data_per_200/218.tfrecords"
        string_val: "./topology/tfrecords/train_data_per_200/2190.tfrecords"
        string_val: "./topology/tfrecords/train_data_per_200/2191.tfrecords"
        string_val: "./topology/tfrecords/train_data_per_200/2192.tfrecords"
        string_val: "./topology/tfrecords/train_data_per_200/2194.tfrecords"
        string_val: "./topology/tfrecords/train_data_per_200/2195.tfrecords"
        string_val: "./topology/tfrecords/train_data_per_200/2196.tfrecords"
        string_val: "./topology/tfrecords/train_data_per_200/2197.tfrecords"
        string_val: "./topology/tfrecords/train_data_per_200/2198.tfrecords"
        string_val: "./topology/tfrecords/train_data_per_200/2199.tfrecords"
        string_val: "./topology/tfrecords/train_data_per_200/219.tfrecords"
        string_val: "./topology/tfrecords/train_data_per_200/2200.tfrecords"
        string_val: "./topology/tfrecords/train_data_per_200/2203.tfrecords"
        string_val: "./topology/tfrecords/train_data_per_200/2204.tfrecords"
        string_val: "./topology/tfrecords/train_data_per_200/2205.tfrecords"
        string_val: "./topology/tfrecords/train_data_per_200/2206.tfrecords"
        string_val: "./topology/tfrecords/train_data_per_200/2207.tfrecords"
        string_val: "./topology/tfrecords/train_data_per_200/2208.tfrecords"
        string_val: "./topology/tfrecords/train_data_per_200/2209.tfrecords"
        string_val: "./topology/tfrecords/train_data_per_200/2210.tfrecords"
        string_val: "./topology/tfrecords/train_data_per_200/2211.tfrecords"
        string_val: "./topology/tfrecords/train_data_per_200/2212.tfrecords"
        string_val: "./topology/tfrecords/train_data_per_200/2213.tfrecords"
        string_val: "./topology/tfrecords/train_data_per_200/2215.tfrecords"
        string_val: "./topology/tfrecords/train_data_per_200/2218.tfrecords"
        string_val: "./topology/tfrecords/train_data_per_200/2219.tfrecords"
        string_val: "./topology/tfrecords/train_data_per_200/221.tfrecords"
        string_val: "./topology/tfrecords/train_data_per_200/2220.tfrecords"
        string_val: "./topology/tfrecords/train_data_per_200/2221.tfrecords"
        string_val: "./topology/tfrecords/train_data_per_200/2222.tfrecords"
        string_val: "./topology/tfrecords/train_data_per_200/2224.tfrecords"
        string_val: "./topology/tfrecords/train_data_per_200/2225.tfrecords"
        string_val: "./topology/tfrecords/train_data_per_200/2226.tfrecords"
        string_val: "./topology/tfrecords/train_data_per_200/2227.tfrecords"
        string_val: "./topology/tfrecords/train_data_per_200/2228.tfrecords"
        string_val: "./topology/tfrecords/train_data_per_200/222.tfrecords"
        string_val: "./topology/tfrecords/train_data_per_200/2230.tfrecords"
        string_val: "./topology/tfrecords/train_data_per_200/2231.tfrecords"
        string_val: "./topology/tfrecords/train_data_per_200/2232.tfrecords"
        string_val: "./topology/tfrecords/train_data_per_200/2233.tfrecords"
        string_val: "./topology/tfrecords/train_data_per_200/2234.tfrecords"
        string_val: "./topology/tfrecords/train_data_per_200/2235.tfrecords"
        string_val: "./topology/tfrecords/train_data_per_200/2236.tfrecords"
        string_val: "./topology/tfrecords/train_data_per_200/2237.tfrecords"
        string_val: "./topology/tfrecords/train_data_per_200/2239.tfrecords"
        string_val: "./topology/tfrecords/train_data_per_200/223.tfrecords"
        string_val: "./topology/tfrecords/train_data_per_200/2240.tfrecords"
        string_val: "./topology/tfrecords/train_data_per_200/2241.tfrecords"
        string_val: "./topology/tfrecords/train_data_per_200/2242.tfrecords"
        string_val: "./topology/tfrecords/train_data_per_200/2243.tfrecords"
        string_val: "./topology/tfrecords/train_data_per_200/2244.tfrecords"
        string_val: "./topology/tfrecords/train_data_per_200/2245.tfrecords"
        string_val: "./topology/tfrecords/train_data_per_200/2246.tfrecords"
        string_val: "./topology/tfrecords/train_data_per_200/2247.tfrecords"
        string_val: "./topology/tfrecords/train_data_per_200/2248.tfrecords"
        string_val: "./topology/tfrecords/train_data_per_200/2249.tfrecords"
        string_val: "./topology/tfrecords/train_data_per_200/224.tfrecords"
        string_val: "./topology/tfrecords/train_data_per_200/2250.tfrecords"
        string_val: "./topology/tfrecords/train_data_per_200/2251.tfrecords"
        string_val: "./topology/tfrecords/train_data_per_200/2252.tfrecords"
        string_val: "./topology/tfrecords/train_data_per_200/2254.tfrecords"
        string_val: "./topology/tfrecords/train_data_per_200/2255.tfrecords"
        string_val: "./topology/tfrecords/train_data_per_200/2256.tfrecords"
        string_val: "./topology/tfrecords/train_data_per_200/2259.tfrecords"
        string_val: "./topology/tfrecords/train_data_per_200/225.tfrecords"
        string_val: "./topology/tfrecords/train_data_per_200/2260.tfrecords"
        string_val: "./topology/tfrecords/train_data_per_200/2261.tfrecords"
        string_val: "./topology/tfrecords/train_data_per_200/2262.tfrecords"
        string_val: "./topology/tfrecords/train_data_per_200/2263.tfrecords"
        string_val: "./topology/tfrecords/train_data_per_200/2264.tfrecords"
        string_val: "./topology/tfrecords/train_data_per_200/2265.tfrecords"
        string_val: "./topology/tfrecords/train_data_per_200/2266.tfrecords"
        string_val: "./topology/tfrecords/train_data_per_200/2267.tfrecords"
        string_val: "./topology/tfrecords/train_data_per_200/2269.tfrecords"
        string_val: "./topology/tfrecords/train_data_per_200/226.tfrecords"
        string_val: "./topology/tfrecords/train_data_per_200/2270.tfrecords"
        string_val: "./topology/tfrecords/train_data_per_200/2271.tfrecords"
        string_val: "./topology/tfrecords/train_data_per_200/2272.tfrecords"
        string_val: "./topology/tfrecords/train_data_per_200/2273.tfrecords"
        string_val: "./topology/tfrecords/train_data_per_200/2274.tfrecords"
        string_val: "./topology/tfrecords/train_data_per_200/2276.tfrecords"
        string_val: "./topology/tfrecords/train_data_per_200/2277.tfrecords"
        string_val: "./topology/tfrecords/train_data_per_200/2278.tfrecords"
        string_val: "./topology/tfrecords/train_data_per_200/2279.tfrecords"
        string_val: "./topology/tfrecords/train_data_per_200/227.tfrecords"
        string_val: "./topology/tfrecords/train_data_per_200/2281.tfrecords"
        string_val: "./topology/tfrecords/train_data_per_200/2283.tfrecords"
        string_val: "./topology/tfrecords/train_data_per_200/2284.tfrecords"
        string_val: "./topology/tfrecords/train_data_per_200/2285.tfrecords"
        string_val: "./topology/tfrecords/train_data_per_200/2286.tfrecords"
        string_val: "./topology/tfrecords/train_data_per_200/2287.tfrecords"
        string_val: "./topology/tfrecords/train_data_per_200/2289.tfrecords"
        string_val: "./topology/tfrecords/train_data_per_200/228.tfrecords"
        string_val: "./topology/tfrecords/train_data_per_200/2290.tfrecords"
        string_val: "./topology/tfrecords/train_data_per_200/2291.tfrecords"
        string_val: "./topology/tfrecords/train_data_per_200/2292.tfrecords"
        string_val: "./topology/tfrecords/train_data_per_200/2293.tfrecords"
        string_val: "./topology/tfrecords/train_data_per_200/2297.tfrecords"
        string_val: "./topology/tfrecords/train_data_per_200/2299.tfrecords"
        string_val: "./topology/tfrecords/train_data_per_200/22.tfrecords"
        string_val: "./topology/tfrecords/train_data_per_200/2301.tfrecords"
        string_val: "./topology/tfrecords/train_data_per_200/2302.tfrecords"
        string_val: "./topology/tfrecords/train_data_per_200/2305.tfrecords"
        string_val: "./topology/tfrecords/train_data_per_200/2306.tfrecords"
        string_val: "./topology/tfrecords/train_data_per_200/2307.tfrecords"
        string_val: "./topology/tfrecords/train_data_per_200/2309.tfrecords"
        string_val: "./topology/tfrecords/train_data_per_200/230.tfrecords"
        string_val: "./topology/tfrecords/train_data_per_200/2310.tfrecords"
        string_val: "./topology/tfrecords/train_data_per_200/2312.tfrecords"
        string_val: "./topology/tfrecords/train_data_per_200/2313.tfrecords"
        string_val: "./topology/tfrecords/train_data_per_200/2314.tfrecords"
        string_val: "./topology/tfrecords/train_data_per_200/2315.tfrecords"
        string_val: "./topology/tfrecords/train_data_per_200/2316.tfrecords"
        string_val: "./topology/tfrecords/train_data_per_200/2317.tfrecords"
        string_val: "./topology/tfrecords/train_data_per_200/2318.tfrecords"
        string_val: "./topology/tfrecords/train_data_per_200/2319.tfrecords"
        string_val: "./topology/tfrecords/train_data_per_200/231.tfrecords"
        string_val: "./topology/tfrecords/train_data_per_200/2320.tfrecords"
        string_val: "./topology/tfrecords/train_data_per_200/2321.tfrecords"
        string_val: "./topology/tfrecords/train_data_per_200/2322.tfrecords"
        string_val: "./topology/tfrecords/train_data_per_200/2323.tfrecords"
        string_val: "./topology/tfrecords/train_data_per_200/2324.tfrecords"
        string_val: "./topology/tfrecords/train_data_per_200/2325.tfrecords"
        string_val: "./topology/tfrecords/train_data_per_200/2326.tfrecords"
        string_val: "./topology/tfrecords/train_data_per_200/2327.tfrecords"
        string_val: "./topology/tfrecords/train_data_per_200/2328.tfrecords"
        string_val: "./topology/tfrecords/train_data_per_200/2329.tfrecords"
        string_val: "./topology/tfrecords/train_data_per_200/232.tfrecords"
        string_val: "./topology/tfrecords/train_data_per_200/2330.tfrecords"
        string_val: "./topology/tfrecords/train_data_per_200/2332.tfrecords"
        string_val: "./topology/tfrecords/train_data_per_200/2333.tfrecords"
        string_val: "./topology/tfrecords/train_data_per_200/2334.tfrecords"
        string_val: "./topology/tfrecords/train_data_per_200/2336.tfrecords"
        string_val: "./topology/tfrecords/train_data_per_200/2338.tfrecords"
        string_val: "./topology/tfrecords/train_data_per_200/2339.tfrecords"
        string_val: "./topology/tfrecords/train_data_per_200/233.tfrecords"
        string_val: "./topology/tfrecords/train_data_per_200/2340.tfrecords"
        string_val: "./topology/tfrecords/train_data_per_200/2341.tfrecords"
        string_val: "./topology/tfrecords/train_data_per_200/2342.tfrecords"
        string_val: "./topology/tfrecords/train_data_per_200/2343.tfrecords"
        string_val: "./topology/tfrecords/train_data_per_200/2344.tfrecords"
        string_val: "./topology/tfrecords/train_data_per_200/2345.tfrecords"
        string_val: "./topology/tfrecords/train_data_per_200/2346.tfrecords"
        string_val: "./topology/tfrecords/train_data_per_200/2347.tfrecords"
        string_val: "./topology/tfrecords/train_data_per_200/2348.tfrecords"
        string_val: "./topology/tfrecords/train_data_per_200/2349.tfrecords"
        string_val: "./topology/tfrecords/train_data_per_200/234.tfrecords"
        string_val: "./topology/tfrecords/train_data_per_200/2350.tfrecords"
        string_val: "./topology/tfrecords/train_data_per_200/2351.tfrecords"
        string_val: "./topology/tfrecords/train_data_per_200/2352.tfrecords"
        string_val: "./topology/tfrecords/train_data_per_200/2353.tfrecords"
        string_val: "./topology/tfrecords/train_data_per_200/2354.tfrecords"
        string_val: "./topology/tfrecords/train_data_per_200/2355.tfrecords"
        string_val: "./topology/tfrecords/train_data_per_200/2356.tfrecords"
        string_val: "./topology/tfrecords/train_data_per_200/2357.tfrecords"
        string_val: "./topology/tfrecords/train_data_per_200/2358.tfrecords"
        string_val: "./topology/tfrecords/train_data_per_200/2359.tfrecords"
        string_val: "./topology/tfrecords/train_data_per_200/235.tfrecords"
        string_val: "./topology/tfrecords/train_data_per_200/2360.tfrecords"
        string_val: "./topology/tfrecords/train_data_per_200/2361.tfrecords"
        string_val: "./topology/tfrecords/train_data_per_200/2362.tfrecords"
        string_val: "./topology/tfrecords/train_data_per_200/2363.tfrecords"
        string_val: "./topology/tfrecords/train_data_per_200/2364.tfrecords"
        string_val: "./topology/tfrecords/train_data_per_200/2365.tfrecords"
        string_val: "./topology/tfrecords/train_data_per_200/2366.tfrecords"
        string_val: "./topology/tfrecords/train_data_per_200/2367.tfrecords"
        string_val: "./topology/tfrecords/train_data_per_200/2369.tfrecords"
        string_val: "./topology/tfrecords/train_data_per_200/236.tfrecords"
        string_val: "./topology/tfrecords/train_data_per_200/2372.tfrecords"
        string_val: "./topology/tfrecords/train_data_per_200/2373.tfrecords"
        string_val: "./topology/tfrecords/train_data_per_200/2374.tfrecords"
        string_val: "./topology/tfrecords/train_data_per_200/2375.tfrecords"
        string_val: "./topology/tfrecords/train_data_per_200/2376.tfrecords"
        string_val: "./topology/tfrecords/train_data_per_200/2378.tfrecords"
        string_val: "./topology/tfrecords/train_data_per_200/2380.tfrecords"
        string_val: "./topology/tfrecords/train_data_per_200/2381.tfrecords"
        string_val: "./topology/tfrecords/train_data_per_200/2382.tfrecords"
        string_val: "./topology/tfrecords/train_data_per_200/2383.tfrecords"
        string_val: "./topology/tfrecords/train_data_per_200/2384.tfrecords"
        string_val: "./topology/tfrecords/train_data_per_200/2385.tfrecords"
        string_val: "./topology/tfrecords/train_data_per_200/2386.tfrecords"
        string_val: "./topology/tfrecords/train_data_per_200/2387.tfrecords"
        string_val: "./topology/tfrecords/train_data_per_200/2389.tfrecords"
        string_val: "./topology/tfrecords/train_data_per_200/238.tfrecords"
        string_val: "./topology/tfrecords/train_data_per_200/2390.tfrecords"
        string_val: "./topology/tfrecords/train_data_per_200/2391.tfrecords"
        string_val: "./topology/tfrecords/train_data_per_200/2392.tfrecords"
        string_val: "./topology/tfrecords/train_data_per_200/2393.tfrecords"
        string_val: "./topology/tfrecords/train_data_per_200/2394.tfrecords"
        string_val: "./topology/tfrecords/train_data_per_200/2395.tfrecords"
        string_val: "./topology/tfrecords/train_data_per_200/2396.tfrecords"
        string_val: "./topology/tfrecords/train_data_per_200/2397.tfrecords"
        string_val: "./topology/tfrecords/train_data_per_200/2398.tfrecords"
        string_val: "./topology/tfrecords/train_data_per_200/2399.tfrecords"
        string_val: "./topology/tfrecords/train_data_per_200/23.tfrecords"
        string_val: "./topology/tfrecords/train_data_per_200/2400.tfrecords"
        string_val: "./topology/tfrecords/train_data_per_200/2401.tfrecords"
        string_val: "./topology/tfrecords/train_data_per_200/2402.tfrecords"
        string_val: "./topology/tfrecords/train_data_per_200/2403.tfrecords"
        string_val: "./topology/tfrecords/train_data_per_200/2404.tfrecords"
        string_val: "./topology/tfrecords/train_data_per_200/2405.tfrecords"
        string_val: "./topology/tfrecords/train_data_per_200/2406.tfrecords"
        string_val: "./topology/tfrecords/train_data_per_200/2407.tfrecords"
        string_val: "./topology/tfrecords/train_data_per_200/2408.tfrecords"
        string_val: "./topology/tfrecords/train_data_per_200/2409.tfrecords"
        string_val: "./topology/tfrecords/train_data_per_200/240.tfrecords"
        string_val: "./topology/tfrecords/train_data_per_200/2411.tfrecords"
        string_val: "./topology/tfrecords/train_data_per_200/2415.tfrecords"
        string_val: "./topology/tfrecords/train_data_per_200/2418.tfrecords"
        string_val: "./topology/tfrecords/train_data_per_200/2419.tfrecords"
        string_val: "./topology/tfrecords/train_data_per_200/2421.tfrecords"
        string_val: "./topology/tfrecords/train_data_per_200/2423.tfrecords"
        string_val: "./topology/tfrecords/train_data_per_200/2424.tfrecords"
        string_val: "./topology/tfrecords/train_data_per_200/2425.tfrecords"
        string_val: "./topology/tfrecords/train_data_per_200/2426.tfrecords"
        string_val: "./topology/tfrecords/train_data_per_200/2427.tfrecords"
        string_val: "./topology/tfrecords/train_data_per_200/2428.tfrecords"
        string_val: "./topology/tfrecords/train_data_per_200/2429.tfrecords"
        string_val: "./topology/tfrecords/train_data_per_200/242.tfrecords"
        string_val: "./topology/tfrecords/train_data_per_200/2430.tfrecords"
        string_val: "./topology/tfrecords/train_data_per_200/2431.tfrecords"
        string_val: "./topology/tfrecords/train_data_per_200/2432.tfrecords"
        string_val: "./topology/tfrecords/train_data_per_200/2433.tfrecords"
        string_val: "./topology/tfrecords/train_data_per_200/2434.tfrecords"
        string_val: "./topology/tfrecords/train_data_per_200/2435.tfrecords"
        string_val: "./topology/tfrecords/train_data_per_200/2436.tfrecords"
        string_val: "./topology/tfrecords/train_data_per_200/2437.tfrecords"
        string_val: "./topology/tfrecords/train_data_per_200/2438.tfrecords"
        string_val: "./topology/tfrecords/train_data_per_200/2439.tfrecords"
        string_val: "./topology/tfrecords/train_data_per_200/243.tfrecords"
        string_val: "./topology/tfrecords/train_data_per_200/2440.tfrecords"
        string_val: "./topology/tfrecords/train_data_per_200/2441.tfrecords"
        string_val: "./topology/tfrecords/train_data_per_200/2442.tfrecords"
        string_val: "./topology/tfrecords/train_data_per_200/2443.tfrecords"
        string_val: "./topology/tfrecords/train_data_per_200/2445.tfrecords"
        string_val: "./topology/tfrecords/train_data_per_200/2446.tfrecords"
        string_val: "./topology/tfrecords/train_data_per_200/2447.tfrecords"
        string_val: "./topology/tfrecords/train_data_per_200/2448.tfrecords"
        string_val: "./topology/tfrecords/train_data_per_200/2449.tfrecords"
        string_val: "./topology/tfrecords/train_data_per_200/244.tfrecords"
        string_val: "./topology/tfrecords/train_data_per_200/2450.tfrecords"
        string_val: "./topology/tfrecords/train_data_per_200/2451.tfrecords"
        string_val: "./topology/tfrecords/train_data_per_200/2452.tfrecords"
        string_val: "./topology/tfrecords/train_data_per_200/2453.tfrecords"
        string_val: "./topology/tfrecords/train_data_per_200/2455.tfrecords"
        string_val: "./topology/tfrecords/train_data_per_200/2456.tfrecords"
        string_val: "./topology/tfrecords/train_data_per_200/2457.tfrecords"
        string_val: "./topology/tfrecords/train_data_per_200/2458.tfrecords"
        string_val: "./topology/tfrecords/train_data_per_200/2459.tfrecords"
        string_val: "./topology/tfrecords/train_data_per_200/2460.tfrecords"
        string_val: "./topology/tfrecords/train_data_per_200/2461.tfrecords"
        string_val: "./topology/tfrecords/train_data_per_200/2463.tfrecords"
        string_val: "./topology/tfrecords/train_data_per_200/2464.tfrecords"
        string_val: "./topology/tfrecords/train_data_per_200/2465.tfrecords"
        string_val: "./topology/tfrecords/train_data_per_200/2466.tfrecords"
        string_val: "./topology/tfrecords/train_data_per_200/2467.tfrecords"
        string_val: "./topology/tfrecords/train_data_per_200/2469.tfrecords"
        string_val: "./topology/tfrecords/train_data_per_200/246.tfrecords"
        string_val: "./topology/tfrecords/train_data_per_200/2470.tfrecords"
        string_val: "./topology/tfrecords/train_data_per_200/2471.tfrecords"
        string_val: "./topology/tfrecords/train_data_per_200/2472.tfrecords"
        string_val: "./topology/tfrecords/train_data_per_200/2473.tfrecords"
        string_val: "./topology/tfrecords/train_data_per_200/2474.tfrecords"
        string_val: "./topology/tfrecords/train_data_per_200/2476.tfrecords"
        string_val: "./topology/tfrecords/train_data_per_200/2477.tfrecords"
        string_val: "./topology/tfrecords/train_data_per_200/2479.tfrecords"
        string_val: "./topology/tfrecords/train_data_per_200/2481.tfrecords"
        string_val: "./topology/tfrecords/train_data_per_200/2482.tfrecords"
        string_val: "./topology/tfrecords/train_data_per_200/2483.tfrecords"
        string_val: "./topology/tfrecords/train_data_per_200/2484.tfrecords"
        string_val: "./topology/tfrecords/train_data_per_200/2485.tfrecords"
        string_val: "./topology/tfrecords/train_data_per_200/2486.tfrecords"
        string_val: "./topology/tfrecords/train_data_per_200/2487.tfrecords"
        string_val: "./topology/tfrecords/train_data_per_200/2488.tfrecords"
        string_val: "./topology/tfrecords/train_data_per_200/2489.tfrecords"
        string_val: "./topology/tfrecords/train_data_per_200/248.tfrecords"
        string_val: "./topology/tfrecords/train_data_per_200/2491.tfrecords"
        string_val: "./topology/tfrecords/train_data_per_200/2492.tfrecords"
        string_val: "./topology/tfrecords/train_data_per_200/2493.tfrecords"
        string_val: "./topology/tfrecords/train_data_per_200/2494.tfrecords"
        string_val: "./topology/tfrecords/train_data_per_200/2495.tfrecords"
        string_val: "./topology/tfrecords/train_data_per_200/2496.tfrecords"
        string_val: "./topology/tfrecords/train_data_per_200/2499.tfrecords"
        string_val: "./topology/tfrecords/train_data_per_200/249.tfrecords"
        string_val: "./topology/tfrecords/train_data_per_200/24.tfrecords"
        string_val: "./topology/tfrecords/train_data_per_200/2501.tfrecords"
        string_val: "./topology/tfrecords/train_data_per_200/2502.tfrecords"
        string_val: "./topology/tfrecords/train_data_per_200/2503.tfrecords"
        string_val: "./topology/tfrecords/train_data_per_200/2504.tfrecords"
        string_val: "./topology/tfrecords/train_data_per_200/2505.tfrecords"
        string_val: "./topology/tfrecords/train_data_per_200/2506.tfrecords"
        string_val: "./topology/tfrecords/train_data_per_200/2507.tfrecords"
        string_val: "./topology/tfrecords/train_data_per_200/2508.tfrecords"
        string_val: "./topology/tfrecords/train_data_per_200/2509.tfrecords"
        string_val: "./topology/tfrecords/train_data_per_200/2510.tfrecords"
        string_val: "./topology/tfrecords/train_data_per_200/2511.tfrecords"
        string_val: "./topology/tfrecords/train_data_per_200/2513.tfrecords"
        string_val: "./topology/tfrecords/train_data_per_200/2514.tfrecords"
        string_val: "./topology/tfrecords/train_data_per_200/2515.tfrecords"
        string_val: "./topology/tfrecords/train_data_per_200/2516.tfrecords"
        string_val: "./topology/tfrecords/train_data_per_200/2517.tfrecords"
        string_val: "./topology/tfrecords/train_data_per_200/2518.tfrecords"
        string_val: "./topology/tfrecords/train_data_per_200/2519.tfrecords"
        string_val: "./topology/tfrecords/train_data_per_200/2521.tfrecords"
        string_val: "./topology/tfrecords/train_data_per_200/2522.tfrecords"
        string_val: "./topology/tfrecords/train_data_per_200/2523.tfrecords"
        string_val: "./topology/tfrecords/train_data_per_200/2524.tfrecords"
        string_val: "./topology/tfrecords/train_data_per_200/2525.tfrecords"
        string_val: "./topology/tfrecords/train_data_per_200/2528.tfrecords"
        string_val: "./topology/tfrecords/train_data_per_200/2529.tfrecords"
        string_val: "./topology/tfrecords/train_data_per_200/2531.tfrecords"
        string_val: "./topology/tfrecords/train_data_per_200/2535.tfrecords"
        string_val: "./topology/tfrecords/train_data_per_200/2536.tfrecords"
        string_val: "./topology/tfrecords/train_data_per_200/2538.tfrecords"
        string_val: "./topology/tfrecords/train_data_per_200/2539.tfrecords"
        string_val: "./topology/tfrecords/train_data_per_200/253.tfrecords"
        string_val: "./topology/tfrecords/train_data_per_200/2541.tfrecords"
        string_val: "./topology/tfrecords/train_data_per_200/2542.tfrecords"
        string_val: "./topology/tfrecords/train_data_per_200/2543.tfrecords"
        string_val: "./topology/tfrecords/train_data_per_200/2544.tfrecords"
        string_val: "./topology/tfrecords/train_data_per_200/2547.tfrecords"
        string_val: "./topology/tfrecords/train_data_per_200/2548.tfrecords"
        string_val: "./topology/tfrecords/train_data_per_200/2549.tfrecords"
        string_val: "./topology/tfrecords/train_data_per_200/254.tfrecords"
        string_val: "./topology/tfrecords/train_data_per_200/2551.tfrecords"
        string_val: "./topology/tfrecords/train_data_per_200/2553.tfrecords"
        string_val: "./topology/tfrecords/train_data_per_200/2554.tfrecords"
        string_val: "./topology/tfrecords/train_data_per_200/2555.tfrecords"
        string_val: "./topology/tfrecords/train_data_per_200/2556.tfrecords"
        string_val: "./topology/tfrecords/train_data_per_200/2557.tfrecords"
        string_val: "./topology/tfrecords/train_data_per_200/255.tfrecords"
        string_val: "./topology/tfrecords/train_data_per_200/2560.tfrecords"
        string_val: "./topology/tfrecords/train_data_per_200/2563.tfrecords"
        string_val: "./topology/tfrecords/train_data_per_200/2564.tfrecords"
        string_val: "./topology/tfrecords/train_data_per_200/2565.tfrecords"
        string_val: "./topology/tfrecords/train_data_per_200/2566.tfrecords"
        string_val: "./topology/tfrecords/train_data_per_200/2568.tfrecords"
        string_val: "./topology/tfrecords/train_data_per_200/2569.tfrecords"
        string_val: "./topology/tfrecords/train_data_per_200/256.tfrecords"
        string_val: "./topology/tfrecords/train_data_per_200/2570.tfrecords"
        string_val: "./topology/tfrecords/train_data_per_200/2571.tfrecords"
        string_val: "./topology/tfrecords/train_data_per_200/2572.tfrecords"
        string_val: "./topology/tfrecords/train_data_per_200/2573.tfrecords"
        string_val: "./topology/tfrecords/train_data_per_200/2574.tfrecords"
        string_val: "./topology/tfrecords/train_data_per_200/2575.tfrecords"
        string_val: "./topology/tfrecords/train_data_per_200/2577.tfrecords"
        string_val: "./topology/tfrecords/train_data_per_200/2578.tfrecords"
        string_val: "./topology/tfrecords/train_data_per_200/2579.tfrecords"
        string_val: "./topology/tfrecords/train_data_per_200/257.tfrecords"
        string_val: "./topology/tfrecords/train_data_per_200/2580.tfrecords"
        string_val: "./topology/tfrecords/train_data_per_200/2581.tfrecords"
        string_val: "./topology/tfrecords/train_data_per_200/2583.tfrecords"
        string_val: "./topology/tfrecords/train_data_per_200/2585.tfrecords"
        string_val: "./topology/tfrecords/train_data_per_200/2586.tfrecords"
        string_val: "./topology/tfrecords/train_data_per_200/2587.tfrecords"
        string_val: "./topology/tfrecords/train_data_per_200/2588.tfrecords"
        string_val: "./topology/tfrecords/train_data_per_200/2589.tfrecords"
        string_val: "./topology/tfrecords/train_data_per_200/258.tfrecords"
        string_val: "./topology/tfrecords/train_data_per_200/2590.tfrecords"
        string_val: "./topology/tfrecords/train_data_per_200/2592.tfrecords"
        string_val: "./topology/tfrecords/train_data_per_200/2593.tfrecords"
        string_val: "./topology/tfrecords/train_data_per_200/2594.tfrecords"
        string_val: "./topology/tfrecords/train_data_per_200/2595.tfrecords"
        string_val: "./topology/tfrecords/train_data_per_200/2596.tfrecords"
        string_val: "./topology/tfrecords/train_data_per_200/2598.tfrecords"
        string_val: "./topology/tfrecords/train_data_per_200/259.tfrecords"
        string_val: "./topology/tfrecords/train_data_per_200/25.tfrecords"
        string_val: "./topology/tfrecords/train_data_per_200/2600.tfrecords"
        string_val: "./topology/tfrecords/train_data_per_200/2601.tfrecords"
        string_val: "./topology/tfrecords/train_data_per_200/2602.tfrecords"
        string_val: "./topology/tfrecords/train_data_per_200/2603.tfrecords"
        string_val: "./topology/tfrecords/train_data_per_200/2604.tfrecords"
        string_val: "./topology/tfrecords/train_data_per_200/2605.tfrecords"
        string_val: "./topology/tfrecords/train_data_per_200/2606.tfrecords"
        string_val: "./topology/tfrecords/train_data_per_200/2607.tfrecords"
        string_val: "./topology/tfrecords/train_data_per_200/2608.tfrecords"
        string_val: "./topology/tfrecords/train_data_per_200/2609.tfrecords"
        string_val: "./topology/tfrecords/train_data_per_200/260.tfrecords"
        string_val: "./topology/tfrecords/train_data_per_200/2610.tfrecords"
        string_val: "./topology/tfrecords/train_data_per_200/2611.tfrecords"
        string_val: "./topology/tfrecords/train_data_per_200/2612.tfrecords"
        string_val: "./topology/tfrecords/train_data_per_200/2613.tfrecords"
        string_val: "./topology/tfrecords/train_data_per_200/2614.tfrecords"
        string_val: "./topology/tfrecords/train_data_per_200/2616.tfrecords"
        string_val: "./topology/tfrecords/train_data_per_200/2617.tfrecords"
        string_val: "./topology/tfrecords/train_data_per_200/2618.tfrecords"
        string_val: "./topology/tfrecords/train_data_per_200/2619.tfrecords"
        string_val: "./topology/tfrecords/train_data_per_200/261.tfrecords"
        string_val: "./topology/tfrecords/train_data_per_200/2620.tfrecords"
        string_val: "./topology/tfrecords/train_data_per_200/2622.tfrecords"
        string_val: "./topology/tfrecords/train_data_per_200/2623.tfrecords"
        string_val: "./topology/tfrecords/train_data_per_200/2624.tfrecords"
        string_val: "./topology/tfrecords/train_data_per_200/2625.tfrecords"
        string_val: "./topology/tfrecords/train_data_per_200/2626.tfrecords"
        string_val: "./topology/tfrecords/train_data_per_200/2628.tfrecords"
        string_val: "./topology/tfrecords/train_data_per_200/2629.tfrecords"
        string_val: "./topology/tfrecords/train_data_per_200/262.tfrecords"
        string_val: "./topology/tfrecords/train_data_per_200/2630.tfrecords"
        string_val: "./topology/tfrecords/train_data_per_200/2631.tfrecords"
        string_val: "./topology/tfrecords/train_data_per_200/2632.tfrecords"
        string_val: "./topology/tfrecords/train_data_per_200/2635.tfrecords"
        string_val: "./topology/tfrecords/train_data_per_200/2636.tfrecords"
        string_val: "./topology/tfrecords/train_data_per_200/2637.tfrecords"
        string_val: "./topology/tfrecords/train_data_per_200/2638.tfrecords"
        string_val: "./topology/tfrecords/train_data_per_200/2639.tfrecords"
        string_val: "./topology/tfrecords/train_data_per_200/263.tfrecords"
        string_val: "./topology/tfrecords/train_data_per_200/2640.tfrecords"
        string_val: "./topology/tfrecords/train_data_per_200/2642.tfrecords"
        string_val: "./topology/tfrecords/train_data_per_200/2643.tfrecords"
        string_val: "./topology/tfrecords/train_data_per_200/2644.tfrecords"
        string_val: "./topology/tfrecords/train_data_per_200/2645.tfrecords"
        string_val: "./topology/tfrecords/train_data_per_200/2646.tfrecords"
        string_val: "./topology/tfrecords/train_data_per_200/2648.tfrecords"
        string_val: "./topology/tfrecords/train_data_per_200/2649.tfrecords"
        string_val: "./topology/tfrecords/train_data_per_200/2650.tfrecords"
        string_val: "./topology/tfrecords/train_data_per_200/2651.tfrecords"
        string_val: "./topology/tfrecords/train_data_per_200/2652.tfrecords"
        string_val: "./topology/tfrecords/train_data_per_200/2653.tfrecords"
        string_val: "./topology/tfrecords/train_data_per_200/2654.tfrecords"
        string_val: "./topology/tfrecords/train_data_per_200/2656.tfrecords"
        string_val: "./topology/tfrecords/train_data_per_200/2657.tfrecords"
        string_val: "./topology/tfrecords/train_data_per_200/2658.tfrecords"
        string_val: "./topology/tfrecords/train_data_per_200/265.tfrecords"
        string_val: "./topology/tfrecords/train_data_per_200/2660.tfrecords"
        string_val: "./topology/tfrecords/train_data_per_200/2662.tfrecords"
        string_val: "./topology/tfrecords/train_data_per_200/2664.tfrecords"
        string_val: "./topology/tfrecords/train_data_per_200/2665.tfrecords"
        string_val: "./topology/tfrecords/train_data_per_200/2667.tfrecords"
        string_val: "./topology/tfrecords/train_data_per_200/2669.tfrecords"
        string_val: "./topology/tfrecords/train_data_per_200/266.tfrecords"
        string_val: "./topology/tfrecords/train_data_per_200/2670.tfrecords"
        string_val: "./topology/tfrecords/train_data_per_200/2671.tfrecords"
        string_val: "./topology/tfrecords/train_data_per_200/2672.tfrecords"
        string_val: "./topology/tfrecords/train_data_per_200/2673.tfrecords"
        string_val: "./topology/tfrecords/train_data_per_200/2674.tfrecords"
        string_val: "./topology/tfrecords/train_data_per_200/2675.tfrecords"
        string_val: "./topology/tfrecords/train_data_per_200/2677.tfrecords"
        string_val: "./topology/tfrecords/train_data_per_200/2678.tfrecords"
        string_val: "./topology/tfrecords/train_data_per_200/2679.tfrecords"
        string_val: "./topology/tfrecords/train_data_per_200/267.tfrecords"
        string_val: "./topology/tfrecords/train_data_per_200/2680.tfrecords"
        string_val: "./topology/tfrecords/train_data_per_200/2681.tfrecords"
        string_val: "./topology/tfrecords/train_data_per_200/2682.tfrecords"
        string_val: "./topology/tfrecords/train_data_per_200/2683.tfrecords"
        string_val: "./topology/tfrecords/train_data_per_200/2684.tfrecords"
        string_val: "./topology/tfrecords/train_data_per_200/2685.tfrecords"
        string_val: "./topology/tfrecords/train_data_per_200/2687.tfrecords"
        string_val: "./topology/tfrecords/train_data_per_200/2688.tfrecords"
        string_val: "./topology/tfrecords/train_data_per_200/2689.tfrecords"
        string_val: "./topology/tfrecords/train_data_per_200/268.tfrecords"
        string_val: "./topology/tfrecords/train_data_per_200/2690.tfrecords"
        string_val: "./topology/tfrecords/train_data_per_200/2691.tfrecords"
        string_val: "./topology/tfrecords/train_data_per_200/2692.tfrecords"
        string_val: "./topology/tfrecords/train_data_per_200/2693.tfrecords"
        string_val: "./topology/tfrecords/train_data_per_200/2694.tfrecords"
        string_val: "./topology/tfrecords/train_data_per_200/2695.tfrecords"
        string_val: "./topology/tfrecords/train_data_per_200/2696.tfrecords"
        string_val: "./topology/tfrecords/train_data_per_200/2697.tfrecords"
        string_val: "./topology/tfrecords/train_data_per_200/2698.tfrecords"
        string_val: "./topology/tfrecords/train_data_per_200/2699.tfrecords"
        string_val: "./topology/tfrecords/train_data_per_200/269.tfrecords"
        string_val: "./topology/tfrecords/train_data_per_200/26.tfrecords"
        string_val: "./topology/tfrecords/train_data_per_200/2700.tfrecords"
        string_val: "./topology/tfrecords/train_data_per_200/2701.tfrecords"
        string_val: "./topology/tfrecords/train_data_per_200/2702.tfrecords"
        string_val: "./topology/tfrecords/train_data_per_200/2703.tfrecords"
        string_val: "./topology/tfrecords/train_data_per_200/2704.tfrecords"
        string_val: "./topology/tfrecords/train_data_per_200/2706.tfrecords"
        string_val: "./topology/tfrecords/train_data_per_200/2707.tfrecords"
        string_val: "./topology/tfrecords/train_data_per_200/2708.tfrecords"
        string_val: "./topology/tfrecords/train_data_per_200/2709.tfrecords"
        string_val: "./topology/tfrecords/train_data_per_200/270.tfrecords"
        string_val: "./topology/tfrecords/train_data_per_200/2710.tfrecords"
        string_val: "./topology/tfrecords/train_data_per_200/2711.tfrecords"
        string_val: "./topology/tfrecords/train_data_per_200/2712.tfrecords"
        string_val: "./topology/tfrecords/train_data_per_200/2714.tfrecords"
        string_val: "./topology/tfrecords/train_data_per_200/2715.tfrecords"
        string_val: "./topology/tfrecords/train_data_per_200/2717.tfrecords"
        string_val: "./topology/tfrecords/train_data_per_200/2718.tfrecords"
        string_val: "./topology/tfrecords/train_data_per_200/2719.tfrecords"
        string_val: "./topology/tfrecords/train_data_per_200/271.tfrecords"
        string_val: "./topology/tfrecords/train_data_per_200/2720.tfrecords"
        string_val: "./topology/tfrecords/train_data_per_200/2723.tfrecords"
        string_val: "./topology/tfrecords/train_data_per_200/2724.tfrecords"
        string_val: "./topology/tfrecords/train_data_per_200/2725.tfrecords"
        string_val: "./topology/tfrecords/train_data_per_200/2726.tfrecords"
        string_val: "./topology/tfrecords/train_data_per_200/2727.tfrecords"
        string_val: "./topology/tfrecords/train_data_per_200/2728.tfrecords"
        string_val: "./topology/tfrecords/train_data_per_200/2729.tfrecords"
        string_val: "./topology/tfrecords/train_data_per_200/272.tfrecords"
        string_val: "./topology/tfrecords/train_data_per_200/2730.tfrecords"
        string_val: "./topology/tfrecords/train_data_per_200/2732.tfrecords"
        string_val: "./topology/tfrecords/train_data_per_200/2734.tfrecords"
        string_val: "./topology/tfrecords/train_data_per_200/2735.tfrecords"
        string_val: "./topology/tfrecords/train_data_per_200/2738.tfrecords"
        string_val: "./topology/tfrecords/train_data_per_200/273.tfrecords"
        string_val: "./topology/tfrecords/train_data_per_200/2741.tfrecords"
        string_val: "./topology/tfrecords/train_data_per_200/2743.tfrecords"
        string_val: "./topology/tfrecords/train_data_per_200/2744.tfrecords"
        string_val: "./topology/tfrecords/train_data_per_200/2745.tfrecords"
        string_val: "./topology/tfrecords/train_data_per_200/2746.tfrecords"
        string_val: "./topology/tfrecords/train_data_per_200/2747.tfrecords"
        string_val: "./topology/tfrecords/train_data_per_200/2748.tfrecords"
        string_val: "./topology/tfrecords/train_data_per_200/2749.tfrecords"
        string_val: "./topology/tfrecords/train_data_per_200/274.tfrecords"
        string_val: "./topology/tfrecords/train_data_per_200/2751.tfrecords"
        string_val: "./topology/tfrecords/train_data_per_200/2752.tfrecords"
        string_val: "./topology/tfrecords/train_data_per_200/2753.tfrecords"
        string_val: "./topology/tfrecords/train_data_per_200/2754.tfrecords"
        string_val: "./topology/tfrecords/train_data_per_200/2757.tfrecords"
        string_val: "./topology/tfrecords/train_data_per_200/2759.tfrecords"
        string_val: "./topology/tfrecords/train_data_per_200/275.tfrecords"
        string_val: "./topology/tfrecords/train_data_per_200/2760.tfrecords"
        string_val: "./topology/tfrecords/train_data_per_200/2761.tfrecords"
        string_val: "./topology/tfrecords/train_data_per_200/2763.tfrecords"
        string_val: "./topology/tfrecords/train_data_per_200/2764.tfrecords"
        string_val: "./topology/tfrecords/train_data_per_200/2766.tfrecords"
        string_val: "./topology/tfrecords/train_data_per_200/2767.tfrecords"
        string_val: "./topology/tfrecords/train_data_per_200/2768.tfrecords"
        string_val: "./topology/tfrecords/train_data_per_200/2769.tfrecords"
        string_val: "./topology/tfrecords/train_data_per_200/276.tfrecords"
        string_val: "./topology/tfrecords/train_data_per_200/2770.tfrecords"
        string_val: "./topology/tfrecords/train_data_per_200/2772.tfrecords"
        string_val: "./topology/tfrecords/train_data_per_200/2775.tfrecords"
        string_val: "./topology/tfrecords/train_data_per_200/2776.tfrecords"
        string_val: "./topology/tfrecords/train_data_per_200/2777.tfrecords"
        string_val: "./topology/tfrecords/train_data_per_200/2778.tfrecords"
        string_val: "./topology/tfrecords/train_data_per_200/2779.tfrecords"
        string_val: "./topology/tfrecords/train_data_per_200/277.tfrecords"
        string_val: "./topology/tfrecords/train_data_per_200/2780.tfrecords"
        string_val: "./topology/tfrecords/train_data_per_200/2782.tfrecords"
        string_val: "./topology/tfrecords/train_data_per_200/2783.tfrecords"
        string_val: "./topology/tfrecords/train_data_per_200/2785.tfrecords"
        string_val: "./topology/tfrecords/train_data_per_200/2786.tfrecords"
        string_val: "./topology/tfrecords/train_data_per_200/2787.tfrecords"
        string_val: "./topology/tfrecords/train_data_per_200/2788.tfrecords"
        string_val: "./topology/tfrecords/train_data_per_200/2789.tfrecords"
        string_val: "./topology/tfrecords/train_data_per_200/278.tfrecords"
        string_val: "./topology/tfrecords/train_data_per_200/2790.tfrecords"
        string_val: "./topology/tfrecords/train_data_per_200/2791.tfrecords"
        string_val: "./topology/tfrecords/train_data_per_200/2792.tfrecords"
        string_val: "./topology/tfrecords/train_data_per_200/2793.tfrecords"
        string_val: "./topology/tfrecords/train_data_per_200/2794.tfrecords"
        string_val: "./topology/tfrecords/train_data_per_200/2795.tfrecords"
        string_val: "./topology/tfrecords/train_data_per_200/2796.tfrecords"
        string_val: "./topology/tfrecords/train_data_per_200/2797.tfrecords"
        string_val: "./topology/tfrecords/train_data_per_200/2798.tfrecords"
        string_val: "./topology/tfrecords/train_data_per_200/2799.tfrecords"
        string_val: "./topology/tfrecords/train_data_per_200/279.tfrecords"
        string_val: "./topology/tfrecords/train_data_per_200/27.tfrecords"
        string_val: "./topology/tfrecords/train_data_per_200/2800.tfrecords"
        string_val: "./topology/tfrecords/train_data_per_200/2801.tfrecords"
        string_val: "./topology/tfrecords/train_data_per_200/2803.tfrecords"
        string_val: "./topology/tfrecords/train_data_per_200/2805.tfrecords"
        string_val: "./topology/tfrecords/train_data_per_200/2806.tfrecords"
        string_val: "./topology/tfrecords/train_data_per_200/2808.tfrecords"
        string_val: "./topology/tfrecords/train_data_per_200/2809.tfrecords"
        string_val: "./topology/tfrecords/train_data_per_200/280.tfrecords"
        string_val: "./topology/tfrecords/train_data_per_200/2811.tfrecords"
        string_val: "./topology/tfrecords/train_data_per_200/2812.tfrecords"
        string_val: "./topology/tfrecords/train_data_per_200/2814.tfrecords"
        string_val: "./topology/tfrecords/train_data_per_200/2815.tfrecords"
        string_val: "./topology/tfrecords/train_data_per_200/2817.tfrecords"
        string_val: "./topology/tfrecords/train_data_per_200/2818.tfrecords"
        string_val: "./topology/tfrecords/train_data_per_200/281.tfrecords"
        string_val: "./topology/tfrecords/train_data_per_200/2820.tfrecords"
        string_val: "./topology/tfrecords/train_data_per_200/2821.tfrecords"
        string_val: "./topology/tfrecords/train_data_per_200/2822.tfrecords"
        string_val: "./topology/tfrecords/train_data_per_200/2823.tfrecords"
        string_val: "./topology/tfrecords/train_data_per_200/2825.tfrecords"
        string_val: "./topology/tfrecords/train_data_per_200/2826.tfrecords"
        string_val: "./topology/tfrecords/train_data_per_200/2827.tfrecords"
        string_val: "./topology/tfrecords/train_data_per_200/2828.tfrecords"
        string_val: "./topology/tfrecords/train_data_per_200/2829.tfrecords"
        string_val: "./topology/tfrecords/train_data_per_200/282.tfrecords"
        string_val: "./topology/tfrecords/train_data_per_200/2830.tfrecords"
        string_val: "./topology/tfrecords/train_data_per_200/2831.tfrecords"
        string_val: "./topology/tfrecords/train_data_per_200/2832.tfrecords"
        string_val: "./topology/tfrecords/train_data_per_200/2833.tfrecords"
        string_val: "./topology/tfrecords/train_data_per_200/2835.tfrecords"
        string_val: "./topology/tfrecords/train_data_per_200/2836.tfrecords"
        string_val: "./topology/tfrecords/train_data_per_200/2837.tfrecords"
        string_val: "./topology/tfrecords/train_data_per_200/2839.tfrecords"
        string_val: "./topology/tfrecords/train_data_per_200/283.tfrecords"
        string_val: "./topology/tfrecords/train_data_per_200/2840.tfrecords"
        string_val: "./topology/tfrecords/train_data_per_200/2841.tfrecords"
        string_val: "./topology/tfrecords/train_data_per_200/2842.tfrecords"
        string_val: "./topology/tfrecords/train_data_per_200/2843.tfrecords"
        string_val: "./topology/tfrecords/train_data_per_200/2844.tfrecords"
        string_val: "./topology/tfrecords/train_data_per_200/2845.tfrecords"
        string_val: "./topology/tfrecords/train_data_per_200/2846.tfrecords"
        string_val: "./topology/tfrecords/train_data_per_200/2847.tfrecords"
        string_val: "./topology/tfrecords/train_data_per_200/2848.tfrecords"
        string_val: "./topology/tfrecords/train_data_per_200/284.tfrecords"
        string_val: "./topology/tfrecords/train_data_per_200/2850.tfrecords"
        string_val: "./topology/tfrecords/train_data_per_200/2851.tfrecords"
        string_val: "./topology/tfrecords/train_data_per_200/2852.tfrecords"
        string_val: "./topology/tfrecords/train_data_per_200/2854.tfrecords"
        string_val: "./topology/tfrecords/train_data_per_200/2855.tfrecords"
        string_val: "./topology/tfrecords/train_data_per_200/2856.tfrecords"
        string_val: "./topology/tfrecords/train_data_per_200/2857.tfrecords"
        string_val: "./topology/tfrecords/train_data_per_200/2858.tfrecords"
        string_val: "./topology/tfrecords/train_data_per_200/2859.tfrecords"
        string_val: "./topology/tfrecords/train_data_per_200/285.tfrecords"
        string_val: "./topology/tfrecords/train_data_per_200/2860.tfrecords"
        string_val: "./topology/tfrecords/train_data_per_200/2861.tfrecords"
        string_val: "./topology/tfrecords/train_data_per_200/2862.tfrecords"
        string_val: "./topology/tfrecords/train_data_per_200/2863.tfrecords"
        string_val: "./topology/tfrecords/train_data_per_200/2864.tfrecords"
        string_val: "./topology/tfrecords/train_data_per_200/2865.tfrecords"
        string_val: "./topology/tfrecords/train_data_per_200/2866.tfrecords"
        string_val: "./topology/tfrecords/train_data_per_200/2867.tfrecords"
        string_val: "./topology/tfrecords/train_data_per_200/2868.tfrecords"
        string_val: "./topology/tfrecords/train_data_per_200/286.tfrecords"
        string_val: "./topology/tfrecords/train_data_per_200/2870.tfrecords"
        string_val: "./topology/tfrecords/train_data_per_200/2871.tfrecords"
        string_val: "./topology/tfrecords/train_data_per_200/2872.tfrecords"
        string_val: "./topology/tfrecords/train_data_per_200/2873.tfrecords"
        string_val: "./topology/tfrecords/train_data_per_200/2874.tfrecords"
        string_val: "./topology/tfrecords/train_data_per_200/2875.tfrecords"
        string_val: "./topology/tfrecords/train_data_per_200/2876.tfrecords"
        string_val: "./topology/tfrecords/train_data_per_200/2878.tfrecords"
        string_val: "./topology/tfrecords/train_data_per_200/2879.tfrecords"
        string_val: "./topology/tfrecords/train_data_per_200/287.tfrecords"
        string_val: "./topology/tfrecords/train_data_per_200/2880.tfrecords"
        string_val: "./topology/tfrecords/train_data_per_200/2881.tfrecords"
        string_val: "./topology/tfrecords/train_data_per_200/2882.tfrecords"
        string_val: "./topology/tfrecords/train_data_per_200/2883.tfrecords"
        string_val: "./topology/tfrecords/train_data_per_200/2884.tfrecords"
        string_val: "./topology/tfrecords/train_data_per_200/2885.tfrecords"
        string_val: "./topology/tfrecords/train_data_per_200/2886.tfrecords"
        string_val: "./topology/tfrecords/train_data_per_200/2887.tfrecords"
        string_val: "./topology/tfrecords/train_data_per_200/2888.tfrecords"
        string_val: "./topology/tfrecords/train_data_per_200/2889.tfrecords"
        string_val: "./topology/tfrecords/train_data_per_200/288.tfrecords"
        string_val: "./topology/tfrecords/train_data_per_200/2890.tfrecords"
        string_val: "./topology/tfrecords/train_data_per_200/2892.tfrecords"
        string_val: "./topology/tfrecords/train_data_per_200/2893.tfrecords"
        string_val: "./topology/tfrecords/train_data_per_200/2895.tfrecords"
        string_val: "./topology/tfrecords/train_data_per_200/2896.tfrecords"
        string_val: "./topology/tfrecords/train_data_per_200/2897.tfrecords"
        string_val: "./topology/tfrecords/train_data_per_200/2898.tfrecords"
        string_val: "./topology/tfrecords/train_data_per_200/2899.tfrecords"
        string_val: "./topology/tfrecords/train_data_per_200/289.tfrecords"
        string_val: "./topology/tfrecords/train_data_per_200/28.tfrecords"
        string_val: "./topology/tfrecords/train_data_per_200/2900.tfrecords"
        string_val: "./topology/tfrecords/train_data_per_200/2901.tfrecords"
        string_val: "./topology/tfrecords/train_data_per_200/2903.tfrecords"
        string_val: "./topology/tfrecords/train_data_per_200/2904.tfrecords"
        string_val: "./topology/tfrecords/train_data_per_200/2906.tfrecords"
        string_val: "./topology/tfrecords/train_data_per_200/2909.tfrecords"
        string_val: "./topology/tfrecords/train_data_per_200/290.tfrecords"
        string_val: "./topology/tfrecords/train_data_per_200/2910.tfrecords"
        string_val: "./topology/tfrecords/train_data_per_200/2911.tfrecords"
        string_val: "./topology/tfrecords/train_data_per_200/2912.tfrecords"
        string_val: "./topology/tfrecords/train_data_per_200/2913.tfrecords"
        string_val: "./topology/tfrecords/train_data_per_200/2914.tfrecords"
        string_val: "./topology/tfrecords/train_data_per_200/2916.tfrecords"
        string_val: "./topology/tfrecords/train_data_per_200/2918.tfrecords"
        string_val: "./topology/tfrecords/train_data_per_200/2919.tfrecords"
        string_val: "./topology/tfrecords/train_data_per_200/291.tfrecords"
        string_val: "./topology/tfrecords/train_data_per_200/2921.tfrecords"
        string_val: "./topology/tfrecords/train_data_per_200/2922.tfrecords"
        string_val: "./topology/tfrecords/train_data_per_200/2923.tfrecords"
        string_val: "./topology/tfrecords/train_data_per_200/2924.tfrecords"
        string_val: "./topology/tfrecords/train_data_per_200/2925.tfrecords"
        string_val: "./topology/tfrecords/train_data_per_200/2926.tfrecords"
        string_val: "./topology/tfrecords/train_data_per_200/2927.tfrecords"
        string_val: "./topology/tfrecords/train_data_per_200/2928.tfrecords"
        string_val: "./topology/tfrecords/train_data_per_200/292.tfrecords"
        string_val: "./topology/tfrecords/train_data_per_200/2931.tfrecords"
        string_val: "./topology/tfrecords/train_data_per_200/2932.tfrecords"
        string_val: "./topology/tfrecords/train_data_per_200/2933.tfrecords"
        string_val: "./topology/tfrecords/train_data_per_200/2934.tfrecords"
        string_val: "./topology/tfrecords/train_data_per_200/2936.tfrecords"
        string_val: "./topology/tfrecords/train_data_per_200/2937.tfrecords"
        string_val: "./topology/tfrecords/train_data_per_200/2938.tfrecords"
        string_val: "./topology/tfrecords/train_data_per_200/2939.tfrecords"
        string_val: "./topology/tfrecords/train_data_per_200/293.tfrecords"
        string_val: "./topology/tfrecords/train_data_per_200/2940.tfrecords"
        string_val: "./topology/tfrecords/train_data_per_200/2941.tfrecords"
        string_val: "./topology/tfrecords/train_data_per_200/2942.tfrecords"
        string_val: "./topology/tfrecords/train_data_per_200/2943.tfrecords"
        string_val: "./topology/tfrecords/train_data_per_200/2944.tfrecords"
        string_val: "./topology/tfrecords/train_data_per_200/2946.tfrecords"
        string_val: "./topology/tfrecords/train_data_per_200/2949.tfrecords"
        string_val: "./topology/tfrecords/train_data_per_200/294.tfrecords"
        string_val: "./topology/tfrecords/train_data_per_200/2950.tfrecords"
        string_val: "./topology/tfrecords/train_data_per_200/2951.tfrecords"
        string_val: "./topology/tfrecords/train_data_per_200/2952.tfrecords"
        string_val: "./topology/tfrecords/train_data_per_200/2953.tfrecords"
        string_val: "./topology/tfrecords/train_data_per_200/2956.tfrecords"
        string_val: "./topology/tfrecords/train_data_per_200/2957.tfrecords"
        string_val: "./topology/tfrecords/train_data_per_200/2959.tfrecords"
        string_val: "./topology/tfrecords/train_data_per_200/295.tfrecords"
        string_val: "./topology/tfrecords/train_data_per_200/2960.tfrecords"
        string_val: "./topology/tfrecords/train_data_per_200/2961.tfrecords"
        string_val: "./topology/tfrecords/train_data_per_200/2962.tfrecords"
        string_val: "./topology/tfrecords/train_data_per_200/2964.tfrecords"
        string_val: "./topology/tfrecords/train_data_per_200/2965.tfrecords"
        string_val: "./topology/tfrecords/train_data_per_200/2966.tfrecords"
        string_val: "./topology/tfrecords/train_data_per_200/2967.tfrecords"
        string_val: "./topology/tfrecords/train_data_per_200/2969.tfrecords"
        string_val: "./topology/tfrecords/train_data_per_200/296.tfrecords"
        string_val: "./topology/tfrecords/train_data_per_200/2972.tfrecords"
        string_val: "./topology/tfrecords/train_data_per_200/2973.tfrecords"
        string_val: "./topology/tfrecords/train_data_per_200/2974.tfrecords"
        string_val: "./topology/tfrecords/train_data_per_200/2977.tfrecords"
        string_val: "./topology/tfrecords/train_data_per_200/2978.tfrecords"
        string_val: "./topology/tfrecords/train_data_per_200/2979.tfrecords"
        string_val: "./topology/tfrecords/train_data_per_200/2980.tfrecords"
        string_val: "./topology/tfrecords/train_data_per_200/2981.tfrecords"
        string_val: "./topology/tfrecords/train_data_per_200/2982.tfrecords"
        string_val: "./topology/tfrecords/train_data_per_200/2984.tfrecords"
        string_val: "./topology/tfrecords/train_data_per_200/2985.tfrecords"
        string_val: "./topology/tfrecords/train_data_per_200/2986.tfrecords"
        string_val: "./topology/tfrecords/train_data_per_200/2987.tfrecords"
        string_val: "./topology/tfrecords/train_data_per_200/2988.tfrecords"
        string_val: "./topology/tfrecords/train_data_per_200/2989.tfrecords"
        string_val: "./topology/tfrecords/train_data_per_200/298.tfrecords"
        string_val: "./topology/tfrecords/train_data_per_200/2990.tfrecords"
        string_val: "./topology/tfrecords/train_data_per_200/2991.tfrecords"
        string_val: "./topology/tfrecords/train_data_per_200/2992.tfrecords"
        string_val: "./topology/tfrecords/train_data_per_200/2993.tfrecords"
        string_val: "./topology/tfrecords/train_data_per_200/2994.tfrecords"
        string_val: "./topology/tfrecords/train_data_per_200/2995.tfrecords"
        string_val: "./topology/tfrecords/train_data_per_200/2996.tfrecords"
        string_val: "./topology/tfrecords/train_data_per_200/2997.tfrecords"
        string_val: "./topology/tfrecords/train_data_per_200/2998.tfrecords"
        string_val: "./topology/tfrecords/train_data_per_200/29.tfrecords"
        string_val: "./topology/tfrecords/train_data_per_200/3000.tfrecords"
        string_val: "./topology/tfrecords/train_data_per_200/3001.tfrecords"
        string_val: "./topology/tfrecords/train_data_per_200/3002.tfrecords"
        string_val: "./topology/tfrecords/train_data_per_200/3003.tfrecords"
        string_val: "./topology/tfrecords/train_data_per_200/3004.tfrecords"
        string_val: "./topology/tfrecords/train_data_per_200/3006.tfrecords"
        string_val: "./topology/tfrecords/train_data_per_200/3007.tfrecords"
        string_val: "./topology/tfrecords/train_data_per_200/3008.tfrecords"
        string_val: "./topology/tfrecords/train_data_per_200/3009.tfrecords"
        string_val: "./topology/tfrecords/train_data_per_200/300.tfrecords"
        string_val: "./topology/tfrecords/train_data_per_200/3012.tfrecords"
        string_val: "./topology/tfrecords/train_data_per_200/3014.tfrecords"
        string_val: "./topology/tfrecords/train_data_per_200/3015.tfrecords"
        string_val: "./topology/tfrecords/train_data_per_200/3016.tfrecords"
        string_val: "./topology/tfrecords/train_data_per_200/3018.tfrecords"
        string_val: "./topology/tfrecords/train_data_per_200/3019.tfrecords"
        string_val: "./topology/tfrecords/train_data_per_200/301.tfrecords"
        string_val: "./topology/tfrecords/train_data_per_200/3020.tfrecords"
        string_val: "./topology/tfrecords/train_data_per_200/3022.tfrecords"
        string_val: "./topology/tfrecords/train_data_per_200/3023.tfrecords"
        string_val: "./topology/tfrecords/train_data_per_200/3024.tfrecords"
        string_val: "./topology/tfrecords/train_data_per_200/3025.tfrecords"
        string_val: "./topology/tfrecords/train_data_per_200/3026.tfrecords"
        string_val: "./topology/tfrecords/train_data_per_200/3027.tfrecords"
        string_val: "./topology/tfrecords/train_data_per_200/302.tfrecords"
        string_val: "./topology/tfrecords/train_data_per_200/3030.tfrecords"
        string_val: "./topology/tfrecords/train_data_per_200/3031.tfrecords"
        string_val: "./topology/tfrecords/train_data_per_200/3032.tfrecords"
        string_val: "./topology/tfrecords/train_data_per_200/3033.tfrecords"
        string_val: "./topology/tfrecords/train_data_per_200/3034.tfrecords"
        string_val: "./topology/tfrecords/train_data_per_200/3036.tfrecords"
        string_val: "./topology/tfrecords/train_data_per_200/3039.tfrecords"
        string_val: "./topology/tfrecords/train_data_per_200/303.tfrecords"
        string_val: "./topology/tfrecords/train_data_per_200/3040.tfrecords"
        string_val: "./topology/tfrecords/train_data_per_200/3041.tfrecords"
        string_val: "./topology/tfrecords/train_data_per_200/3043.tfrecords"
        string_val: "./topology/tfrecords/train_data_per_200/3044.tfrecords"
        string_val: "./topology/tfrecords/train_data_per_200/3045.tfrecords"
        string_val: "./topology/tfrecords/train_data_per_200/3046.tfrecords"
        string_val: "./topology/tfrecords/train_data_per_200/3047.tfrecords"
        string_val: "./topology/tfrecords/train_data_per_200/3048.tfrecords"
        string_val: "./topology/tfrecords/train_data_per_200/304.tfrecords"
        string_val: "./topology/tfrecords/train_data_per_200/3050.tfrecords"
        string_val: "./topology/tfrecords/train_data_per_200/3052.tfrecords"
        string_val: "./topology/tfrecords/train_data_per_200/3054.tfrecords"
        string_val: "./topology/tfrecords/train_data_per_200/3055.tfrecords"
        string_val: "./topology/tfrecords/train_data_per_200/3056.tfrecords"
        string_val: "./topology/tfrecords/train_data_per_200/3059.tfrecords"
        string_val: "./topology/tfrecords/train_data_per_200/305.tfrecords"
        string_val: "./topology/tfrecords/train_data_per_200/3060.tfrecords"
        string_val: "./topology/tfrecords/train_data_per_200/3061.tfrecords"
        string_val: "./topology/tfrecords/train_data_per_200/3062.tfrecords"
        string_val: "./topology/tfrecords/train_data_per_200/3063.tfrecords"
        string_val: "./topology/tfrecords/train_data_per_200/3065.tfrecords"
        string_val: "./topology/tfrecords/train_data_per_200/3066.tfrecords"
        string_val: "./topology/tfrecords/train_data_per_200/3067.tfrecords"
        string_val: "./topology/tfrecords/train_data_per_200/3068.tfrecords"
        string_val: "./topology/tfrecords/train_data_per_200/306.tfrecords"
        string_val: "./topology/tfrecords/train_data_per_200/3070.tfrecords"
        string_val: "./topology/tfrecords/train_data_per_200/3071.tfrecords"
        string_val: "./topology/tfrecords/train_data_per_200/3072.tfrecords"
        string_val: "./topology/tfrecords/train_data_per_200/3073.tfrecords"
        string_val: "./topology/tfrecords/train_data_per_200/3074.tfrecords"
        string_val: "./topology/tfrecords/train_data_per_200/3075.tfrecords"
        string_val: "./topology/tfrecords/train_data_per_200/3076.tfrecords"
        string_val: "./topology/tfrecords/train_data_per_200/3077.tfrecords"
        string_val: "./topology/tfrecords/train_data_per_200/3078.tfrecords"
        string_val: "./topology/tfrecords/train_data_per_200/307.tfrecords"
        string_val: "./topology/tfrecords/train_data_per_200/3080.tfrecords"
        string_val: "./topology/tfrecords/train_data_per_200/3081.tfrecords"
        string_val: "./topology/tfrecords/train_data_per_200/3085.tfrecords"
        string_val: "./topology/tfrecords/train_data_per_200/3086.tfrecords"
        string_val: "./topology/tfrecords/train_data_per_200/3087.tfrecords"
        string_val: "./topology/tfrecords/train_data_per_200/3088.tfrecords"
        string_val: "./topology/tfrecords/train_data_per_200/3089.tfrecords"
        string_val: "./topology/tfrecords/train_data_per_200/308.tfrecords"
        string_val: "./topology/tfrecords/train_data_per_200/3090.tfrecords"
        string_val: "./topology/tfrecords/train_data_per_200/3091.tfrecords"
        string_val: "./topology/tfrecords/train_data_per_200/3092.tfrecords"
        string_val: "./topology/tfrecords/train_data_per_200/3093.tfrecords"
        string_val: "./topology/tfrecords/train_data_per_200/3094.tfrecords"
        string_val: "./topology/tfrecords/train_data_per_200/3096.tfrecords"
        string_val: "./topology/tfrecords/train_data_per_200/3097.tfrecords"
        string_val: "./topology/tfrecords/train_data_per_200/309.tfrecords"
        string_val: "./topology/tfrecords/train_data_per_200/3101.tfrecords"
        string_val: "./topology/tfrecords/train_data_per_200/3102.tfrecords"
        string_val: "./topology/tfrecords/train_data_per_200/3103.tfrecords"
        string_val: "./topology/tfrecords/train_data_per_200/3104.tfrecords"
        string_val: "./topology/tfrecords/train_data_per_200/3105.tfrecords"
        string_val: "./topology/tfrecords/train_data_per_200/3106.tfrecords"
        string_val: "./topology/tfrecords/train_data_per_200/3108.tfrecords"
        string_val: "./topology/tfrecords/train_data_per_200/3110.tfrecords"
        string_val: "./topology/tfrecords/train_data_per_200/3111.tfrecords"
…
            string_val: "./topology/tfrecords/train_data_per_200/86.tfrecords"
            string_val: "./topology/tfrecords/train_data_per_200/870.tfrecords"
            string_val: "./topology/tfrecords/train_data_per_200/871.tfrecords"
            string_val: "./topology/tfrecords/train_data_per_200/874.tfrecords"
            string_val: "./topology/tfrecords/train_data_per_200/875.tfrecords"
            string_val: "./topology/tfrecords/train_data_per_200/876.tfrecords"
            string_val: "./topology/tfrecords/train_data_per_200/877.tfrecords"
            string_val: "./topology/tfrecords/train_data_per_200/878.tfrecords"
            string_val: "./topology/tfrecords/train_data_per_200/87.tfrecords"
            string_val: "./topology/tfrecords/train_data_per_200/880.tfrecords"
            string_val: "./topology/tfrecords/train_data_per_200/881.tfrecords"
            string_val: "./topology/tfrecords/train_data_per_200/883.tfrecords"
            string_val: "./topology/tfrecords/train_data_per_200/884.tfrecords"
            string_val: "./topology/tfrecords/train_data_per_200/886.tfrecords"
            string_val: "./topology/tfrecords/train_data_per_200/887.tfrecords"
            string_val: "./topology/tfrecords/train_data_per_200/888.tfrecords"
            string_val: "./topology/tfrecords/train_data_per_200/889.tfrecords"
            string_val: "./topology/tfrecords/train_data_per_200/88.tfrecords"
            string_val: "./topology/tfrecords/train_data_per_200/890.tfrecords"
            string_val: "./topology/tfrecords/train_data_per_200/891.tfrecords"
            string_val: "./topology/tfrecords/train_data_per_200/893.tfrecords"
            string_val: "./topology/tfrecords/train_data_per_200/894.tfrecords"
            string_val: "./topology/tfrecords/train_data_per_200/895.tfrecords"
            string_val: "./topology/tfrecords/train_data_per_200/896.tfrecords"
            string_val: "./topology/tfrecords/train_data_per_200/897.tfrecords"
            string_val: "./topology/tfrecords/train_data_per_200/898.tfrecords"
            string_val: "./topology/tfrecords/train_data_per_200/899.tfrecords"
            string_val: "./topology/tfrecords/train_data_per_200/8.tfrecords"
            string_val: "./topology/tfrecords/train_data_per_200/900.tfrecords"
            string_val: "./topology/tfrecords/train_data_per_200/901.tfrecords"
            string_val: "./topology/tfrecords/train_data_per_200/902.tfrecords"
            string_val: "./topology/tfrecords/train_data_per_200/903.tfrecords"
            string_val: "./topology/tfrecords/train_data_per_200/904.tfrecords"
            string_val: "./topology/tfrecords/train_data_per_200/905.tfrecords"
            string_val: "./topology/tfrecords/train_data_per_200/907.tfrecords"
            string_val: "./topology/tfrecords/train_data_per_200/908.tfrecords"
            string_val: "./topology/tfrecords/train_data_per_200/909.tfrecords"
            string_val: "./topology/tfrecords/train_data_per_200/90.tfrecords"
            string_val: "./topology/tfrecords/train_data_per_200/910.tfrecords"
            string_val: "./topology/tfrecords/train_data_per_200/911.tfrecords"
            string_val: "./topology/tfrecords/train_data_per_200/912.tfrecords"
            string_val: "./topology/tfrecords/train_data_per_200/913.tfrecords"
            string_val: "./topology/tfrecords/train_data_per_200/914.tfrecords"
            string_val: "./topology/tfrecords/train_data_per_200/915.tfrecords"
            string_val: "./topology/tfrecords/train_data_per_200/916.tfrecords"
            string_val: "./topology/tfrecords/train_data_per_200/917.tfrecords"
            string_val: "./topology/tfrecords/train_data_per_200/919.tfrecords"
            string_val: "./topology/tfrecords/train_data_per_200/91.tfrecords"
            string_val: "./topology/tfrecords/train_data_per_200/921.tfrecords"
            string_val: "./topology/tfrecords/train_data_per_200/923.tfrecords"
            string_val: "./topology/tfrecords/train_data_per_200/925.tfrecords"
            string_val: "./topology/tfrecords/train_data_per_200/926.tfrecords"
            string_val: "./topology/tfrecords/train_data_per_200/928.tfrecords"
            string_val: "./topology/tfrecords/train_data_per_200/929.tfrecords"
            string_val: "./topology/tfrecords/train_data_per_200/930.tfrecords"
            string_val: "./topology/tfrecords/train_data_per_200/931.tfrecords"
            string_val: "./topology/tfrecords/train_data_per_200/932.tfrecords"
            string_val: "./topology/tfrecords/train_data_per_200/933.tfrecords"
            string_val: "./topology/tfrecords/train_data_per_200/934.tfrecords"
            string_val: "./topology/tfrecords/train_data_per_200/936.tfrecords"
            string_val: "./topology/tfrecords/train_data_per_200/937.tfrecords"
            string_val: "./topology/tfrecords/train_data_per_200/938.tfrecords"
            string_val: "./topology/tfrecords/train_data_per_200/939.tfrecords"
            string_val: "./topology/tfrecords/train_data_per_200/93.tfrecords"
            string_val: "./topology/tfrecords/train_data_per_200/940.tfrecords"
            string_val: "./topology/tfrecords/train_data_per_200/941.tfrecords"
            string_val: "./topology/tfrecords/train_data_per_200/942.tfrecords"
            string_val: "./topology/tfrecords/train_data_per_200/943.tfrecords"
            string_val: "./topology/tfrecords/train_data_per_200/944.tfrecords"
            string_val: "./topology/tfrecords/train_data_per_200/945.tfrecords"
            string_val: "./topology/tfrecords/train_data_per_200/946.tfrecords"
            string_val: "./topology/tfrecords/train_data_per_200/947.tfrecords"
            string_val: "./topology/tfrecords/train_data_per_200/948.tfrecords"
            string_val: "./topology/tfrecords/train_data_per_200/949.tfrecords"
            string_val: "./topology/tfrecords/train_data_per_200/94.tfrecords"
            string_val: "./topology/tfrecords/train_data_per_200/951.tfrecords"
            string_val: "./topology/tfrecords/train_data_per_200/952.tfrecords"
            string_val: "./topology/tfrecords/train_data_per_200/953.tfrecords"
            string_val: "./topology/tfrecords/train_data_per_200/954.tfrecords"
            string_val: "./topology/tfrecords/train_data_per_200/955.tfrecords"
            string_val: "./topology/tfrecords/train_data_per_200/956.tfrecords"
            string_val: "./topology/tfrecords/train_data_per_200/958.tfrecords"
            string_val: "./topology/tfrecords/train_data_per_200/959.tfrecords"
            string_val: "./topology/tfrecords/train_data_per_200/95.tfrecords"
            string_val: "./topology/tfrecords/train_data_per_200/960.tfrecords"
            string_val: "./topology/tfrecords/train_data_per_200/961.tfrecords"
            string_val: "./topology/tfrecords/train_data_per_200/962.tfrecords"
            string_val: "./topology/tfrecords/train_data_per_200/963.tfrecords"
            string_val: "./topology/tfrecords/train_data_per_200/965.tfrecords"
            string_val: "./topology/tfrecords/train_data_per_200/967.tfrecords"
            string_val: "./topology/tfrecords/train_data_per_200/968.tfrecords"
            string_val: "./topology/tfrecords/train_data_per_200/969.tfrecords"
            string_val: "./topology/tfrecords/train_data_per_200/96.tfrecords"
            string_val: "./topology/tfrecords/train_data_per_200/970.tfrecords"
            string_val: "./topology/tfrecords/train_data_per_200/971.tfrecords"
            string_val: "./topology/tfrecords/train_data_per_200/972.tfrecords"
            string_val: "./topology/tfrecords/train_data_per_200/974.tfrecords"
            string_val: "./topology/tfrecords/train_data_per_200/975.tfrecords"
            string_val: "./topology/tfrecords/train_data_per_200/976.tfrecords"
            string_val: "./topology/tfrecords/train_data_per_200/977.tfrecords"
            string_val: "./topology/tfrecords/train_data_per_200/978.tfrecords"
            string_val: "./topology/tfrecords/train_data_per_200/979.tfrecords"
            string_val: "./topology/tfrecords/train_data_per_200/97.tfrecords"
            string_val: "./topology/tfrecords/train_data_per_200/982.tfrecords"
            string_val: "./topology/tfrecords/train_data_per_200/983.tfrecords"
            string_val: "./topology/tfrecords/train_data_per_200/984.tfrecords"
            string_val: "./topology/tfrecords/train_data_per_200/985.tfrecords"
            string_val: "./topology/tfrecords/train_data_per_200/987.tfrecords"
            string_val: "./topology/tfrecords/train_data_per_200/988.tfrecords"
            string_val: "./topology/tfrecords/train_data_per_200/989.tfrecords"
            string_val: "./topology/tfrecords/train_data_per_200/98.tfrecords"
            string_val: "./topology/tfrecords/train_data_per_200/990.tfrecords"
            string_val: "./topology/tfrecords/train_data_per_200/991.tfrecords"
            string_val: "./topology/tfrecords/train_data_per_200/992.tfrecords"
            string_val: "./topology/tfrecords/train_data_per_200/993.tfrecords"
            string_val: "./topology/tfrecords/train_data_per_200/996.tfrecords"
            string_val: "./topology/tfrecords/train_data_per_200/997.tfrecords"
            string_val: "./topology/tfrecords/train_data_per_200/998.tfrecords"
            string_val: "./topology/tfrecords/train_data_per_200/999.tfrecords"
            string_val: "./topology/tfrecords/train_data_per_200/9.tfrecords"
          }
        }
      }
    }
    node_def {
      name: "OptimizeDataset/TensorSliceDataset"
      op: "TensorSliceDataset"
      input: "OptimizeDataset/tensors/normalize_tensors/component_0:output:0"
      device: "/device:CPU:0"
      attr {
        key: "Toutput_types"
        value {
          list {
            type: DT_STRING
          }
        }
      }
      attr {
        key: "output_shapes"
        value {
          list {
            shape {
            }
          }
        }
      }
    }
    node_def {
      name: "OptimizeDataset/buffer_size"
      op: "Const"
      device: "/device:CPU:0"
      attr {
        key: "dtype"
        value {
          type: DT_INT64
        }
      }
      attr {
        key: "value"
        value {
          tensor {
            dtype: DT_INT64
            tensor_shape {
            }
            int64_val: 2861
          }
        }
      }
    }
    node_def {
      name: "OptimizeDataset/seed"
      op: "Const"
      device: "/device:CPU:0"
      attr {
        key: "dtype"
        value {
          type: DT_INT64
        }
      }
      attr {
        key: "value"
        value {
          tensor {
            dtype: DT_INT64
            tensor_shape {
            }
            int64_val: 0
          }
        }
      }
    }
    node_def {
      name: "OptimizeDataset/seed2"
      op: "Const"
      device: "/device:CPU:0"
      attr {
        key: "dtype"
        value {
          type: DT_INT64
        }
      }
      attr {
        key: "value"
        value {
          tensor {
            dtype: DT_INT64
            tensor_shape {
            }
            int64_val: 0
          }
        }
      }
    }
    node_def {
      name: "OptimizeDataset/ShuffleDataset"
      op: "ShuffleDataset"
      input: "OptimizeDataset/TensorSliceDataset:handle:0"
      input: "OptimizeDataset/buffer_size:output:0"
      input: "OptimizeDataset/seed:output:0"
      input: "OptimizeDataset/seed2:output:0"
      device: "/device:CPU:0"
      attr {
        key: "output_shapes"
        value {
          list {
            shape {
            }
          }
        }
      }
      attr {
        key: "output_types"
        value {
          list {
            type: DT_STRING
          }
        }
      }
      attr {
        key: "reshuffle_each_iteration"
        value {
          b: true
        }
      }
    }
    node_def {
      name: "OptimizeDataset/cycle_length"
      op: "Const"
      device: "/device:CPU:0"
      attr {
        key: "dtype"
        value {
          type: DT_INT64
        }
      }
      attr {
        key: "value"
        value {
          tensor {
            dtype: DT_INT64
            tensor_shape {
            }
            int64_val: 4
          }
        }
      }
    }
    node_def {
      name: "OptimizeDataset/block_length"
      op: "Const"
      device: "/device:CPU:0"
      attr {
        key: "dtype"
        value {
          type: DT_INT64
        }
      }
      attr {
        key: "value"
        value {
          tensor {
            dtype: DT_INT64
            tensor_shape {
            }
            int64_val: 1
          }
        }
      }
    }
    node_def {
      name: "OptimizeDataset/sloppy"
      op: "Const"
      device: "/device:CPU:0"
      attr {
        key: "dtype"
        value {
          type: DT_BOOL
        }
      }
      attr {
        key: "value"
        value {
          tensor {
            dtype: DT_BOOL
            tensor_shape {
            }
            bool_val: false
          }
        }
      }
    }
    node_def {
      name: "OptimizeDataset/buffer_output_elements"
      op: "Const"
      device: "/device:CPU:0"
      attr {
        key: "dtype"
        value {
          type: DT_INT64
        }
      }
      attr {
        key: "value"
        value {
          tensor {
            dtype: DT_INT64
            tensor_shape {
            }
            int64_val: 2
          }
        }
      }
    }
    node_def {
      name: "OptimizeDataset/prefetch_input_elements"
      op: "Const"
      device: "/device:CPU:0"
      attr {
        key: "dtype"
        value {
          type: DT_INT64
        }
      }
      attr {
        key: "value"
        value {
          tensor {
            dtype: DT_INT64
            tensor_shape {
            }
            int64_val: 8
          }
        }
      }
    }
    node_def {
      name: "OptimizeDataset/ExperimentalParallelInterleaveDataset"
      op: "ExperimentalParallelInterleaveDataset"
      input: "OptimizeDataset/ShuffleDataset:handle:0"
      input: "OptimizeDataset/cycle_length:output:0"
      input: "OptimizeDataset/block_length:output:0"
      input: "OptimizeDataset/sloppy:output:0"
      input: "OptimizeDataset/buffer_output_elements:output:0"
      input: "OptimizeDataset/prefetch_input_elements:output:0"
      device: "/device:CPU:0"
      attr {
        key: "Targuments"
        value {
          list {
          }
        }
      }
      attr {
        key: "f"
        value {
          func {
            name: "__inference_tf_data_experimental_parallel_interleave_<class \'abc.ABCMeta\'>_40"
          }
        }
      }
      attr {
        key: "output_shapes"
        value {
          list {
            shape {
            }
          }
        }
      }
      attr {
        key: "output_types"
        value {
          list {
            type: DT_STRING
          }
        }
      }
    }
    node_def {
      name: "OptimizeDataset/buffer_size_1"
      op: "Const"
      device: "/device:CPU:0"
      attr {
        key: "dtype"
        value {
          type: DT_INT64
        }
      }
      attr {
        key: "value"
        value {
          tensor {
            dtype: DT_INT64
            tensor_shape {
            }
            int64_val: 10000
          }
        }
      }
    }
    node_def {
      name: "OptimizeDataset/seed_1"
      op: "Const"
      device: "/device:CPU:0"
      attr {
        key: "dtype"
        value {
          type: DT_INT64
        }
      }
      attr {
        key: "value"
        value {
          tensor {
            dtype: DT_INT64
            tensor_shape {
            }
            int64_val: 0
          }
        }
      }
    }
    node_def {
      name: "OptimizeDataset/seed2_1"
      op: "Const"
      device: "/device:CPU:0"
      attr {
        key: "dtype"
        value {
          type: DT_INT64
        }
      }
      attr {
        key: "value"
        value {
          tensor {
            dtype: DT_INT64
            tensor_shape {
            }
            int64_val: 0
          }
        }
      }
    }
    node_def {
      name: "OptimizeDataset/count"
      op: "Const"
      device: "/device:CPU:0"
      attr {
        key: "dtype"
        value {
          type: DT_INT64
        }
      }
      attr {
        key: "value"
        value {
          tensor {
            dtype: DT_INT64
            tensor_shape {
            }
            int64_val: -1
          }
        }
      }
    }
    node_def {
      name: "OptimizeDataset/ShuffleAndRepeatDataset"
      op: "ShuffleAndRepeatDataset"
      input: "OptimizeDataset/ExperimentalParallelInterleaveDataset:handle:0"
      input: "OptimizeDataset/buffer_size_1:output:0"
      input: "OptimizeDataset/seed_1:output:0"
      input: "OptimizeDataset/seed2_1:output:0"
      input: "OptimizeDataset/count:output:0"
      device: "/device:CPU:0"
      attr {
        key: "output_shapes"
        value {
          list {
            shape {
            }
          }
        }
      }
      attr {
        key: "output_types"
        value {
          list {
            type: DT_STRING
          }
        }
      }
    }
    node_def {
      name: "OptimizeDataset/num_parallel_calls"
      op: "Const"
      device: "/device:CPU:0"
      attr {
        key: "dtype"
        value {
          type: DT_INT32
        }
      }
      attr {
        key: "value"
        value {
          tensor {
            dtype: DT_INT32
            tensor_shape {
            }
            int_val: 2
          }
        }
      }
    }
    node_def {
      name: "OptimizeDataset/ParallelMapDataset"
      op: "ParallelMapDataset"
      input: "OptimizeDataset/ShuffleAndRepeatDataset:handle:0"
      input: "OptimizeDataset/num_parallel_calls:output:0"
      device: "/device:CPU:0"
      attr {
        key: "Targuments"
        value {
          list {
          }
        }
      }
      attr {
        key: "f"
        value {
          func {
            name: "__inference_Dataset_map_<lambda>_99"
          }
        }
      }
      attr {
        key: "output_shapes"
        value {
          list {
            shape {
              dim {
                size: -1
              }
            }
            shape {
              dim {
                size: -1
              }
            }
            shape {
            }
            shape {
            }
            shape {
            }
            shape {
              dim {
                size: -1
              }
            }
            shape {
              dim {
                size: -1
              }
            }
            shape {
              dim {
                size: -1
              }
            }
            shape {
              dim {
                size: -1
              }
            }
          }
        }
      }
      attr {
        key: "output_types"
        value {
          list {
            type: DT_FLOAT
            type: DT_INT64
            type: DT_INT64
            type: DT_INT64
            type: DT_INT64
            type: DT_INT64
            type: DT_INT64
            type: DT_FLOAT
            type: DT_FLOAT
          }
        }
      }
      attr {
        key: "preserve_cardinality"
        value {
          b: false
        }
      }
      attr {
        key: "sloppy"
        value {
          b: false
        }
      }
      attr {
        key: "use_inter_op_parallelism"
        value {
          b: true
        }
      }
    }
    node_def {
      name: "OptimizeDataset/buffer_size_2"
      op: "Const"
      device: "/device:CPU:0"
      attr {
        key: "dtype"
        value {
          type: DT_INT64
        }
      }
      attr {
        key: "value"
        value {
          tensor {
            dtype: DT_INT64
            tensor_shape {
            }
            int64_val: 10
          }
        }
      }
    }
    node_def {
      name: "OptimizeDataset/PrefetchDataset"
      op: "PrefetchDataset"
      input: "OptimizeDataset/ParallelMapDataset:handle:0"
      input: "OptimizeDataset/buffer_size_2:output:0"
      device: "/device:CPU:0"
      attr {
        key: "output_shapes"
        value {
          list {
            shape {
              dim {
                size: -1
              }
            }
            shape {
              dim {
                size: -1
              }
            }
            shape {
            }
            shape {
            }
            shape {
            }
            shape {
              dim {
                size: -1
              }
            }
            shape {
              dim {
                size: -1
              }
            }
            shape {
              dim {
                size: -1
              }
            }
            shape {
              dim {
                size: -1
              }
            }
          }
        }
      }
      attr {
        key: "output_types"
        value {
          list {
            type: DT_FLOAT
            type: DT_INT64
            type: DT_INT64
            type: DT_INT64
            type: DT_INT64
            type: DT_INT64
            type: DT_INT64
            type: DT_FLOAT
            type: DT_FLOAT
          }
        }
      }
      attr {
        key: "slack_period"
        value {
          i: 0
        }
      }
    }
    node_def {
      name: "OptimizeDataset"
      op: "OptimizeDataset"
      input: "OptimizeDataset/PrefetchDataset:handle:0"
      input: "optimizations:output:0"
      device: "/device:CPU:0"
      attr {
        key: "optimization_configs"
        value {
          list {
            s: "map_vectorization:use_choose_fastest:false"
          }
        }
      }
      attr {
        key: "output_shapes"
        value {
          list {
            shape {
              dim {
                size: -1
              }
            }
            shape {
              dim {
                size: -1
              }
            }
            shape {
            }
            shape {
            }
            shape {
            }
            shape {
              dim {
                size: -1
              }
            }
            shape {
              dim {
                size: -1
              }
            }
            shape {
              dim {
                size: -1
              }
            }
            shape {
              dim {
                size: -1
              }
            }
          }
        }
      }
      attr {
        key: "output_types"
        value {
          list {
            type: DT_FLOAT
            type: DT_INT64
            type: DT_INT64
            type: DT_INT64
            type: DT_INT64
            type: DT_INT64
            type: DT_INT64
            type: DT_FLOAT
            type: DT_FLOAT
          }
        }
      }
    }
    node_def {
      name: "ModelDataset"
      op: "ModelDataset"
      input: "OptimizeDataset:handle:0"
      device: "/device:CPU:0"
      attr {
        key: "cpu_budget"
        value {
          i: 0
        }
      }
      attr {
        key: "output_shapes"
        value {
          list {
            shape {
              dim {
                size: -1
              }
            }
            shape {
              dim {
                size: -1
              }
            }
            shape {
            }
            shape {
            }
            shape {
            }
            shape {
              dim {
                size: -1
              }
            }
            shape {
              dim {
                size: -1
              }
            }
            shape {
              dim {
                size: -1
              }
            }
            shape {
              dim {
                size: -1
              }
            }
          }
        }
      }
      attr {
        key: "output_types"
        value {
          list {
            type: DT_FLOAT
            type: DT_INT64
            type: DT_INT64
            type: DT_INT64
            type: DT_INT64
            type: DT_INT64
            type: DT_INT64
            type: DT_FLOAT
            type: DT_FLOAT
          }
        }
      }
    }
    ret {
      key: "modeldataset"
      value: "ModelDataset:handle:0"
    }
    attr {
      key: "_disable_call_shape_inference"
      value {
        b: true
      }
    }
  }
  function {
    signature {
      name: "__inference_Dataset_map_<lambda>_99"
      input_arg {
        name: "args_0"
        type: DT_STRING
      }
      output_arg {
        name: "identity"
        type: DT_FLOAT
      }
      output_arg {
        name: "identity_1"
        type: DT_INT64
      }
      output_arg {
        name: "identity_2"
        type: DT_INT64
      }
      output_arg {
        name: "identity_3"
        type: DT_INT64
      }
      output_arg {
        name: "identity_4"
        type: DT_INT64
      }
      output_arg {
        name: "identity_5"
        type: DT_INT64
      }
      output_arg {
        name: "identity_6"
        type: DT_INT64
      }
      output_arg {
        name: "identity_7"
        type: DT_FLOAT
      }
      output_arg {
        name: "identity_8"
        type: DT_FLOAT
      }
    }
    node_def {
      name: "parse/ParseSingleExample/Const"
      op: "Const"
      device: "/device:CPU:0"
      attr {
        key: "_output_shapes"
        value {
          list {
            shape {
              dim {
              }
            }
          }
        }
      }
      attr {
        key: "dtype"
        value {
          type: DT_INT64
        }
      }
      attr {
        key: "value"
        value {
          tensor {
            dtype: DT_INT64
            tensor_shape {
              dim {
              }
            }
          }
        }
      }
    }
    node_def {
      name: "parse/ParseSingleExample/Const_1"
      op: "Const"
      device: "/device:CPU:0"
      attr {
        key: "_output_shapes"
        value {
          list {
            shape {
              dim {
              }
            }
          }
        }
      }
      attr {
        key: "dtype"
        value {
          type: DT_INT64
        }
      }
      attr {
        key: "value"
        value {
          tensor {
            dtype: DT_INT64
            tensor_shape {
              dim {
              }
            }
          }
        }
      }
    }
    node_def {
      name: "parse/ParseSingleExample/Const_2"
      op: "Const"
      device: "/device:CPU:0"
      attr {
        key: "_output_shapes"
        value {
          list {
            shape {
              dim {
              }
            }
          }
        }
      }
      attr {
        key: "dtype"
        value {
          type: DT_INT64
        }
      }
      attr {
        key: "value"
        value {
          tensor {
            dtype: DT_INT64
            tensor_shape {
              dim {
              }
            }
          }
        }
      }
    }
    node_def {
      name: "parse/ParseSingleExample/ParseSingleExample"
      op: "ParseSingleExample"
      input: "args_0"
      input: "parse/ParseSingleExample/Const:output:0"
      input: "parse/ParseSingleExample/Const_1:output:0"
      input: "parse/ParseSingleExample/Const_2:output:0"
      device: "/device:CPU:0"
      attr {
        key: "Tdense"
        value {
          list {
            type: DT_INT64
            type: DT_INT64
            type: DT_INT64
          }
        }
      }
      attr {
        key: "_output_shapes"
        value {
          list {
            shape {
              dim {
                size: -1
              }
              dim {
                size: 1
              }
            }
            shape {
              dim {
                size: -1
              }
              dim {
                size: 1
              }
            }
            shape {
              dim {
                size: -1
              }
              dim {
                size: 1
              }
            }
            shape {
              dim {
                size: -1
              }
              dim {
                size: 1
              }
            }
            shape {
              dim {
                size: -1
              }
              dim {
                size: 1
              }
            }
            shape {
              dim {
                size: -1
              }
              dim {
                size: 1
              }
            }
            shape {
              dim {
                size: -1
              }
            }
            shape {
              dim {
                size: -1
              }
            }
            shape {
              dim {
                size: -1
              }
            }
            shape {
              dim {
                size: -1
              }
            }
            shape {
              dim {
                size: -1
              }
            }
            shape {
              dim {
                size: -1
              }
            }
            shape {
              dim {
                size: 1
              }
            }
            shape {
              dim {
                size: 1
              }
            }
            shape {
              dim {
                size: 1
              }
            }
            shape {
              dim {
                size: 1
              }
            }
            shape {
              dim {
                size: 1
              }
            }
            shape {
              dim {
                size: 1
              }
            }
            shape {
            }
            shape {
            }
            shape {
            }
          }
        }
      }
      attr {
        key: "dense_keys"
        value {
          list {
            s: "n_links"
            s: "n_paths"
            s: "n_total"
          }
        }
      }
      attr {
        key: "dense_shapes"
        value {
          list {
            shape {
            }
            shape {
            }
            shape {
            }
          }
        }
      }
      attr {
        key: "num_sparse"
        value {
          i: 6
        }
      }
      attr {
        key: "sparse_keys"
        value {
          list {
            s: "delay"
            s: "link_capacity"
            s: "links"
            s: "paths"
            s: "sequences"
            s: "traffic"
          }
        }
      }
      attr {
        key: "sparse_types"
        value {
          list {
            type: DT_FLOAT
            type: DT_FLOAT
            type: DT_INT64
            type: DT_INT64
            type: DT_INT64
            type: DT_FLOAT
          }
        }
      }
    }
    node_def {
      name: "parse/SparseToDense/default_value"
      op: "Const"
      device: "/device:CPU:0"
      attr {
        key: "_output_shapes"
        value {
          list {
            shape {
            }
          }
        }
      }
      attr {
        key: "dtype"
        value {
          type: DT_FLOAT
        }
      }
      attr {
        key: "value"
        value {
          tensor {
            dtype: DT_FLOAT
            tensor_shape {
            }
            float_val: 0.0
          }
        }
      }
    }
    node_def {
      name: "parse/SparseToDense"
      op: "SparseToDense"
      input: "parse/ParseSingleExample/ParseSingleExample:sparse_indices:5"
      input: "parse/ParseSingleExample/ParseSingleExample:sparse_shapes:5"
      input: "parse/ParseSingleExample/ParseSingleExample:sparse_values:5"
      input: "parse/SparseToDense/default_value:output:0"
      device: "/device:CPU:0"
      attr {
        key: "T"
        value {
          type: DT_FLOAT
        }
      }
      attr {
        key: "Tindices"
        value {
          type: DT_INT64
        }
      }
      attr {
        key: "_output_shapes"
        value {
          list {
            shape {
              dim {
                size: -1
              }
            }
          }
        }
      }
      attr {
        key: "validate_indices"
        value {
          b: true
        }
      }
    }
    node_def {
      name: "parse/SparseToDense_1/default_value"
      op: "Const"
      device: "/device:CPU:0"
      attr {
        key: "_output_shapes"
        value {
          list {
            shape {
            }
          }
        }
      }
      attr {
        key: "dtype"
        value {
          type: DT_FLOAT
        }
      }
      attr {
        key: "value"
        value {
          tensor {
            dtype: DT_FLOAT
            tensor_shape {
            }
            float_val: 0.0
          }
        }
      }
    }
    node_def {
      name: "parse/SparseToDense_1"
      op: "SparseToDense"
      input: "parse/ParseSingleExample/ParseSingleExample:sparse_indices:0"
      input: "parse/ParseSingleExample/ParseSingleExample:sparse_shapes:0"
      input: "parse/ParseSingleExample/ParseSingleExample:sparse_values:0"
      input: "parse/SparseToDense_1/default_value:output:0"
      device: "/device:CPU:0"
      attr {
        key: "T"
        value {
          type: DT_FLOAT
        }
      }
      attr {
        key: "Tindices"
        value {
          type: DT_INT64
        }
      }
      attr {
        key: "_output_shapes"
        value {
          list {
            shape {
              dim {
                size: -1
              }
            }
          }
        }
      }
      attr {
        key: "validate_indices"
        value {
          b: true
        }
      }
    }
    node_def {
      name: "parse/SparseToDense_2/default_value"
      op: "Const"
      device: "/device:CPU:0"
      attr {
        key: "_output_shapes"
        value {
          list {
            shape {
            }
          }
        }
      }
      attr {
        key: "dtype"
        value {
          type: DT_FLOAT
        }
      }
      attr {
        key: "value"
        value {
          tensor {
            dtype: DT_FLOAT
            tensor_shape {
            }
            float_val: 0.0
          }
        }
      }
    }
    node_def {
      name: "parse/SparseToDense_2"
      op: "SparseToDense"
      input: "parse/ParseSingleExample/ParseSingleExample:sparse_indices:1"
      input: "parse/ParseSingleExample/ParseSingleExample:sparse_shapes:1"
      input: "parse/ParseSingleExample/ParseSingleExample:sparse_values:1"
      input: "parse/SparseToDense_2/default_value:output:0"
      device: "/device:CPU:0"
      attr {
        key: "T"
        value {
          type: DT_FLOAT
        }
      }
      attr {
        key: "Tindices"
        value {
          type: DT_INT64
        }
      }
      attr {
        key: "_output_shapes"
        value {
          list {
            shape {
              dim {
                size: -1
              }
            }
          }
        }
      }
      attr {
        key: "validate_indices"
        value {
          b: true
        }
      }
    }
    node_def {
      name: "parse/SparseToDense_3/default_value"
      op: "Const"
      device: "/device:CPU:0"
      attr {
        key: "_output_shapes"
        value {
          list {
            shape {
            }
          }
        }
      }
      attr {
        key: "dtype"
        value {
          type: DT_INT64
        }
      }
      attr {
        key: "value"
        value {
          tensor {
            dtype: DT_INT64
            tensor_shape {
            }
            int64_val: 0
          }
        }
      }
    }
    node_def {
      name: "parse/SparseToDense_3"
      op: "SparseToDense"
      input: "parse/ParseSingleExample/ParseSingleExample:sparse_indices:2"
      input: "parse/ParseSingleExample/ParseSingleExample:sparse_shapes:2"
      input: "parse/ParseSingleExample/ParseSingleExample:sparse_values:2"
      input: "parse/SparseToDense_3/default_value:output:0"
      device: "/device:CPU:0"
      attr {
        key: "T"
        value {
          type: DT_INT64
        }
      }
      attr {
        key: "Tindices"
        value {
          type: DT_INT64
        }
      }
      attr {
        key: "_output_shapes"
        value {
          list {
            shape {
              dim {
                size: -1
              }
            }
          }
        }
      }
      attr {
        key: "validate_indices"
        value {
          b: true
        }
      }
    }
    node_def {
      name: "parse/SparseToDense_4/default_value"
      op: "Const"
      device: "/device:CPU:0"
      attr {
        key: "_output_shapes"
        value {
          list {
            shape {
            }
          }
        }
      }
      attr {
        key: "dtype"
        value {
          type: DT_INT64
        }
      }
      attr {
        key: "value"
        value {
          tensor {
            dtype: DT_INT64
            tensor_shape {
            }
            int64_val: 0
          }
        }
      }
    }
    node_def {
      name: "parse/SparseToDense_4"
      op: "SparseToDense"
      input: "parse/ParseSingleExample/ParseSingleExample:sparse_indices:3"
      input: "parse/ParseSingleExample/ParseSingleExample:sparse_shapes:3"
      input: "parse/ParseSingleExample/ParseSingleExample:sparse_values:3"
      input: "parse/SparseToDense_4/default_value:output:0"
      device: "/device:CPU:0"
      attr {
        key: "T"
        value {
          type: DT_INT64
        }
      }
      attr {
        key: "Tindices"
        value {
          type: DT_INT64
        }
      }
      attr {
        key: "_output_shapes"
        value {
          list {
            shape {
              dim {
                size: -1
              }
            }
          }
        }
      }
      attr {
        key: "validate_indices"
        value {
          b: true
        }
      }
    }
    node_def {
      name: "parse/SparseToDense_5/default_value"
      op: "Const"
      device: "/device:CPU:0"
      attr {
        key: "_output_shapes"
        value {
          list {
            shape {
            }
          }
        }
      }
      attr {
        key: "dtype"
        value {
          type: DT_INT64
        }
      }
      attr {
        key: "value"
        value {
          tensor {
            dtype: DT_INT64
            tensor_shape {
            }
            int64_val: 0
          }
        }
      }
    }
    node_def {
      name: "parse/SparseToDense_5"
      op: "SparseToDense"
      input: "parse/ParseSingleExample/ParseSingleExample:sparse_indices:4"
      input: "parse/ParseSingleExample/ParseSingleExample:sparse_shapes:4"
      input: "parse/ParseSingleExample/ParseSingleExample:sparse_values:4"
      input: "parse/SparseToDense_5/default_value:output:0"
      device: "/device:CPU:0"
      attr {
        key: "T"
        value {
          type: DT_INT64
        }
      }
      attr {
        key: "Tindices"
        value {
          type: DT_INT64
        }
      }
      attr {
        key: "_output_shapes"
        value {
          list {
            shape {
              dim {
                size: -1
              }
            }
          }
        }
      }
      attr {
        key: "validate_indices"
        value {
          b: true
        }
      }
    }
    node_def {
      name: "Identity"
      op: "Identity"
      input: "parse/SparseToDense_2:dense:0"
      attr {
        key: "T"
        value {
          type: DT_FLOAT
        }
      }
      attr {
        key: "_output_shapes"
        value {
          list {
            shape {
              dim {
                size: -1
              }
            }
          }
        }
      }
    }
    node_def {
      name: "Identity_1"
      op: "Identity"
      input: "parse/SparseToDense_3:dense:0"
      attr {
        key: "T"
        value {
          type: DT_INT64
        }
      }
      attr {
        key: "_output_shapes"
        value {
          list {
            shape {
              dim {
                size: -1
              }
            }
          }
        }
      }
    }
    node_def {
      name: "Identity_2"
      op: "Identity"
      input: "parse/ParseSingleExample/ParseSingleExample:dense_values:0"
      attr {
        key: "T"
        value {
          type: DT_INT64
        }
      }
      attr {
        key: "_output_shapes"
        value {
          list {
            shape {
            }
          }
        }
      }
    }
    node_def {
      name: "Identity_3"
      op: "Identity"
      input: "parse/ParseSingleExample/ParseSingleExample:dense_values:1"
      attr {
        key: "T"
        value {
          type: DT_INT64
        }
      }
      attr {
        key: "_output_shapes"
        value {
          list {
            shape {
            }
          }
        }
      }
    }
    node_def {
      name: "Identity_4"
      op: "Identity"
      input: "parse/ParseSingleExample/ParseSingleExample:dense_values:2"
      attr {
        key: "T"
        value {
          type: DT_INT64
        }
      }
      attr {
        key: "_output_shapes"
        value {
          list {
            shape {
            }
          }
        }
      }
    }
    node_def {
      name: "Identity_5"
      op: "Identity"
      input: "parse/SparseToDense_4:dense:0"
      attr {
        key: "T"
        value {
          type: DT_INT64
        }
      }
      attr {
        key: "_output_shapes"
        value {
          list {
            shape {
              dim {
                size: -1
              }
            }
          }
        }
      }
    }
    node_def {
      name: "Identity_6"
      op: "Identity"
      input: "parse/SparseToDense_5:dense:0"
      attr {
        key: "T"
        value {
          type: DT_INT64
        }
      }
      attr {
        key: "_output_shapes"
        value {
          list {
            shape {
              dim {
                size: -1
              }
            }
          }
        }
      }
    }
    node_def {
      name: "Identity_7"
      op: "Identity"
      input: "parse/SparseToDense:dense:0"
      attr {
        key: "T"
        value {
          type: DT_FLOAT
        }
      }
      attr {
        key: "_output_shapes"
        value {
          list {
            shape {
              dim {
                size: -1
              }
            }
          }
        }
      }
    }
    node_def {
      name: "Identity_8"
      op: "Identity"
      input: "parse/SparseToDense_1:dense:0"
      attr {
        key: "T"
        value {
          type: DT_FLOAT
        }
      }
      attr {
        key: "_output_shapes"
        value {
          list {
            shape {
              dim {
                size: -1
              }
            }
          }
        }
      }
    }
    ret {
      key: "identity"
      value: "Identity:output:0"
    }
    ret {
      key: "identity_1"
      value: "Identity_1:output:0"
    }
    ret {
      key: "identity_2"
      value: "Identity_2:output:0"
    }
    ret {
      key: "identity_3"
      value: "Identity_3:output:0"
    }
    ret {
      key: "identity_4"
      value: "Identity_4:output:0"
    }
    ret {
      key: "identity_5"
      value: "Identity_5:output:0"
    }
    ret {
      key: "identity_6"
      value: "Identity_6:output:0"
    }
    ret {
      key: "identity_7"
      value: "Identity_7:output:0"
    }
    ret {
      key: "identity_8"
      value: "Identity_8:output:0"
    }
    attr {
      key: "_input_shapes"
      value {
        list {
          shape {
          }
        }
      }
    }
    arg_attr {
      value {
        attr {
          key: "_user_specified_name"
          value {
            s: "args_0"
          }
        }
      }
    }
  }
  function {
    signature {
      name: "__inference_tf_data_experimental_parallel_interleave_<class \'abc.ABCMeta\'>_40"
      input_arg {
        name: "args_0"
        type: DT_STRING
      }
      output_arg {
        name: "identity"
        type: DT_VARIANT
      }
      is_stateful: true
      control_output: "TensorSliceDataset"
    }
    node_def {
      name: "flat_filenames/shape"
      op: "Const"
      attr {
        key: "_output_shapes"
        value {
          list {
            shape {
              dim {
                size: 1
              }
            }
          }
        }
      }
      attr {
        key: "dtype"
        value {
          type: DT_INT32
        }
      }
      attr {
        key: "value"
        value {
          tensor {
            dtype: DT_INT32
            tensor_shape {
              dim {
                size: 1
              }
            }
            int_val: -1
          }
        }
      }
    }
    node_def {
      name: "flat_filenames"
      op: "Reshape"
      input: "args_0"
      input: "flat_filenames/shape:output:0"
      attr {
        key: "T"
        value {
          type: DT_STRING
        }
      }
      attr {
        key: "Tshape"
        value {
          type: DT_INT32
        }
      }
      attr {
        key: "_output_shapes"
        value {
          list {
            shape {
              dim {
                size: 1
              }
            }
          }
        }
      }
    }
    node_def {
      name: "TensorSliceDataset"
      op: "TensorSliceDataset"
      input: "flat_filenames:output:0"
      attr {
        key: "Toutput_types"
        value {
          list {
            type: DT_STRING
          }
        }
      }
      attr {
        key: "_output_shapes"
        value {
          list {
            shape {
            }
          }
        }
      }
      attr {
        key: "output_shapes"
        value {
          list {
            shape {
            }
          }
        }
      }
    }
    node_def {
      name: "FlatMapDataset"
      op: "FlatMapDataset"
      input: "TensorSliceDataset:handle:0"
      attr {
        key: "Targuments"
        value {
          list {
          }
        }
      }
      attr {
        key: "_output_shapes"
        value {
          list {
            shape {
            }
          }
        }
      }
      attr {
        key: "f"
        value {
          func {
            name: "__inference_Dataset_flat_map_read_one_file_37"
          }
        }
      }
      attr {
        key: "output_shapes"
        value {
          list {
            shape {
            }
          }
        }
      }
      attr {
        key: "output_types"
        value {
          list {
            type: DT_STRING
          }
        }
      }
    }
    node_def {
      name: "Identity"
      op: "Identity"
      input: "FlatMapDataset:handle:0"
      input: "^TensorSliceDataset"
      attr {
        key: "T"
        value {
          type: DT_VARIANT
        }
      }
      attr {
        key: "_output_shapes"
        value {
          list {
            shape {
            }
          }
        }
      }
    }
    ret {
      key: "identity"
      value: "Identity:output:0"
    }
    attr {
      key: "_input_shapes"
      value {
        list {
          shape {
          }
        }
      }
    }
    control_ret {
      key: "TensorSliceDataset"
      value: "TensorSliceDataset"
    }
    arg_attr {
      value {
        attr {
          key: "_user_specified_name"
          value {
            s: "args_0"
          }
        }
      }
    }
  }
  function {
    signature {
      name: "__inference_Dataset_flat_map_read_one_file_37"
      input_arg {
        name: "args_0"
        type: DT_STRING
      }
      output_arg {
        name: "identity"
        type: DT_VARIANT
      }
      is_stateful: true
      control_output: "TFRecordDataset"
    }
    node_def {
      name: "compression_type"
      op: "Const"
      attr {
        key: "_output_shapes"
        value {
          list {
            shape {
            }
          }
        }
      }
      attr {
        key: "dtype"
        value {
          type: DT_STRING
        }
      }
      attr {
        key: "value"
        value {
          tensor {
            dtype: DT_STRING
            tensor_shape {
            }
            string_val: ""
          }
        }
      }
    }
    node_def {
      name: "buffer_size"
      op: "Const"
      attr {
        key: "_output_shapes"
        value {
          list {
            shape {
            }
          }
        }
      }
      attr {
        key: "dtype"
        value {
          type: DT_INT64
        }
      }
      attr {
        key: "value"
        value {
          tensor {
            dtype: DT_INT64
            tensor_shape {
            }
            int64_val: 262144
          }
        }
      }
    }
    node_def {
      name: "TFRecordDataset"
      op: "TFRecordDataset"
      input: "args_0"
      input: "compression_type:output:0"
      input: "buffer_size:output:0"
      attr {
        key: "_output_shapes"
        value {
          list {
            shape {
            }
          }
        }
      }
    }
    node_def {
      name: "Identity"
      op: "Identity"
      input: "TFRecordDataset:handle:0"
      input: "^TFRecordDataset"
      attr {
        key: "T"
        value {
          type: DT_VARIANT
        }
      }
      attr {
        key: "_output_shapes"
        value {
          list {
            shape {
            }
          }
        }
      }
    }
    ret {
      key: "identity"
      value: "Identity:output:0"
    }
    attr {
      key: "_input_shapes"
      value {
        list {
          shape {
          }
        }
      }
    }
    control_ret {
      key: "TFRecordDataset"
      value: "TFRecordDataset"
    }
    arg_attr {
      value {
        attr {
          key: "_user_specified_name"
          value {
            s: "args_0"
          }
        }
      }
    }
  }
}
versions {
  producer: 38
  min_consumer: 12
}
