node {
  name: "global_step/Initializer/zeros"
  op: "Const"
  attr {
    key: "_class"
    value {
      list {
        s: "loc:@global_step"
      }
    }
  }
  attr {
    key: "_output_shapes"
    value {
      list {
        shape {
        }
      }
    }
  }
  attr {
    key: "dtype"
    value {
      type: DT_INT64
    }
  }
  attr {
    key: "value"
    value {
      tensor {
        dtype: DT_INT64
        tensor_shape {
        }
        int64_val: 0
      }
    }
  }
}
node {
  name: "global_step"
  op: "VariableV2"
  attr {
    key: "_class"
    value {
      list {
        s: "loc:@global_step"
      }
    }
  }
  attr {
    key: "_output_shapes"
    value {
      list {
        shape {
        }
      }
    }
  }
  attr {
    key: "container"
    value {
      s: ""
    }
  }
  attr {
    key: "dtype"
    value {
      type: DT_INT64
    }
  }
  attr {
    key: "shape"
    value {
      shape {
      }
    }
  }
  attr {
    key: "shared_name"
    value {
      s: ""
    }
  }
}
node {
  name: "global_step/Assign"
  op: "Assign"
  input: "global_step"
  input: "global_step/Initializer/zeros"
  attr {
    key: "T"
    value {
      type: DT_INT64
    }
  }
  attr {
    key: "_class"
    value {
      list {
        s: "loc:@global_step"
      }
    }
  }
  attr {
    key: "_output_shapes"
    value {
      list {
        shape {
        }
      }
    }
  }
  attr {
    key: "use_locking"
    value {
      b: true
    }
  }
  attr {
    key: "validate_shape"
    value {
      b: true
    }
  }
}
node {
  name: "global_step/read"
  op: "Identity"
  input: "global_step"
  attr {
    key: "T"
    value {
      type: DT_INT64
    }
  }
  attr {
    key: "_class"
    value {
      list {
        s: "loc:@global_step"
      }
    }
  }
  attr {
    key: "_output_shapes"
    value {
      list {
        shape {
        }
      }
    }
  }
}
node {
  name: "global_step/IsVariableInitialized"
  op: "IsVariableInitialized"
  input: "global_step"
  attr {
    key: "_class"
    value {
      list {
        s: "loc:@global_step"
      }
    }
  }
  attr {
    key: "_output_shapes"
    value {
      list {
        shape {
        }
      }
    }
  }
  attr {
    key: "dtype"
    value {
      type: DT_INT64
    }
  }
}
node {
  name: "global_step/cond/Switch"
  op: "Switch"
  input: "global_step/IsVariableInitialized"
  input: "global_step/IsVariableInitialized"
  attr {
    key: "T"
    value {
      type: DT_BOOL
    }
  }
  attr {
    key: "_output_shapes"
    value {
      list {
        shape {
        }
        shape {
        }
      }
    }
  }
}
node {
  name: "global_step/cond/switch_t"
  op: "Identity"
  input: "global_step/cond/Switch:1"
  attr {
    key: "T"
    value {
      type: DT_BOOL
    }
  }
  attr {
    key: "_output_shapes"
    value {
      list {
        shape {
        }
      }
    }
  }
}
node {
  name: "global_step/cond/switch_f"
  op: "Identity"
  input: "global_step/cond/Switch"
  attr {
    key: "T"
    value {
      type: DT_BOOL
    }
  }
  attr {
    key: "_output_shapes"
    value {
      list {
        shape {
        }
      }
    }
  }
}
node {
  name: "global_step/cond/pred_id"
  op: "Identity"
  input: "global_step/IsVariableInitialized"
  attr {
    key: "T"
    value {
      type: DT_BOOL
    }
  }
  attr {
    key: "_output_shapes"
    value {
      list {
        shape {
        }
      }
    }
  }
}
node {
  name: "global_step/cond/read"
  op: "Identity"
  input: "global_step/cond/read/Switch:1"
  attr {
    key: "T"
    value {
      type: DT_INT64
    }
  }
  attr {
    key: "_output_shapes"
    value {
      list {
        shape {
        }
      }
    }
  }
}
node {
  name: "global_step/cond/read/Switch"
  op: "RefSwitch"
  input: "global_step"
  input: "global_step/cond/pred_id"
  attr {
    key: "T"
    value {
      type: DT_INT64
    }
  }
  attr {
    key: "_class"
    value {
      list {
        s: "loc:@global_step"
      }
    }
  }
  attr {
    key: "_output_shapes"
    value {
      list {
        shape {
        }
        shape {
        }
      }
    }
  }
}
node {
  name: "global_step/cond/Switch_1"
  op: "Switch"
  input: "global_step/Initializer/zeros"
  input: "global_step/cond/pred_id"
  attr {
    key: "T"
    value {
      type: DT_INT64
    }
  }
  attr {
    key: "_class"
    value {
      list {
        s: "loc:@global_step"
      }
    }
  }
  attr {
    key: "_output_shapes"
    value {
      list {
        shape {
        }
        shape {
        }
      }
    }
  }
}
node {
  name: "global_step/cond/Merge"
  op: "Merge"
  input: "global_step/cond/Switch_1"
  input: "global_step/cond/read"
  attr {
    key: "N"
    value {
      i: 2
    }
  }
  attr {
    key: "T"
    value {
      type: DT_INT64
    }
  }
  attr {
    key: "_output_shapes"
    value {
      list {
        shape {
        }
        shape {
        }
      }
    }
  }
}
node {
  name: "global_step/add/y"
  op: "Const"
  attr {
    key: "_output_shapes"
    value {
      list {
        shape {
        }
      }
    }
  }
  attr {
    key: "dtype"
    value {
      type: DT_INT64
    }
  }
  attr {
    key: "value"
    value {
      tensor {
        dtype: DT_INT64
        tensor_shape {
        }
        int64_val: 0
      }
    }
  }
}
node {
  name: "global_step/add"
  op: "Add"
  input: "global_step/cond/Merge"
  input: "global_step/add/y"
  attr {
    key: "T"
    value {
      type: DT_INT64
    }
  }
  attr {
    key: "_output_shapes"
    value {
      list {
        shape {
        }
      }
    }
  }
}
node {
  name: "tensors/normalize_tensors/component_0"
  op: "Const"
  device: "/device:CPU:0"
  attr {
    key: "_output_shapes"
    value {
      list {
        shape {
          dim {
            size: 345
          }
        }
      }
    }
  }
  attr {
    key: "dtype"
    value {
      type: DT_STRING
    }
  }
  attr {
    key: "value"
    value {
      tensor {
        dtype: DT_STRING
        tensor_shape {
          dim {
            size: 345
          }
        }
        string_val: "topology/tfrecords/mix/1001.tfrecords"
        string_val: "topology/tfrecords/mix/1002.tfrecords"
        string_val: "topology/tfrecords/mix/1003.tfrecords"
        string_val: "topology/tfrecords/mix/1005.tfrecords"
        string_val: "topology/tfrecords/mix/1006.tfrecords"
        string_val: "topology/tfrecords/mix/1007.tfrecords"
        string_val: "topology/tfrecords/mix/1008.tfrecords"
        string_val: "topology/tfrecords/mix/1009.tfrecords"
        string_val: "topology/tfrecords/mix/100.tfrecords"
        string_val: "topology/tfrecords/mix/1010.tfrecords"
        string_val: "topology/tfrecords/mix/1011.tfrecords"
        string_val: "topology/tfrecords/mix/1013.tfrecords"
        string_val: "topology/tfrecords/mix/1014.tfrecords"
        string_val: "topology/tfrecords/mix/1016.tfrecords"
        string_val: "topology/tfrecords/mix/1017.tfrecords"
        string_val: "topology/tfrecords/mix/1018.tfrecords"
        string_val: "topology/tfrecords/mix/1019.tfrecords"
        string_val: "topology/tfrecords/mix/101.tfrecords"
        string_val: "topology/tfrecords/mix/1021.tfrecords"
        string_val: "topology/tfrecords/mix/1022.tfrecords"
        string_val: "topology/tfrecords/mix/1023.tfrecords"
        string_val: "topology/tfrecords/mix/1024.tfrecords"
        string_val: "topology/tfrecords/mix/1026.tfrecords"
        string_val: "topology/tfrecords/mix/1027.tfrecords"
        string_val: "topology/tfrecords/mix/1028.tfrecords"
        string_val: "topology/tfrecords/mix/1029.tfrecords"
        string_val: "topology/tfrecords/mix/102.tfrecords"
        string_val: "topology/tfrecords/mix/1030.tfrecords"
        string_val: "topology/tfrecords/mix/1031.tfrecords"
        string_val: "topology/tfrecords/mix/1032.tfrecords"
        string_val: "topology/tfrecords/mix/1033.tfrecords"
        string_val: "topology/tfrecords/mix/1034.tfrecords"
        string_val: "topology/tfrecords/mix/1035.tfrecords"
        string_val: "topology/tfrecords/mix/1036.tfrecords"
        string_val: "topology/tfrecords/mix/1038.tfrecords"
        string_val: "topology/tfrecords/mix/1039.tfrecords"
        string_val: "topology/tfrecords/mix/1040.tfrecords"
        string_val: "topology/tfrecords/mix/1041.tfrecords"
        string_val: "topology/tfrecords/mix/1042.tfrecords"
        string_val: "topology/tfrecords/mix/1043.tfrecords"
        string_val: "topology/tfrecords/mix/1045.tfrecords"
        string_val: "topology/tfrecords/mix/1048.tfrecords"
        string_val: "topology/tfrecords/mix/1049.tfrecords"
        string_val: "topology/tfrecords/mix/104.tfrecords"
        string_val: "topology/tfrecords/mix/1051.tfrecords"
        string_val: "topology/tfrecords/mix/1052.tfrecords"
        string_val: "topology/tfrecords/mix/1053.tfrecords"
        string_val: "topology/tfrecords/mix/1054.tfrecords"
        string_val: "topology/tfrecords/mix/1055.tfrecords"
        string_val: "topology/tfrecords/mix/1056.tfrecords"
        string_val: "topology/tfrecords/mix/1058.tfrecords"
        string_val: "topology/tfrecords/mix/1059.tfrecords"
        string_val: "topology/tfrecords/mix/105.tfrecords"
        string_val: "topology/tfrecords/mix/1060.tfrecords"
        string_val: "topology/tfrecords/mix/1061.tfrecords"
        string_val: "topology/tfrecords/mix/1062.tfrecords"
        string_val: "topology/tfrecords/mix/1063.tfrecords"
        string_val: "topology/tfrecords/mix/1064.tfrecords"
        string_val: "topology/tfrecords/mix/1066.tfrecords"
        string_val: "topology/tfrecords/mix/1067.tfrecords"
        string_val: "topology/tfrecords/mix/1068.tfrecords"
        string_val: "topology/tfrecords/mix/1069.tfrecords"
        string_val: "topology/tfrecords/mix/106.tfrecords"
        string_val: "topology/tfrecords/mix/1070.tfrecords"
        string_val: "topology/tfrecords/mix/1072.tfrecords"
        string_val: "topology/tfrecords/mix/1074.tfrecords"
        string_val: "topology/tfrecords/mix/1075.tfrecords"
        string_val: "topology/tfrecords/mix/1076.tfrecords"
        string_val: "topology/tfrecords/mix/1077.tfrecords"
        string_val: "topology/tfrecords/mix/1078.tfrecords"
        string_val: "topology/tfrecords/mix/1079.tfrecords"
        string_val: "topology/tfrecords/mix/107.tfrecords"
        string_val: "topology/tfrecords/mix/1080.tfrecords"
        string_val: "topology/tfrecords/mix/1081.tfrecords"
        string_val: "topology/tfrecords/mix/1083.tfrecords"
        string_val: "topology/tfrecords/mix/1085.tfrecords"
        string_val: "topology/tfrecords/mix/1086.tfrecords"
        string_val: "topology/tfrecords/mix/1087.tfrecords"
        string_val: "topology/tfrecords/mix/1089.tfrecords"
        string_val: "topology/tfrecords/mix/108.tfrecords"
        string_val: "topology/tfrecords/mix/1090.tfrecords"
        string_val: "topology/tfrecords/mix/1091.tfrecords"
        string_val: "topology/tfrecords/mix/1092.tfrecords"
        string_val: "topology/tfrecords/mix/1093.tfrecords"
        string_val: "topology/tfrecords/mix/1095.tfrecords"
        string_val: "topology/tfrecords/mix/1096.tfrecords"
        string_val: "topology/tfrecords/mix/1097.tfrecords"
        string_val: "topology/tfrecords/mix/1099.tfrecords"
        string_val: "topology/tfrecords/mix/109.tfrecords"
        string_val: "topology/tfrecords/mix/10.tfrecords"
        string_val: "topology/tfrecords/mix/1100.tfrecords"
        string_val: "topology/tfrecords/mix/1102.tfrecords"
        string_val: "topology/tfrecords/mix/1104.tfrecords"
        string_val: "topology/tfrecords/mix/1106.tfrecords"
        string_val: "topology/tfrecords/mix/1107.tfrecords"
        string_val: "topology/tfrecords/mix/1108.tfrecords"
        string_val: "topology/tfrecords/mix/110.tfrecords"
        string_val: "topology/tfrecords/mix/1111.tfrecords"
        string_val: "topology/tfrecords/mix/1112.tfrecords"
        string_val: "topology/tfrecords/mix/1113.tfrecords"
        string_val: "topology/tfrecords/mix/1114.tfrecords"
        string_val: "topology/tfrecords/mix/1115.tfrecords"
        string_val: "topology/tfrecords/mix/1116.tfrecords"
        string_val: "topology/tfrecords/mix/1117.tfrecords"
        string_val: "topology/tfrecords/mix/1118.tfrecords"
        string_val: "topology/tfrecords/mix/1119.tfrecords"
        string_val: "topology/tfrecords/mix/111.tfrecords"
        string_val: "topology/tfrecords/mix/1120.tfrecords"
        string_val: "topology/tfrecords/mix/1122.tfrecords"
        string_val: "topology/tfrecords/mix/1123.tfrecords"
        string_val: "topology/tfrecords/mix/1124.tfrecords"
        string_val: "topology/tfrecords/mix/1126.tfrecords"
        string_val: "topology/tfrecords/mix/1127.tfrecords"
        string_val: "topology/tfrecords/mix/1128.tfrecords"
        string_val: "topology/tfrecords/mix/112.tfrecords"
        string_val: "topology/tfrecords/mix/1132.tfrecords"
        string_val: "topology/tfrecords/mix/1133.tfrecords"
        string_val: "topology/tfrecords/mix/1134.tfrecords"
        string_val: "topology/tfrecords/mix/1135.tfrecords"
        string_val: "topology/tfrecords/mix/1136.tfrecords"
        string_val: "topology/tfrecords/mix/1137.tfrecords"
        string_val: "topology/tfrecords/mix/1138.tfrecords"
        string_val: "topology/tfrecords/mix/1139.tfrecords"
        string_val: "topology/tfrecords/mix/113.tfrecords"
        string_val: "topology/tfrecords/mix/1140.tfrecords"
        string_val: "topology/tfrecords/mix/1142.tfrecords"
        string_val: "topology/tfrecords/mix/1144.tfrecords"
        string_val: "topology/tfrecords/mix/1145.tfrecords"
        string_val: "topology/tfrecords/mix/1146.tfrecords"
        string_val: "topology/tfrecords/mix/1147.tfrecords"
        string_val: "topology/tfrecords/mix/1148.tfrecords"
        string_val: "topology/tfrecords/mix/1149.tfrecords"
        string_val: "topology/tfrecords/mix/114.tfrecords"
        string_val: "topology/tfrecords/mix/1151.tfrecords"
        string_val: "topology/tfrecords/mix/1152.tfrecords"
        string_val: "topology/tfrecords/mix/1153.tfrecords"
        string_val: "topology/tfrecords/mix/1155.tfrecords"
        string_val: "topology/tfrecords/mix/1157.tfrecords"
        string_val: "topology/tfrecords/mix/1158.tfrecords"
        string_val: "topology/tfrecords/mix/1159.tfrecords"
        string_val: "topology/tfrecords/mix/115.tfrecords"
        string_val: "topology/tfrecords/mix/1160.tfrecords"
        string_val: "topology/tfrecords/mix/1161.tfrecords"
        string_val: "topology/tfrecords/mix/1162.tfrecords"
        string_val: "topology/tfrecords/mix/1165.tfrecords"
        string_val: "topology/tfrecords/mix/1166.tfrecords"
        string_val: "topology/tfrecords/mix/1167.tfrecords"
        string_val: "topology/tfrecords/mix/1169.tfrecords"
        string_val: "topology/tfrecords/mix/116.tfrecords"
        string_val: "topology/tfrecords/mix/1170.tfrecords"
        string_val: "topology/tfrecords/mix/1171.tfrecords"
        string_val: "topology/tfrecords/mix/1172.tfrecords"
        string_val: "topology/tfrecords/mix/1173.tfrecords"
        string_val: "topology/tfrecords/mix/1176.tfrecords"
        string_val: "topology/tfrecords/mix/1178.tfrecords"
        string_val: "topology/tfrecords/mix/1179.tfrecords"
        string_val: "topology/tfrecords/mix/117.tfrecords"
        string_val: "topology/tfrecords/mix/1180.tfrecords"
        string_val: "topology/tfrecords/mix/1181.tfrecords"
        string_val: "topology/tfrecords/mix/1182.tfrecords"
        string_val: "topology/tfrecords/mix/1184.tfrecords"
        string_val: "topology/tfrecords/mix/1185.tfrecords"
        string_val: "topology/tfrecords/mix/1186.tfrecords"
        string_val: "topology/tfrecords/mix/1187.tfrecords"
        string_val: "topology/tfrecords/mix/1188.tfrecords"
        string_val: "topology/tfrecords/mix/1189.tfrecords"
        string_val: "topology/tfrecords/mix/118.tfrecords"
        string_val: "topology/tfrecords/mix/1190.tfrecords"
        string_val: "topology/tfrecords/mix/1191.tfrecords"
        string_val: "topology/tfrecords/mix/1192.tfrecords"
        string_val: "topology/tfrecords/mix/1193.tfrecords"
        string_val: "topology/tfrecords/mix/1194.tfrecords"
        string_val: "topology/tfrecords/mix/1195.tfrecords"
        string_val: "topology/tfrecords/mix/1196.tfrecords"
        string_val: "topology/tfrecords/mix/1197.tfrecords"
        string_val: "topology/tfrecords/mix/1198.tfrecords"
        string_val: "topology/tfrecords/mix/1199.tfrecords"
        string_val: "topology/tfrecords/mix/119.tfrecords"
        string_val: "topology/tfrecords/mix/11.tfrecords"
        string_val: "topology/tfrecords/mix/1200.tfrecords"
        string_val: "topology/tfrecords/mix/1201.tfrecords"
        string_val: "topology/tfrecords/mix/1202.tfrecords"
        string_val: "topology/tfrecords/mix/1203.tfrecords"
        string_val: "topology/tfrecords/mix/1204.tfrecords"
        string_val: "topology/tfrecords/mix/1206.tfrecords"
        string_val: "topology/tfrecords/mix/1207.tfrecords"
        string_val: "topology/tfrecords/mix/1208.tfrecords"
        string_val: "topology/tfrecords/mix/1209.tfrecords"
        string_val: "topology/tfrecords/mix/120.tfrecords"
        string_val: "topology/tfrecords/mix/1210.tfrecords"
        string_val: "topology/tfrecords/mix/1211.tfrecords"
        string_val: "topology/tfrecords/mix/1212.tfrecords"
        string_val: "topology/tfrecords/mix/1213.tfrecords"
        string_val: "topology/tfrecords/mix/1214.tfrecords"
        string_val: "topology/tfrecords/mix/1215.tfrecords"
        string_val: "topology/tfrecords/mix/1216.tfrecords"
        string_val: "topology/tfrecords/mix/1217.tfrecords"
        string_val: "topology/tfrecords/mix/121.tfrecords"
        string_val: "topology/tfrecords/mix/1220.tfrecords"
        string_val: "topology/tfrecords/mix/1221.tfrecords"
        string_val: "topology/tfrecords/mix/1222.tfrecords"
        string_val: "topology/tfrecords/mix/1223.tfrecords"
        string_val: "topology/tfrecords/mix/122.tfrecords"
        string_val: "topology/tfrecords/mix/123.tfrecords"
        string_val: "topology/tfrecords/mix/124.tfrecords"
        string_val: "topology/tfrecords/mix/125.tfrecords"
        string_val: "topology/tfrecords/mix/126.tfrecords"
        string_val: "topology/tfrecords/mix/127.tfrecords"
        string_val: "topology/tfrecords/mix/12.tfrecords"
        string_val: "topology/tfrecords/mix/130.tfrecords"
        string_val: "topology/tfrecords/mix/131.tfrecords"
        string_val: "topology/tfrecords/mix/132.tfrecords"
        string_val: "topology/tfrecords/mix/133.tfrecords"
        string_val: "topology/tfrecords/mix/135.tfrecords"
        string_val: "topology/tfrecords/mix/136.tfrecords"
        string_val: "topology/tfrecords/mix/137.tfrecords"
        string_val: "topology/tfrecords/mix/138.tfrecords"
        string_val: "topology/tfrecords/mix/139.tfrecords"
        string_val: "topology/tfrecords/mix/13.tfrecords"
        string_val: "topology/tfrecords/mix/140.tfrecords"
        string_val: "topology/tfrecords/mix/141.tfrecords"
        string_val: "topology/tfrecords/mix/142.tfrecords"
        string_val: "topology/tfrecords/mix/143.tfrecords"
        string_val: "topology/tfrecords/mix/145.tfrecords"
        string_val: "topology/tfrecords/mix/146.tfrecords"
        string_val: "topology/tfrecords/mix/147.tfrecords"
        string_val: "topology/tfrecords/mix/148.tfrecords"
        string_val: "topology/tfrecords/mix/151.tfrecords"
        string_val: "topology/tfrecords/mix/154.tfrecords"
        string_val: "topology/tfrecords/mix/155.tfrecords"
        string_val: "topology/tfrecords/mix/156.tfrecords"
        string_val: "topology/tfrecords/mix/157.tfrecords"
        string_val: "topology/tfrecords/mix/158.tfrecords"
        string_val: "topology/tfrecords/mix/15.tfrecords"
        string_val: "topology/tfrecords/mix/160.tfrecords"
        string_val: "topology/tfrecords/mix/162.tfrecords"
        string_val: "topology/tfrecords/mix/163.tfrecords"
        string_val: "topology/tfrecords/mix/164.tfrecords"
        string_val: "topology/tfrecords/mix/165.tfrecords"
        string_val: "topology/tfrecords/mix/167.tfrecords"
        string_val: "topology/tfrecords/mix/168.tfrecords"
        string_val: "topology/tfrecords/mix/171.tfrecords"
        string_val: "topology/tfrecords/mix/173.tfrecords"
        string_val: "topology/tfrecords/mix/174.tfrecords"
        string_val: "topology/tfrecords/mix/175.tfrecords"
        string_val: "topology/tfrecords/mix/176.tfrecords"
        string_val: "topology/tfrecords/mix/177.tfrecords"
        string_val: "topology/tfrecords/mix/178.tfrecords"
        string_val: "topology/tfrecords/mix/179.tfrecords"
        string_val: "topology/tfrecords/mix/17.tfrecords"
        string_val: "topology/tfrecords/mix/180.tfrecords"
        string_val: "topology/tfrecords/mix/181.tfrecords"
        string_val: "topology/tfrecords/mix/183.tfrecords"
        string_val: "topology/tfrecords/mix/184.tfrecords"
        string_val: "topology/tfrecords/mix/185.tfrecords"
        string_val: "topology/tfrecords/mix/186.tfrecords"
        string_val: "topology/tfrecords/mix/187.tfrecords"
        string_val: "topology/tfrecords/mix/188.tfrecords"
        string_val: "topology/tfrecords/mix/189.tfrecords"
        string_val: "topology/tfrecords/mix/191.tfrecords"
        string_val: "topology/tfrecords/mix/192.tfrecords"
        string_val: "topology/tfrecords/mix/193.tfrecords"
        string_val: "topology/tfrecords/mix/194.tfrecords"
        string_val: "topology/tfrecords/mix/195.tfrecords"
        string_val: "topology/tfrecords/mix/197.tfrecords"
        string_val: "topology/tfrecords/mix/198.tfrecords"
        string_val: "topology/tfrecords/mix/199.tfrecords"
        string_val: "topology/tfrecords/mix/19.tfrecords"
        string_val: "topology/tfrecords/mix/1.tfrecords"
        string_val: "topology/tfrecords/mix/20.tfrecords"
        string_val: "topology/tfrecords/mix/21.tfrecords"
        string_val: "topology/tfrecords/mix/22.tfrecords"
        string_val: "topology/tfrecords/mix/23.tfrecords"
        string_val: "topology/tfrecords/mix/24.tfrecords"
        string_val: "topology/tfrecords/mix/25.tfrecords"
        string_val: "topology/tfrecords/mix/26.tfrecords"
        string_val: "topology/tfrecords/mix/27.tfrecords"
        string_val: "topology/tfrecords/mix/28.tfrecords"
        string_val: "topology/tfrecords/mix/29.tfrecords"
        string_val: "topology/tfrecords/mix/2.tfrecords"
        string_val: "topology/tfrecords/mix/30.tfrecords"
        string_val: "topology/tfrecords/mix/31.tfrecords"
        string_val: "topology/tfrecords/mix/32.tfrecords"
        string_val: "topology/tfrecords/mix/33.tfrecords"
        string_val: "topology/tfrecords/mix/34.tfrecords"
        string_val: "topology/tfrecords/mix/35.tfrecords"
        string_val: "topology/tfrecords/mix/37.tfrecords"
        string_val: "topology/tfrecords/mix/38.tfrecords"
        string_val: "topology/tfrecords/mix/39.tfrecords"
        string_val: "topology/tfrecords/mix/3.tfrecords"
        string_val: "topology/tfrecords/mix/40.tfrecords"
        string_val: "topology/tfrecords/mix/41.tfrecords"
        string_val: "topology/tfrecords/mix/42.tfrecords"
        string_val: "topology/tfrecords/mix/44.tfrecords"
        string_val: "topology/tfrecords/mix/45.tfrecords"
        string_val: "topology/tfrecords/mix/46.tfrecords"
        string_val: "topology/tfrecords/mix/48.tfrecords"
        string_val: "topology/tfrecords/mix/4.tfrecords"
        string_val: "topology/tfrecords/mix/50.tfrecords"
        string_val: "topology/tfrecords/mix/51.tfrecords"
        string_val: "topology/tfrecords/mix/52.tfrecords"
        string_val: "topology/tfrecords/mix/53.tfrecords"
        string_val: "topology/tfrecords/mix/54.tfrecords"
        string_val: "topology/tfrecords/mix/55.tfrecords"
        string_val: "topology/tfrecords/mix/56.tfrecords"
        string_val: "topology/tfrecords/mix/58.tfrecords"
        string_val: "topology/tfrecords/mix/5.tfrecords"
        string_val: "topology/tfrecords/mix/61.tfrecords"
        string_val: "topology/tfrecords/mix/63.tfrecords"
        string_val: "topology/tfrecords/mix/64.tfrecords"
        string_val: "topology/tfrecords/mix/65.tfrecords"
        string_val: "topology/tfrecords/mix/67.tfrecords"
        string_val: "topology/tfrecords/mix/68.tfrecords"
        string_val: "topology/tfrecords/mix/69.tfrecords"
        string_val: "topology/tfrecords/mix/6.tfrecords"
        string_val: "topology/tfrecords/mix/70.tfrecords"
        string_val: "topology/tfrecords/mix/71.tfrecords"
        string_val: "topology/tfrecords/mix/73.tfrecords"
        string_val: "topology/tfrecords/mix/74.tfrecords"
        string_val: "topology/tfrecords/mix/76.tfrecords"
        string_val: "topology/tfrecords/mix/77.tfrecords"
        string_val: "topology/tfrecords/mix/79.tfrecords"
        string_val: "topology/tfrecords/mix/7.tfrecords"
        string_val: "topology/tfrecords/mix/80.tfrecords"
        string_val: "topology/tfrecords/mix/81.tfrecords"
        string_val: "topology/tfrecords/mix/82.tfrecords"
        string_val: "topology/tfrecords/mix/83.tfrecords"
        string_val: "topology/tfrecords/mix/84.tfrecords"
        string_val: "topology/tfrecords/mix/85.tfrecords"
        string_val: "topology/tfrecords/mix/86.tfrecords"
        string_val: "topology/tfrecords/mix/87.tfrecords"
        string_val: "topology/tfrecords/mix/88.tfrecords"
        string_val: "topology/tfrecords/mix/89.tfrecords"
        string_val: "topology/tfrecords/mix/8.tfrecords"
        string_val: "topology/tfrecords/mix/90.tfrecords"
        string_val: "topology/tfrecords/mix/91.tfrecords"
        string_val: "topology/tfrecords/mix/92.tfrecords"
        string_val: "topology/tfrecords/mix/93.tfrecords"
        string_val: "topology/tfrecords/mix/94.tfrecords"
        string_val: "topology/tfrecords/mix/95.tfrecords"
        string_val: "topology/tfrecords/mix/96.tfrecords"
        string_val: "topology/tfrecords/mix/97.tfrecords"
        string_val: "topology/tfrecords/mix/98.tfrecords"
        string_val: "topology/tfrecords/mix/99.tfrecords"
        string_val: "topology/tfrecords/mix/9.tfrecords"
      }
    }
  }
}
node {
  name: "TensorSliceDataset"
  op: "TensorSliceDataset"
  input: "tensors/normalize_tensors/component_0"
  device: "/device:CPU:0"
  attr {
    key: "Toutput_types"
    value {
      list {
        type: DT_STRING
      }
    }
  }
  attr {
    key: "_output_shapes"
    value {
      list {
        shape {
        }
      }
    }
  }
  attr {
    key: "output_shapes"
    value {
      list {
        shape {
        }
      }
    }
  }
}
node {
  name: "buffer_size"
  op: "Const"
  device: "/device:CPU:0"
  attr {
    key: "_output_shapes"
    value {
      list {
        shape {
        }
      }
    }
  }
  attr {
    key: "dtype"
    value {
      type: DT_INT64
    }
  }
  attr {
    key: "value"
    value {
      tensor {
        dtype: DT_INT64
        tensor_shape {
        }
        int64_val: 345
      }
    }
  }
}
node {
  name: "seed"
  op: "Const"
  device: "/device:CPU:0"
  attr {
    key: "_output_shapes"
    value {
      list {
        shape {
        }
      }
    }
  }
  attr {
    key: "dtype"
    value {
      type: DT_INT64
    }
  }
  attr {
    key: "value"
    value {
      tensor {
        dtype: DT_INT64
        tensor_shape {
        }
        int64_val: 0
      }
    }
  }
}
node {
  name: "seed2"
  op: "Const"
  device: "/device:CPU:0"
  attr {
    key: "_output_shapes"
    value {
      list {
        shape {
        }
      }
    }
  }
  attr {
    key: "dtype"
    value {
      type: DT_INT64
    }
  }
  attr {
    key: "value"
    value {
      tensor {
        dtype: DT_INT64
        tensor_shape {
        }
        int64_val: 0
      }
    }
  }
}
node {
  name: "ShuffleDataset"
  op: "ShuffleDataset"
  input: "TensorSliceDataset"
  input: "buffer_size"
  input: "seed"
  input: "seed2"
  device: "/device:CPU:0"
  attr {
    key: "_output_shapes"
    value {
      list {
        shape {
        }
      }
    }
  }
  attr {
    key: "output_shapes"
    value {
      list {
        shape {
        }
      }
    }
  }
  attr {
    key: "output_types"
    value {
      list {
        type: DT_STRING
      }
    }
  }
  attr {
    key: "reshuffle_each_iteration"
    value {
      b: true
    }
  }
}
node {
  name: "cycle_length"
  op: "Const"
  device: "/device:CPU:0"
  attr {
    key: "_output_shapes"
    value {
      list {
        shape {
        }
      }
    }
  }
  attr {
    key: "dtype"
    value {
      type: DT_INT64
    }
  }
  attr {
    key: "value"
    value {
      tensor {
        dtype: DT_INT64
        tensor_shape {
        }
        int64_val: 4
      }
    }
  }
}
node {
  name: "block_length"
  op: "Const"
  device: "/device:CPU:0"
  attr {
    key: "_output_shapes"
    value {
      list {
        shape {
        }
      }
    }
  }
  attr {
    key: "dtype"
    value {
      type: DT_INT64
    }
  }
  attr {
    key: "value"
    value {
      tensor {
        dtype: DT_INT64
        tensor_shape {
        }
        int64_val: 1
      }
    }
  }
}
node {
  name: "sloppy"
  op: "Const"
  device: "/device:CPU:0"
  attr {
    key: "_output_shapes"
    value {
      list {
        shape {
        }
      }
    }
  }
  attr {
    key: "dtype"
    value {
      type: DT_BOOL
    }
  }
  attr {
    key: "value"
    value {
      tensor {
        dtype: DT_BOOL
        tensor_shape {
        }
        bool_val: false
      }
    }
  }
}
node {
  name: "buffer_output_elements"
  op: "Const"
  device: "/device:CPU:0"
  attr {
    key: "_output_shapes"
    value {
      list {
        shape {
        }
      }
    }
  }
  attr {
    key: "dtype"
    value {
      type: DT_INT64
    }
  }
  attr {
    key: "value"
    value {
      tensor {
        dtype: DT_INT64
        tensor_shape {
        }
        int64_val: 2
      }
    }
  }
}
node {
  name: "prefetch_input_elements"
  op: "Const"
  device: "/device:CPU:0"
  attr {
    key: "_output_shapes"
    value {
      list {
        shape {
        }
      }
    }
  }
  attr {
    key: "dtype"
    value {
      type: DT_INT64
    }
  }
  attr {
    key: "value"
    value {
      tensor {
        dtype: DT_INT64
        tensor_shape {
        }
        int64_val: 8
      }
    }
  }
}
node {
  name: "ExperimentalParallelInterleaveDataset"
  op: "ExperimentalParallelInterleaveDataset"
  input: "ShuffleDataset"
  input: "cycle_length"
  input: "block_length"
  input: "sloppy"
  input: "buffer_output_elements"
  input: "prefetch_input_elements"
  device: "/device:CPU:0"
  attr {
    key: "Targuments"
    value {
      list {
      }
    }
  }
  attr {
    key: "_output_shapes"
    value {
      list {
        shape {
        }
      }
    }
  }
  attr {
    key: "f"
    value {
      func {
        name: "__inference_tf_data_experimental_parallel_interleave_<class \'abc.ABCMeta\'>_40"
      }
    }
  }
  attr {
    key: "output_shapes"
    value {
      list {
        shape {
        }
      }
    }
  }
  attr {
    key: "output_types"
    value {
      list {
        type: DT_STRING
      }
    }
  }
}
node {
  name: "buffer_size_1"
  op: "Const"
  device: "/device:CPU:0"
  attr {
    key: "_output_shapes"
    value {
      list {
        shape {
        }
      }
    }
  }
  attr {
    key: "dtype"
    value {
      type: DT_INT64
    }
  }
  attr {
    key: "value"
    value {
      tensor {
        dtype: DT_INT64
        tensor_shape {
        }
        int64_val: 10000
      }
    }
  }
}
node {
  name: "count"
  op: "Const"
  device: "/device:CPU:0"
  attr {
    key: "_output_shapes"
    value {
      list {
        shape {
        }
      }
    }
  }
  attr {
    key: "dtype"
    value {
      type: DT_INT64
    }
  }
  attr {
    key: "value"
    value {
      tensor {
        dtype: DT_INT64
        tensor_shape {
        }
        int64_val: -1
      }
    }
  }
}
node {
  name: "seed_1"
  op: "Const"
  device: "/device:CPU:0"
  attr {
    key: "_output_shapes"
    value {
      list {
        shape {
        }
      }
    }
  }
  attr {
    key: "dtype"
    value {
      type: DT_INT64
    }
  }
  attr {
    key: "value"
    value {
      tensor {
        dtype: DT_INT64
        tensor_shape {
        }
        int64_val: 0
      }
    }
  }
}
node {
  name: "seed2_1"
  op: "Const"
  device: "/device:CPU:0"
  attr {
    key: "_output_shapes"
    value {
      list {
        shape {
        }
      }
    }
  }
  attr {
    key: "dtype"
    value {
      type: DT_INT64
    }
  }
  attr {
    key: "value"
    value {
      tensor {
        dtype: DT_INT64
        tensor_shape {
        }
        int64_val: 0
      }
    }
  }
}
node {
  name: "ShuffleAndRepeatDataset"
  op: "ShuffleAndRepeatDataset"
  input: "ExperimentalParallelInterleaveDataset"
  input: "buffer_size_1"
  input: "seed_1"
  input: "seed2_1"
  input: "count"
  device: "/device:CPU:0"
  attr {
    key: "_output_shapes"
    value {
      list {
        shape {
        }
      }
    }
  }
  attr {
    key: "output_shapes"
    value {
      list {
        shape {
        }
      }
    }
  }
  attr {
    key: "output_types"
    value {
      list {
        type: DT_STRING
      }
    }
  }
}
node {
  name: "num_parallel_calls"
  op: "Const"
  device: "/device:CPU:0"
  attr {
    key: "_output_shapes"
    value {
      list {
        shape {
        }
      }
    }
  }
  attr {
    key: "dtype"
    value {
      type: DT_INT32
    }
  }
  attr {
    key: "value"
    value {
      tensor {
        dtype: DT_INT32
        tensor_shape {
        }
        int_val: 2
      }
    }
  }
}
node {
  name: "ParallelMapDataset"
  op: "ParallelMapDataset"
  input: "ShuffleAndRepeatDataset"
  input: "num_parallel_calls"
  device: "/device:CPU:0"
  attr {
    key: "Targuments"
    value {
      list {
      }
    }
  }
  attr {
    key: "_output_shapes"
    value {
      list {
        shape {
        }
      }
    }
  }
  attr {
    key: "f"
    value {
      func {
        name: "__inference_Dataset_map_<lambda>_99"
      }
    }
  }
  attr {
    key: "output_shapes"
    value {
      list {
        shape {
          dim {
            size: -1
          }
        }
        shape {
          dim {
            size: -1
          }
        }
        shape {
        }
        shape {
        }
        shape {
        }
        shape {
          dim {
            size: -1
          }
        }
        shape {
          dim {
            size: -1
          }
        }
        shape {
          dim {
            size: -1
          }
        }
        shape {
          dim {
            size: -1
          }
        }
      }
    }
  }
  attr {
    key: "output_types"
    value {
      list {
        type: DT_FLOAT
        type: DT_INT64
        type: DT_INT64
        type: DT_INT64
        type: DT_INT64
        type: DT_INT64
        type: DT_INT64
        type: DT_FLOAT
        type: DT_FLOAT
      }
    }
  }
  attr {
    key: "preserve_cardinality"
    value {
      b: false
    }
  }
  attr {
    key: "sloppy"
    value {
      b: false
    }
  }
  attr {
    key: "use_inter_op_parallelism"
    value {
      b: true
    }
  }
}
node {
  name: "buffer_size_2"
  op: "Const"
  device: "/device:CPU:0"
  attr {
    key: "_output_shapes"
    value {
      list {
        shape {
        }
      }
    }
  }
  attr {
    key: "dtype"
    value {
      type: DT_INT64
    }
  }
  attr {
    key: "value"
    value {
      tensor {
        dtype: DT_INT64
        tensor_shape {
        }
        int64_val: 10
      }
    }
  }
}
node {
  name: "PrefetchDataset"
  op: "PrefetchDataset"
  input: "ParallelMapDataset"
  input: "buffer_size_2"
  device: "/device:CPU:0"
  attr {
    key: "_output_shapes"
    value {
      list {
        shape {
        }
      }
    }
  }
  attr {
    key: "output_shapes"
    value {
      list {
        shape {
          dim {
            size: -1
          }
        }
        shape {
          dim {
            size: -1
          }
        }
        shape {
        }
        shape {
        }
        shape {
        }
        shape {
          dim {
            size: -1
          }
        }
        shape {
          dim {
            size: -1
          }
        }
        shape {
          dim {
            size: -1
          }
        }
        shape {
          dim {
            size: -1
          }
        }
      }
    }
  }
  attr {
    key: "output_types"
    value {
      list {
        type: DT_FLOAT
        type: DT_INT64
        type: DT_INT64
        type: DT_INT64
        type: DT_INT64
        type: DT_INT64
        type: DT_INT64
        type: DT_FLOAT
        type: DT_FLOAT
      }
    }
  }
  attr {
    key: "slack_period"
    value {
      i: 0
    }
  }
}
node {
  name: "OneShotIterator"
  op: "OneShotIterator"
  device: "/device:CPU:0"
  attr {
    key: "_output_shapes"
    value {
      list {
        shape {
        }
      }
    }
  }
  attr {
    key: "container"
    value {
      s: ""
    }
  }
  attr {
    key: "dataset_factory"
    value {
      func {
        name: "_make_dataset_lBp6ShTBAu8"
      }
    }
  }
  attr {
    key: "output_shapes"
    value {
      list {
        shape {
          dim {
            size: -1
          }
        }
        shape {
          dim {
            size: -1
          }
        }
        shape {
        }
        shape {
        }
        shape {
        }
        shape {
          dim {
            size: -1
          }
        }
        shape {
          dim {
            size: -1
          }
        }
        shape {
          dim {
            size: -1
          }
        }
        shape {
          dim {
            size: -1
          }
        }
      }
    }
  }
  attr {
    key: "output_types"
    value {
      list {
        type: DT_FLOAT
        type: DT_INT64
        type: DT_INT64
        type: DT_INT64
        type: DT_INT64
        type: DT_INT64
        type: DT_INT64
        type: DT_FLOAT
        type: DT_FLOAT
      }
    }
  }
  attr {
    key: "shared_name"
    value {
      s: ""
    }
  }
}
node {
  name: "IteratorToStringHandle"
  op: "IteratorToStringHandle"
  input: "OneShotIterator"
  device: "/device:CPU:0"
  attr {
    key: "_output_shapes"
    value {
      list {
        shape {
        }
      }
    }
  }
}
node {
  name: "transformation_func/IteratorGetNext"
  op: "IteratorGetNext"
  input: "OneShotIterator"
  device: "/device:CPU:0"
  attr {
    key: "_output_shapes"
    value {
      list {
        shape {
          dim {
            size: -1
          }
        }
        shape {
          dim {
            size: -1
          }
        }
        shape {
        }
        shape {
        }
        shape {
        }
        shape {
          dim {
            size: -1
          }
        }
        shape {
          dim {
            size: -1
          }
        }
        shape {
          dim {
            size: -1
          }
        }
        shape {
          dim {
            size: -1
          }
        }
      }
    }
  }
  attr {
    key: "output_shapes"
    value {
      list {
        shape {
          dim {
            size: -1
          }
        }
        shape {
          dim {
            size: -1
          }
        }
        shape {
        }
        shape {
        }
        shape {
        }
        shape {
          dim {
            size: -1
          }
        }
        shape {
          dim {
            size: -1
          }
        }
        shape {
          dim {
            size: -1
          }
        }
        shape {
          dim {
            size: -1
          }
        }
      }
    }
  }
  attr {
    key: "output_types"
    value {
      list {
        type: DT_FLOAT
        type: DT_INT64
        type: DT_INT64
        type: DT_INT64
        type: DT_INT64
        type: DT_INT64
        type: DT_INT64
        type: DT_FLOAT
        type: DT_FLOAT
      }
    }
  }
}
node {
  name: "transformation_func/IteratorGetNext_1"
  op: "IteratorGetNext"
  input: "OneShotIterator"
  device: "/device:CPU:0"
  attr {
    key: "_output_shapes"
    value {
      list {
        shape {
          dim {
            size: -1
          }
        }
        shape {
          dim {
            size: -1
          }
        }
        shape {
        }
        shape {
        }
        shape {
        }
        shape {
          dim {
            size: -1
          }
        }
        shape {
          dim {
            size: -1
          }
        }
        shape {
          dim {
            size: -1
          }
        }
        shape {
          dim {
            size: -1
          }
        }
      }
    }
  }
  attr {
    key: "output_shapes"
    value {
      list {
        shape {
          dim {
            size: -1
          }
        }
        shape {
          dim {
            size: -1
          }
        }
        shape {
        }
        shape {
        }
        shape {
        }
        shape {
          dim {
            size: -1
          }
        }
        shape {
          dim {
            size: -1
          }
        }
        shape {
          dim {
            size: -1
          }
        }
        shape {
          dim {
            size: -1
          }
        }
      }
    }
  }
  attr {
    key: "output_types"
    value {
      list {
        type: DT_FLOAT
        type: DT_INT64
        type: DT_INT64
        type: DT_INT64
        type: DT_INT64
        type: DT_INT64
        type: DT_INT64
        type: DT_FLOAT
        type: DT_FLOAT
      }
    }
  }
}
node {
  name: "transformation_func/IteratorGetNext_2"
  op: "IteratorGetNext"
  input: "OneShotIterator"
  device: "/device:CPU:0"
  attr {
    key: "_output_shapes"
    value {
      list {
        shape {
          dim {
            size: -1
          }
        }
        shape {
          dim {
            size: -1
          }
        }
        shape {
        }
        shape {
        }
        shape {
        }
        shape {
          dim {
            size: -1
          }
        }
        shape {
          dim {
            size: -1
          }
        }
        shape {
          dim {
            size: -1
          }
        }
        shape {
          dim {
            size: -1
          }
        }
      }
    }
  }
  attr {
    key: "output_shapes"
    value {
      list {
        shape {
          dim {
            size: -1
          }
        }
        shape {
          dim {
            size: -1
          }
        }
        shape {
        }
        shape {
        }
        shape {
        }
        shape {
          dim {
            size: -1
          }
        }
        shape {
          dim {
            size: -1
          }
        }
        shape {
          dim {
            size: -1
          }
        }
        shape {
          dim {
            size: -1
          }
        }
      }
    }
  }
  attr {
    key: "output_types"
    value {
      list {
        type: DT_FLOAT
        type: DT_INT64
        type: DT_INT64
        type: DT_INT64
        type: DT_INT64
        type: DT_INT64
        type: DT_INT64
        type: DT_FLOAT
        type: DT_FLOAT
      }
    }
  }
}
node {
  name: "transformation_func/IteratorGetNext_3"
  op: "IteratorGetNext"
  input: "OneShotIterator"
  device: "/device:CPU:0"
  attr {
    key: "_output_shapes"
    value {
      list {
        shape {
          dim {
            size: -1
          }
        }
        shape {
          dim {
            size: -1
          }
        }
        shape {
        }
        shape {
        }
        shape {
        }
        shape {
          dim {
            size: -1
          }
        }
        shape {
          dim {
            size: -1
          }
        }
        shape {
          dim {
            size: -1
          }
        }
        shape {
          dim {
            size: -1
          }
        }
      }
    }
  }
  attr {
    key: "output_shapes"
    value {
      list {
        shape {
          dim {
            size: -1
          }
        }
        shape {
          dim {
            size: -1
          }
        }
        shape {
        }
        shape {
        }
        shape {
        }
        shape {
          dim {
            size: -1
          }
        }
        shape {
          dim {
            size: -1
          }
        }
        shape {
          dim {
            size: -1
          }
        }
        shape {
          dim {
            size: -1
          }
        }
      }
    }
  }
  attr {
    key: "output_types"
    value {
      list {
        type: DT_FLOAT
        type: DT_INT64
        type: DT_INT64
        type: DT_INT64
        type: DT_INT64
        type: DT_INT64
        type: DT_INT64
        type: DT_FLOAT
        type: DT_FLOAT
      }
    }
  }
}
node {
  name: "transformation_func/IteratorGetNext_4"
  op: "IteratorGetNext"
  input: "OneShotIterator"
  device: "/device:CPU:0"
  attr {
    key: "_output_shapes"
    value {
      list {
        shape {
          dim {
            size: -1
          }
        }
        shape {
          dim {
            size: -1
          }
        }
        shape {
        }
        shape {
        }
        shape {
        }
        shape {
          dim {
            size: -1
          }
        }
        shape {
          dim {
            size: -1
          }
        }
        shape {
          dim {
            size: -1
          }
        }
        shape {
          dim {
            size: -1
          }
        }
      }
    }
  }
  attr {
    key: "output_shapes"
    value {
      list {
        shape {
          dim {
            size: -1
          }
        }
        shape {
          dim {
            size: -1
          }
        }
        shape {
        }
        shape {
        }
        shape {
        }
        shape {
          dim {
            size: -1
          }
        }
        shape {
          dim {
            size: -1
          }
        }
        shape {
          dim {
            size: -1
          }
        }
        shape {
          dim {
            size: -1
          }
        }
      }
    }
  }
  attr {
    key: "output_types"
    value {
      list {
        type: DT_FLOAT
        type: DT_INT64
        type: DT_INT64
        type: DT_INT64
        type: DT_INT64
        type: DT_INT64
        type: DT_INT64
        type: DT_FLOAT
        type: DT_FLOAT
      }
    }
  }
}
node {
  name: "transformation_func/IteratorGetNext_5"
  op: "IteratorGetNext"
  input: "OneShotIterator"
  device: "/device:CPU:0"
  attr {
    key: "_output_shapes"
    value {
      list {
        shape {
          dim {
            size: -1
          }
        }
        shape {
          dim {
            size: -1
          }
        }
        shape {
        }
        shape {
        }
        shape {
        }
        shape {
          dim {
            size: -1
          }
        }
        shape {
          dim {
            size: -1
          }
        }
        shape {
          dim {
            size: -1
          }
        }
        shape {
          dim {
            size: -1
          }
        }
      }
    }
  }
  attr {
    key: "output_shapes"
    value {
      list {
        shape {
          dim {
            size: -1
          }
        }
        shape {
          dim {
            size: -1
          }
        }
        shape {
        }
        shape {
        }
        shape {
        }
        shape {
          dim {
            size: -1
          }
        }
        shape {
          dim {
            size: -1
          }
        }
        shape {
          dim {
            size: -1
          }
        }
        shape {
          dim {
            size: -1
          }
        }
      }
    }
  }
  attr {
    key: "output_types"
    value {
      list {
        type: DT_FLOAT
        type: DT_INT64
        type: DT_INT64
        type: DT_INT64
        type: DT_INT64
        type: DT_INT64
        type: DT_INT64
        type: DT_FLOAT
        type: DT_FLOAT
      }
    }
  }
}
node {
  name: "transformation_func/IteratorGetNext_6"
  op: "IteratorGetNext"
  input: "OneShotIterator"
  device: "/device:CPU:0"
  attr {
    key: "_output_shapes"
    value {
      list {
        shape {
          dim {
            size: -1
          }
        }
        shape {
          dim {
            size: -1
          }
        }
        shape {
        }
        shape {
        }
        shape {
        }
        shape {
          dim {
            size: -1
          }
        }
        shape {
          dim {
            size: -1
          }
        }
        shape {
          dim {
            size: -1
          }
        }
        shape {
          dim {
            size: -1
          }
        }
      }
    }
  }
  attr {
    key: "output_shapes"
    value {
      list {
        shape {
          dim {
            size: -1
          }
        }
        shape {
          dim {
            size: -1
          }
        }
        shape {
        }
        shape {
        }
        shape {
        }
        shape {
          dim {
            size: -1
          }
        }
        shape {
          dim {
            size: -1
          }
        }
        shape {
          dim {
            size: -1
          }
        }
        shape {
          dim {
            size: -1
          }
        }
      }
    }
  }
  attr {
    key: "output_types"
    value {
      list {
        type: DT_FLOAT
        type: DT_INT64
        type: DT_INT64
        type: DT_INT64
        type: DT_INT64
        type: DT_INT64
        type: DT_INT64
        type: DT_FLOAT
        type: DT_FLOAT
      }
    }
  }
}
node {
  name: "transformation_func/IteratorGetNext_7"
  op: "IteratorGetNext"
  input: "OneShotIterator"
  device: "/device:CPU:0"
  attr {
    key: "_output_shapes"
    value {
      list {
        shape {
          dim {
            size: -1
          }
        }
        shape {
          dim {
            size: -1
          }
        }
        shape {
        }
        shape {
        }
        shape {
        }
        shape {
          dim {
            size: -1
          }
        }
        shape {
          dim {
            size: -1
          }
        }
        shape {
          dim {
            size: -1
          }
        }
        shape {
          dim {
            size: -1
          }
        }
      }
    }
  }
  attr {
    key: "output_shapes"
    value {
      list {
        shape {
          dim {
            size: -1
          }
        }
        shape {
          dim {
            size: -1
          }
        }
        shape {
        }
        shape {
        }
        shape {
        }
        shape {
          dim {
            size: -1
          }
        }
        shape {
          dim {
            size: -1
          }
        }
        shape {
          dim {
            size: -1
          }
        }
        shape {
          dim {
            size: -1
          }
        }
      }
    }
  }
  attr {
    key: "output_types"
    value {
      list {
        type: DT_FLOAT
        type: DT_INT64
        type: DT_INT64
        type: DT_INT64
        type: DT_INT64
        type: DT_INT64
        type: DT_INT64
        type: DT_FLOAT
        type: DT_FLOAT
      }
    }
  }
}
node {
  name: "transformation_func/cummax/Const"
  op: "Const"
  device: "/device:CPU:0"
  attr {
    key: "_output_shapes"
    value {
      list {
        shape {
          dim {
            size: 1
          }
        }
      }
    }
  }
  attr {
    key: "dtype"
    value {
      type: DT_INT32
    }
  }
  attr {
    key: "value"
    value {
      tensor {
        dtype: DT_INT32
        tensor_shape {
          dim {
            size: 1
          }
        }
        int_val: 0
      }
    }
  }
}
node {
  name: "transformation_func/cummax/Max"
  op: "Max"
  input: "transformation_func/IteratorGetNext:1"
  input: "transformation_func/cummax/Const"
  device: "/device:CPU:0"
  attr {
    key: "T"
    value {
      type: DT_INT64
    }
  }
  attr {
    key: "Tidx"
    value {
      type: DT_INT32
    }
  }
  attr {
    key: "_output_shapes"
    value {
      list {
        shape {
        }
      }
    }
  }
  attr {
    key: "keep_dims"
    value {
      b: false
    }
  }
}
node {
  name: "transformation_func/cummax/add/y"
  op: "Const"
  device: "/device:CPU:0"
  attr {
    key: "_output_shapes"
    value {
      list {
        shape {
        }
      }
    }
  }
  attr {
    key: "dtype"
    value {
      type: DT_INT64
    }
  }
  attr {
    key: "value"
    value {
      tensor {
        dtype: DT_INT64
        tensor_shape {
        }
        int64_val: 1
      }
    }
  }
}
node {
  name: "transformation_func/cummax/add"
  op: "Add"
  input: "transformation_func/cummax/Max"
  input: "transformation_func/cummax/add/y"
  device: "/device:CPU:0"
  attr {
    key: "T"
    value {
      type: DT_INT64
    }
  }
  attr {
    key: "_output_shapes"
    value {
      list {
        shape {
        }
      }
    }
  }
}
node {
  name: "transformation_func/cummax/Const_1"
  op: "Const"
  device: "/device:CPU:0"
  attr {
    key: "_output_shapes"
    value {
      list {
        shape {
          dim {
            size: 1
          }
        }
      }
    }
  }
  attr {
    key: "dtype"
    value {
      type: DT_INT32
    }
  }
  attr {
    key: "value"
    value {
      tensor {
        dtype: DT_INT32
        tensor_shape {
          dim {
            size: 1
          }
        }
        int_val: 0
      }
    }
  }
}
node {
  name: "transformation_func/cummax/Max_1"
  op: "Max"
  input: "transformation_func/IteratorGetNext_1:1"
  input: "transformation_func/cummax/Const_1"
  device: "/device:CPU:0"
  attr {
    key: "T"
    value {
      type: DT_INT64
    }
  }
  attr {
    key: "Tidx"
    value {
      type: DT_INT32
    }
  }
  attr {
    key: "_output_shapes"
    value {
      list {
        shape {
        }
      }
    }
  }
  attr {
    key: "keep_dims"
    value {
      b: false
    }
  }
}
node {
  name: "transformation_func/cummax/add_1/y"
  op: "Const"
  device: "/device:CPU:0"
  attr {
    key: "_output_shapes"
    value {
      list {
        shape {
        }
      }
    }
  }
  attr {
    key: "dtype"
    value {
      type: DT_INT64
    }
  }
  attr {
    key: "value"
    value {
      tensor {
        dtype: DT_INT64
        tensor_shape {
        }
        int64_val: 1
      }
    }
  }
}
node {
  name: "transformation_func/cummax/add_1"
  op: "Add"
  input: "transformation_func/cummax/Max_1"
  input: "transformation_func/cummax/add_1/y"
  device: "/device:CPU:0"
  attr {
    key: "T"
    value {
      type: DT_INT64
    }
  }
  attr {
    key: "_output_shapes"
    value {
      list {
        shape {
        }
      }
    }
  }
}
node {
  name: "transformation_func/cummax/Const_2"
  op: "Const"
  device: "/device:CPU:0"
  attr {
    key: "_output_shapes"
    value {
      list {
        shape {
          dim {
            size: 1
          }
        }
      }
    }
  }
  attr {
    key: "dtype"
    value {
      type: DT_INT32
    }
  }
  attr {
    key: "value"
    value {
      tensor {
        dtype: DT_INT32
        tensor_shape {
          dim {
            size: 1
          }
        }
        int_val: 0
      }
    }
  }
}
node {
  name: "transformation_func/cummax/Max_2"
  op: "Max"
  input: "transformation_func/IteratorGetNext_2:1"
  input: "transformation_func/cummax/Const_2"
  device: "/device:CPU:0"
  attr {
    key: "T"
    value {
      type: DT_INT64
    }
  }
  attr {
    key: "Tidx"
    value {
      type: DT_INT32
    }
  }
  attr {
    key: "_output_shapes"
    value {
      list {
        shape {
        }
      }
    }
  }
  attr {
    key: "keep_dims"
    value {
      b: false
    }
  }
}
node {
  name: "transformation_func/cummax/add_2/y"
  op: "Const"
  device: "/device:CPU:0"
  attr {
    key: "_output_shapes"
    value {
      list {
        shape {
        }
      }
    }
  }
  attr {
    key: "dtype"
    value {
      type: DT_INT64
    }
  }
  attr {
    key: "value"
    value {
      tensor {
        dtype: DT_INT64
        tensor_shape {
        }
        int64_val: 1
      }
    }
  }
}
node {
  name: "transformation_func/cummax/add_2"
  op: "Add"
  input: "transformation_func/cummax/Max_2"
  input: "transformation_func/cummax/add_2/y"
  device: "/device:CPU:0"
  attr {
    key: "T"
    value {
      type: DT_INT64
    }
  }
  attr {
    key: "_output_shapes"
    value {
      list {
        shape {
        }
      }
    }
  }
}
node {
  name: "transformation_func/cummax/Const_3"
  op: "Const"
  device: "/device:CPU:0"
  attr {
    key: "_output_shapes"
    value {
      list {
        shape {
          dim {
            size: 1
          }
        }
      }
    }
  }
  attr {
    key: "dtype"
    value {
      type: DT_INT32
    }
  }
  attr {
    key: "value"
    value {
      tensor {
        dtype: DT_INT32
        tensor_shape {
          dim {
            size: 1
          }
        }
        int_val: 0
      }
    }
  }
}
node {
  name: "transformation_func/cummax/Max_3"
  op: "Max"
  input: "transformation_func/IteratorGetNext_3:1"
  input: "transformation_func/cummax/Const_3"
  device: "/device:CPU:0"
  attr {
    key: "T"
    value {
      type: DT_INT64
    }
  }
  attr {
    key: "Tidx"
    value {
      type: DT_INT32
    }
  }
  attr {
    key: "_output_shapes"
    value {
      list {
        shape {
        }
      }
    }
  }
  attr {
    key: "keep_dims"
    value {
      b: false
    }
  }
}
node {
  name: "transformation_func/cummax/add_3/y"
  op: "Const"
  device: "/device:CPU:0"
  attr {
    key: "_output_shapes"
    value {
      list {
        shape {
        }
      }
    }
  }
  attr {
    key: "dtype"
    value {
      type: DT_INT64
    }
  }
  attr {
    key: "value"
    value {
      tensor {
        dtype: DT_INT64
        tensor_shape {
        }
        int64_val: 1
      }
    }
  }
}
node {
  name: "transformation_func/cummax/add_3"
  op: "Add"
  input: "transformation_func/cummax/Max_3"
  input: "transformation_func/cummax/add_3/y"
  device: "/device:CPU:0"
  attr {
    key: "T"
    value {
      type: DT_INT64
    }
  }
  attr {
    key: "_output_shapes"
    value {
      list {
        shape {
        }
      }
    }
  }
}
node {
  name: "transformation_func/cummax/Const_4"
  op: "Const"
  device: "/device:CPU:0"
  attr {
    key: "_output_shapes"
    value {
      list {
        shape {
          dim {
            size: 1
          }
        }
      }
    }
  }
  attr {
    key: "dtype"
    value {
      type: DT_INT32
    }
  }
  attr {
    key: "value"
    value {
      tensor {
        dtype: DT_INT32
        tensor_shape {
          dim {
            size: 1
          }
        }
        int_val: 0
      }
    }
  }
}
node {
  name: "transformation_func/cummax/Max_4"
  op: "Max"
  input: "transformation_func/IteratorGetNext_4:1"
  input: "transformation_func/cummax/Const_4"
  device: "/device:CPU:0"
  attr {
    key: "T"
    value {
      type: DT_INT64
    }
  }
  attr {
    key: "Tidx"
    value {
      type: DT_INT32
    }
  }
  attr {
    key: "_output_shapes"
    value {
      list {
        shape {
        }
      }
    }
  }
  attr {
    key: "keep_dims"
    value {
      b: false
    }
  }
}
node {
  name: "transformation_func/cummax/add_4/y"
  op: "Const"
  device: "/device:CPU:0"
  attr {
    key: "_output_shapes"
    value {
      list {
        shape {
        }
      }
    }
  }
  attr {
    key: "dtype"
    value {
      type: DT_INT64
    }
  }
  attr {
    key: "value"
    value {
      tensor {
        dtype: DT_INT64
        tensor_shape {
        }
        int64_val: 1
      }
    }
  }
}
node {
  name: "transformation_func/cummax/add_4"
  op: "Add"
  input: "transformation_func/cummax/Max_4"
  input: "transformation_func/cummax/add_4/y"
  device: "/device:CPU:0"
  attr {
    key: "T"
    value {
      type: DT_INT64
    }
  }
  attr {
    key: "_output_shapes"
    value {
      list {
        shape {
        }
      }
    }
  }
}
node {
  name: "transformation_func/cummax/Const_5"
  op: "Const"
  device: "/device:CPU:0"
  attr {
    key: "_output_shapes"
    value {
      list {
        shape {
          dim {
            size: 1
          }
        }
      }
    }
  }
  attr {
    key: "dtype"
    value {
      type: DT_INT32
    }
  }
  attr {
    key: "value"
    value {
      tensor {
        dtype: DT_INT32
        tensor_shape {
          dim {
            size: 1
          }
        }
        int_val: 0
      }
    }
  }
}
node {
  name: "transformation_func/cummax/Max_5"
  op: "Max"
  input: "transformation_func/IteratorGetNext_5:1"
  input: "transformation_func/cummax/Const_5"
  device: "/device:CPU:0"
  attr {
    key: "T"
    value {
      type: DT_INT64
    }
  }
  attr {
    key: "Tidx"
    value {
      type: DT_INT32
    }
  }
  attr {
    key: "_output_shapes"
    value {
      list {
        shape {
        }
      }
    }
  }
  attr {
    key: "keep_dims"
    value {
      b: false
    }
  }
}
node {
  name: "transformation_func/cummax/add_5/y"
  op: "Const"
  device: "/device:CPU:0"
  attr {
    key: "_output_shapes"
    value {
      list {
        shape {
        }
      }
    }
  }
  attr {
    key: "dtype"
    value {
      type: DT_INT64
    }
  }
  attr {
    key: "value"
    value {
      tensor {
        dtype: DT_INT64
        tensor_shape {
        }
        int64_val: 1
      }
    }
  }
}
node {
  name: "transformation_func/cummax/add_5"
  op: "Add"
  input: "transformation_func/cummax/Max_5"
  input: "transformation_func/cummax/add_5/y"
  device: "/device:CPU:0"
  attr {
    key: "T"
    value {
      type: DT_INT64
    }
  }
  attr {
    key: "_output_shapes"
    value {
      list {
        shape {
        }
      }
    }
  }
}
node {
  name: "transformation_func/cummax/Const_6"
  op: "Const"
  device: "/device:CPU:0"
  attr {
    key: "_output_shapes"
    value {
      list {
        shape {
          dim {
            size: 1
          }
        }
      }
    }
  }
  attr {
    key: "dtype"
    value {
      type: DT_INT32
    }
  }
  attr {
    key: "value"
    value {
      tensor {
        dtype: DT_INT32
        tensor_shape {
          dim {
            size: 1
          }
        }
        int_val: 0
      }
    }
  }
}
node {
  name: "transformation_func/cummax/Max_6"
  op: "Max"
  input: "transformation_func/IteratorGetNext_6:1"
  input: "transformation_func/cummax/Const_6"
  device: "/device:CPU:0"
  attr {
    key: "T"
    value {
      type: DT_INT64
    }
  }
  attr {
    key: "Tidx"
    value {
      type: DT_INT32
    }
  }
  attr {
    key: "_output_shapes"
    value {
      list {
        shape {
        }
      }
    }
  }
  attr {
    key: "keep_dims"
    value {
      b: false
    }
  }
}
node {
  name: "transformation_func/cummax/add_6/y"
  op: "Const"
  device: "/device:CPU:0"
  attr {
    key: "_output_shapes"
    value {
      list {
        shape {
        }
      }
    }
  }
  attr {
    key: "dtype"
    value {
      type: DT_INT64
    }
  }
  attr {
    key: "value"
    value {
      tensor {
        dtype: DT_INT64
        tensor_shape {
        }
        int64_val: 1
      }
    }
  }
}
node {
  name: "transformation_func/cummax/add_6"
  op: "Add"
  input: "transformation_func/cummax/Max_6"
  input: "transformation_func/cummax/add_6/y"
  device: "/device:CPU:0"
  attr {
    key: "T"
    value {
      type: DT_INT64
    }
  }
  attr {
    key: "_output_shapes"
    value {
      list {
        shape {
        }
      }
    }
  }
}
node {
  name: "transformation_func/cummax/Const_7"
  op: "Const"
  device: "/device:CPU:0"
  attr {
    key: "_output_shapes"
    value {
      list {
        shape {
          dim {
            size: 1
          }
        }
      }
    }
  }
  attr {
    key: "dtype"
    value {
      type: DT_INT32
    }
  }
  attr {
    key: "value"
    value {
      tensor {
        dtype: DT_INT32
        tensor_shape {
          dim {
            size: 1
          }
        }
        int_val: 0
      }
    }
  }
}
node {
  name: "transformation_func/cummax/Max_7"
  op: "Max"
  input: "transformation_func/IteratorGetNext_7:1"
  input: "transformation_func/cummax/Const_7"
  device: "/device:CPU:0"
  attr {
    key: "T"
    value {
      type: DT_INT64
    }
  }
  attr {
    key: "Tidx"
    value {
      type: DT_INT32
    }
  }
  attr {
    key: "_output_shapes"
    value {
      list {
        shape {
        }
      }
    }
  }
  attr {
    key: "keep_dims"
    value {
      b: false
    }
  }
}
node {
  name: "transformation_func/cummax/add_7/y"
  op: "Const"
  device: "/device:CPU:0"
  attr {
    key: "_output_shapes"
    value {
      list {
        shape {
        }
      }
    }
  }
  attr {
    key: "dtype"
    value {
      type: DT_INT64
    }
  }
  attr {
    key: "value"
    value {
      tensor {
        dtype: DT_INT64
        tensor_shape {
        }
        int64_val: 1
      }
    }
  }
}
node {
  name: "transformation_func/cummax/add_7"
  op: "Add"
  input: "transformation_func/cummax/Max_7"
  input: "transformation_func/cummax/add_7/y"
  device: "/device:CPU:0"
  attr {
    key: "T"
    value {
      type: DT_INT64
    }
  }
  attr {
    key: "_output_shapes"
    value {
      list {
        shape {
        }
      }
    }
  }
}
node {
  name: "transformation_func/cummax/zeros_like"
  op: "Const"
  device: "/device:CPU:0"
  attr {
    key: "_output_shapes"
    value {
      list {
        shape {
        }
      }
    }
  }
  attr {
    key: "dtype"
    value {
      type: DT_INT64
    }
  }
  attr {
    key: "value"
    value {
      tensor {
        dtype: DT_INT64
        tensor_shape {
        }
        int64_val: 0
      }
    }
  }
}
node {
  name: "transformation_func/cummax/AddN"
  op: "AddN"
  input: "transformation_func/cummax/add"
  input: "transformation_func/cummax/add_1"
  device: "/device:CPU:0"
  attr {
    key: "N"
    value {
      i: 2
    }
  }
  attr {
    key: "T"
    value {
      type: DT_INT64
    }
  }
  attr {
    key: "_output_shapes"
    value {
      list {
        shape {
        }
      }
    }
  }
}
node {
  name: "transformation_func/cummax/AddN_1"
  op: "AddN"
  input: "transformation_func/cummax/add"
  input: "transformation_func/cummax/add_1"
  input: "transformation_func/cummax/add_2"
  device: "/device:CPU:0"
  attr {
    key: "N"
    value {
      i: 3
    }
  }
  attr {
    key: "T"
    value {
      type: DT_INT64
    }
  }
  attr {
    key: "_output_shapes"
    value {
      list {
        shape {
        }
      }
    }
  }
}
node {
  name: "transformation_func/cummax/AddN_2"
  op: "AddN"
  input: "transformation_func/cummax/add"
  input: "transformation_func/cummax/add_1"
  input: "transformation_func/cummax/add_2"
  input: "transformation_func/cummax/add_3"
  device: "/device:CPU:0"
  attr {
    key: "N"
    value {
      i: 4
    }
  }
  attr {
    key: "T"
    value {
      type: DT_INT64
    }
  }
  attr {
    key: "_output_shapes"
    value {
      list {
        shape {
        }
      }
    }
  }
}
node {
  name: "transformation_func/cummax/AddN_3"
  op: "AddN"
  input: "transformation_func/cummax/add"
  input: "transformation_func/cummax/add_1"
  input: "transformation_func/cummax/add_2"
  input: "transformation_func/cummax/add_3"
  input: "transformation_func/cummax/add_4"
  device: "/device:CPU:0"
  attr {
    key: "N"
    value {
      i: 5
    }
  }
  attr {
    key: "T"
    value {
      type: DT_INT64
    }
  }
  attr {
    key: "_output_shapes"
    value {
      list {
        shape {
        }
      }
    }
  }
}
node {
  name: "transformation_func/cummax/AddN_4"
  op: "AddN"
  input: "transformation_func/cummax/add"
  input: "transformation_func/cummax/add_1"
  input: "transformation_func/cummax/add_2"
  input: "transformation_func/cummax/add_3"
  input: "transformation_func/cummax/add_4"
  input: "transformation_func/cummax/add_5"
  device: "/device:CPU:0"
  attr {
    key: "N"
    value {
      i: 6
    }
  }
  attr {
    key: "T"
    value {
      type: DT_INT64
    }
  }
  attr {
    key: "_output_shapes"
    value {
      list {
        shape {
        }
      }
    }
  }
}
node {
  name: "transformation_func/cummax/AddN_5"
  op: "AddN"
  input: "transformation_func/cummax/add"
  input: "transformation_func/cummax/add_1"
  input: "transformation_func/cummax/add_2"
  input: "transformation_func/cummax/add_3"
  input: "transformation_func/cummax/add_4"
  input: "transformation_func/cummax/add_5"
  input: "transformation_func/cummax/add_6"
  device: "/device:CPU:0"
  attr {
    key: "N"
    value {
      i: 7
    }
  }
  attr {
    key: "T"
    value {
      type: DT_INT64
    }
  }
  attr {
    key: "_output_shapes"
    value {
      list {
        shape {
        }
      }
    }
  }
}
node {
  name: "transformation_func/cummax_1/Const"
  op: "Const"
  device: "/device:CPU:0"
  attr {
    key: "_output_shapes"
    value {
      list {
        shape {
          dim {
            size: 1
          }
        }
      }
    }
  }
  attr {
    key: "dtype"
    value {
      type: DT_INT32
    }
  }
  attr {
    key: "value"
    value {
      tensor {
        dtype: DT_INT32
        tensor_shape {
          dim {
            size: 1
          }
        }
        int_val: 0
      }
    }
  }
}
node {
  name: "transformation_func/cummax_1/Max"
  op: "Max"
  input: "transformation_func/IteratorGetNext:5"
  input: "transformation_func/cummax_1/Const"
  device: "/device:CPU:0"
  attr {
    key: "T"
    value {
      type: DT_INT64
    }
  }
  attr {
    key: "Tidx"
    value {
      type: DT_INT32
    }
  }
  attr {
    key: "_output_shapes"
    value {
      list {
        shape {
        }
      }
    }
  }
  attr {
    key: "keep_dims"
    value {
      b: false
    }
  }
}
node {
  name: "transformation_func/cummax_1/add/y"
  op: "Const"
  device: "/device:CPU:0"
  attr {
    key: "_output_shapes"
    value {
      list {
        shape {
        }
      }
    }
  }
  attr {
    key: "dtype"
    value {
      type: DT_INT64
    }
  }
  attr {
    key: "value"
    value {
      tensor {
        dtype: DT_INT64
        tensor_shape {
        }
        int64_val: 1
      }
    }
  }
}
node {
  name: "transformation_func/cummax_1/add"
  op: "Add"
  input: "transformation_func/cummax_1/Max"
  input: "transformation_func/cummax_1/add/y"
  device: "/device:CPU:0"
  attr {
    key: "T"
    value {
      type: DT_INT64
    }
  }
  attr {
    key: "_output_shapes"
    value {
      list {
        shape {
        }
      }
    }
  }
}
node {
  name: "transformation_func/cummax_1/Const_1"
  op: "Const"
  device: "/device:CPU:0"
  attr {
    key: "_output_shapes"
    value {
      list {
        shape {
          dim {
            size: 1
          }
        }
      }
    }
  }
  attr {
    key: "dtype"
    value {
      type: DT_INT32
    }
  }
  attr {
    key: "value"
    value {
      tensor {
        dtype: DT_INT32
        tensor_shape {
          dim {
            size: 1
          }
        }
        int_val: 0
      }
    }
  }
}
node {
  name: "transformation_func/cummax_1/Max_1"
  op: "Max"
  input: "transformation_func/IteratorGetNext_1:5"
  input: "transformation_func/cummax_1/Const_1"
  device: "/device:CPU:0"
  attr {
    key: "T"
    value {
      type: DT_INT64
    }
  }
  attr {
    key: "Tidx"
    value {
      type: DT_INT32
    }
  }
  attr {
    key: "_output_shapes"
    value {
      list {
        shape {
        }
      }
    }
  }
  attr {
    key: "keep_dims"
    value {
      b: false
    }
  }
}
node {
  name: "transformation_func/cummax_1/add_1/y"
  op: "Const"
  device: "/device:CPU:0"
  attr {
    key: "_output_shapes"
    value {
      list {
        shape {
        }
      }
    }
  }
  attr {
    key: "dtype"
    value {
      type: DT_INT64
    }
  }
  attr {
    key: "value"
    value {
      tensor {
        dtype: DT_INT64
        tensor_shape {
        }
        int64_val: 1
      }
    }
  }
}
node {
  name: "transformation_func/cummax_1/add_1"
  op: "Add"
  input: "transformation_func/cummax_1/Max_1"
  input: "transformation_func/cummax_1/add_1/y"
  device: "/device:CPU:0"
  attr {
    key: "T"
    value {
      type: DT_INT64
    }
  }
  attr {
    key: "_output_shapes"
    value {
      list {
        shape {
        }
      }
    }
  }
}
node {
  name: "transformation_func/cummax_1/Const_2"
  op: "Const"
  device: "/device:CPU:0"
  attr {
    key: "_output_shapes"
    value {
      list {
        shape {
          dim {
            size: 1
          }
        }
      }
    }
  }
  attr {
    key: "dtype"
    value {
      type: DT_INT32
    }
  }
  attr {
    key: "value"
    value {
      tensor {
        dtype: DT_INT32
        tensor_shape {
          dim {
            size: 1
          }
        }
        int_val: 0
      }
    }
  }
}
node {
  name: "transformation_func/cummax_1/Max_2"
  op: "Max"
  input: "transformation_func/IteratorGetNext_2:5"
  input: "transformation_func/cummax_1/Const_2"
  device: "/device:CPU:0"
  attr {
    key: "T"
    value {
      type: DT_INT64
    }
  }
  attr {
    key: "Tidx"
    value {
      type: DT_INT32
    }
  }
  attr {
    key: "_output_shapes"
    value {
      list {
        shape {
        }
      }
    }
  }
  attr {
    key: "keep_dims"
    value {
      b: false
    }
  }
}
node {
  name: "transformation_func/cummax_1/add_2/y"
  op: "Const"
  device: "/device:CPU:0"
  attr {
    key: "_output_shapes"
    value {
      list {
        shape {
        }
      }
    }
  }
  attr {
    key: "dtype"
    value {
      type: DT_INT64
    }
  }
  attr {
    key: "value"
    value {
      tensor {
        dtype: DT_INT64
        tensor_shape {
        }
        int64_val: 1
      }
    }
  }
}
node {
  name: "transformation_func/cummax_1/add_2"
  op: "Add"
  input: "transformation_func/cummax_1/Max_2"
  input: "transformation_func/cummax_1/add_2/y"
  device: "/device:CPU:0"
  attr {
    key: "T"
    value {
      type: DT_INT64
    }
  }
  attr {
    key: "_output_shapes"
    value {
      list {
        shape {
        }
      }
    }
  }
}
node {
  name: "transformation_func/cummax_1/Const_3"
  op: "Const"
  device: "/device:CPU:0"
  attr {
    key: "_output_shapes"
    value {
      list {
        shape {
          dim {
            size: 1
          }
        }
      }
    }
  }
  attr {
    key: "dtype"
    value {
      type: DT_INT32
    }
  }
  attr {
    key: "value"
    value {
      tensor {
        dtype: DT_INT32
        tensor_shape {
          dim {
            size: 1
          }
        }
        int_val: 0
      }
    }
  }
}
node {
  name: "transformation_func/cummax_1/Max_3"
  op: "Max"
  input: "transformation_func/IteratorGetNext_3:5"
  input: "transformation_func/cummax_1/Const_3"
  device: "/device:CPU:0"
  attr {
    key: "T"
    value {
      type: DT_INT64
    }
  }
  attr {
    key: "Tidx"
    value {
      type: DT_INT32
    }
  }
  attr {
    key: "_output_shapes"
    value {
      list {
        shape {
        }
      }
    }
  }
  attr {
    key: "keep_dims"
    value {
      b: false
    }
  }
}
node {
  name: "transformation_func/cummax_1/add_3/y"
  op: "Const"
  device: "/device:CPU:0"
  attr {
    key: "_output_shapes"
    value {
      list {
        shape {
        }
      }
    }
  }
  attr {
    key: "dtype"
    value {
      type: DT_INT64
    }
  }
  attr {
    key: "value"
    value {
      tensor {
        dtype: DT_INT64
        tensor_shape {
        }
        int64_val: 1
      }
    }
  }
}
node {
  name: "transformation_func/cummax_1/add_3"
  op: "Add"
  input: "transformation_func/cummax_1/Max_3"
  input: "transformation_func/cummax_1/add_3/y"
  device: "/device:CPU:0"
  attr {
    key: "T"
    value {
      type: DT_INT64
    }
  }
  attr {
    key: "_output_shapes"
    value {
      list {
        shape {
        }
      }
    }
  }
}
node {
  name: "transformation_func/cummax_1/Const_4"
  op: "Const"
  device: "/device:CPU:0"
  attr {
    key: "_output_shapes"
    value {
      list {
        shape {
          dim {
            size: 1
          }
        }
      }
    }
  }
  attr {
    key: "dtype"
    value {
      type: DT_INT32
    }
  }
  attr {
    key: "value"
    value {
      tensor {
        dtype: DT_INT32
        tensor_shape {
          dim {
            size: 1
          }
        }
        int_val: 0
      }
    }
  }
}
node {
  name: "transformation_func/cummax_1/Max_4"
  op: "Max"
  input: "transformation_func/IteratorGetNext_4:5"
  input: "transformation_func/cummax_1/Const_4"
  device: "/device:CPU:0"
  attr {
    key: "T"
    value {
      type: DT_INT64
    }
  }
  attr {
    key: "Tidx"
    value {
      type: DT_INT32
    }
  }
  attr {
    key: "_output_shapes"
    value {
      list {
        shape {
        }
      }
    }
  }
  attr {
    key: "keep_dims"
    value {
      b: false
    }
  }
}
node {
  name: "transformation_func/cummax_1/add_4/y"
  op: "Const"
  device: "/device:CPU:0"
  attr {
    key: "_output_shapes"
    value {
      list {
        shape {
        }
      }
    }
  }
  attr {
    key: "dtype"
    value {
      type: DT_INT64
    }
  }
  attr {
    key: "value"
    value {
      tensor {
        dtype: DT_INT64
        tensor_shape {
        }
        int64_val: 1
      }
    }
  }
}
node {
  name: "transformation_func/cummax_1/add_4"
  op: "Add"
  input: "transformation_func/cummax_1/Max_4"
  input: "transformation_func/cummax_1/add_4/y"
  device: "/device:CPU:0"
  attr {
    key: "T"
    value {
      type: DT_INT64
    }
  }
  attr {
    key: "_output_shapes"
    value {
      list {
        shape {
        }
      }
    }
  }
}
node {
  name: "transformation_func/cummax_1/Const_5"
  op: "Const"
  device: "/device:CPU:0"
  attr {
    key: "_output_shapes"
    value {
      list {
        shape {
          dim {
            size: 1
          }
        }
      }
    }
  }
  attr {
    key: "dtype"
    value {
      type: DT_INT32
    }
  }
  attr {
    key: "value"
    value {
      tensor {
        dtype: DT_INT32
        tensor_shape {
          dim {
            size: 1
          }
        }
        int_val: 0
      }
    }
  }
}
node {
  name: "transformation_func/cummax_1/Max_5"
  op: "Max"
  input: "transformation_func/IteratorGetNext_5:5"
  input: "transformation_func/cummax_1/Const_5"
  device: "/device:CPU:0"
  attr {
    key: "T"
    value {
      type: DT_INT64
    }
  }
  attr {
    key: "Tidx"
    value {
      type: DT_INT32
    }
  }
  attr {
    key: "_output_shapes"
    value {
      list {
        shape {
        }
      }
    }
  }
  attr {
    key: "keep_dims"
    value {
      b: false
    }
  }
}
node {
  name: "transformation_func/cummax_1/add_5/y"
  op: "Const"
  device: "/device:CPU:0"
  attr {
    key: "_output_shapes"
    value {
      list {
        shape {
        }
      }
    }
  }
  attr {
    key: "dtype"
    value {
      type: DT_INT64
    }
  }
  attr {
    key: "value"
    value {
      tensor {
        dtype: DT_INT64
        tensor_shape {
        }
        int64_val: 1
      }
    }
  }
}
node {
  name: "transformation_func/cummax_1/add_5"
  op: "Add"
  input: "transformation_func/cummax_1/Max_5"
  input: "transformation_func/cummax_1/add_5/y"
  device: "/device:CPU:0"
  attr {
    key: "T"
    value {
      type: DT_INT64
    }
  }
  attr {
    key: "_output_shapes"
    value {
      list {
        shape {
        }
      }
    }
  }
}
node {
  name: "transformation_func/cummax_1/Const_6"
  op: "Const"
  device: "/device:CPU:0"
  attr {
    key: "_output_shapes"
    value {
      list {
        shape {
          dim {
            size: 1
          }
        }
      }
    }
  }
  attr {
    key: "dtype"
    value {
      type: DT_INT32
    }
  }
  attr {
    key: "value"
    value {
      tensor {
        dtype: DT_INT32
        tensor_shape {
          dim {
            size: 1
          }
        }
        int_val: 0
      }
    }
  }
}
node {
  name: "transformation_func/cummax_1/Max_6"
  op: "Max"
  input: "transformation_func/IteratorGetNext_6:5"
  input: "transformation_func/cummax_1/Const_6"
  device: "/device:CPU:0"
  attr {
    key: "T"
    value {
      type: DT_INT64
    }
  }
  attr {
    key: "Tidx"
    value {
      type: DT_INT32
    }
  }
  attr {
    key: "_output_shapes"
    value {
      list {
        shape {
        }
      }
    }
  }
  attr {
    key: "keep_dims"
    value {
      b: false
    }
  }
}
node {
  name: "transformation_func/cummax_1/add_6/y"
  op: "Const"
  device: "/device:CPU:0"
  attr {
    key: "_output_shapes"
    value {
      list {
        shape {
        }
      }
    }
  }
  attr {
    key: "dtype"
    value {
      type: DT_INT64
    }
  }
  attr {
    key: "value"
    value {
      tensor {
        dtype: DT_INT64
        tensor_shape {
        }
        int64_val: 1
      }
    }
  }
}
node {
  name: "transformation_func/cummax_1/add_6"
  op: "Add"
  input: "transformation_func/cummax_1/Max_6"
  input: "transformation_func/cummax_1/add_6/y"
  device: "/device:CPU:0"
  attr {
    key: "T"
    value {
      type: DT_INT64
    }
  }
  attr {
    key: "_output_shapes"
    value {
      list {
        shape {
        }
      }
    }
  }
}
node {
  name: "transformation_func/cummax_1/Const_7"
  op: "Const"
  device: "/device:CPU:0"
  attr {
    key: "_output_shapes"
    value {
      list {
        shape {
          dim {
            size: 1
          }
        }
      }
    }
  }
  attr {
    key: "dtype"
    value {
      type: DT_INT32
    }
  }
  attr {
    key: "value"
    value {
      tensor {
        dtype: DT_INT32
        tensor_shape {
          dim {
            size: 1
          }
        }
        int_val: 0
      }
    }
  }
}
node {
  name: "transformation_func/cummax_1/Max_7"
  op: "Max"
  input: "transformation_func/IteratorGetNext_7:5"
  input: "transformation_func/cummax_1/Const_7"
  device: "/device:CPU:0"
  attr {
    key: "T"
    value {
      type: DT_INT64
    }
  }
  attr {
    key: "Tidx"
    value {
      type: DT_INT32
    }
  }
  attr {
    key: "_output_shapes"
    value {
      list {
        shape {
        }
      }
    }
  }
  attr {
    key: "keep_dims"
    value {
      b: false
    }
  }
}
node {
  name: "transformation_func/cummax_1/add_7/y"
  op: "Const"
  device: "/device:CPU:0"
  attr {
    key: "_output_shapes"
    value {
      list {
        shape {
        }
      }
    }
  }
  attr {
    key: "dtype"
    value {
      type: DT_INT64
    }
  }
  attr {
    key: "value"
    value {
      tensor {
        dtype: DT_INT64
        tensor_shape {
        }
        int64_val: 1
      }
    }
  }
}
node {
  name: "transformation_func/cummax_1/add_7"
  op: "Add"
  input: "transformation_func/cummax_1/Max_7"
  input: "transformation_func/cummax_1/add_7/y"
  device: "/device:CPU:0"
  attr {
    key: "T"
    value {
      type: DT_INT64
    }
  }
  attr {
    key: "_output_shapes"
    value {
      list {
        shape {
        }
      }
    }
  }
}
node {
  name: "transformation_func/cummax_1/zeros_like"
  op: "Const"
  device: "/device:CPU:0"
  attr {
    key: "_output_shapes"
    value {
      list {
        shape {
        }
      }
    }
  }
  attr {
    key: "dtype"
    value {
      type: DT_INT64
    }
  }
  attr {
    key: "value"
    value {
      tensor {
        dtype: DT_INT64
        tensor_shape {
        }
        int64_val: 0
      }
    }
  }
}
node {
  name: "transformation_func/cummax_1/AddN"
  op: "AddN"
  input: "transformation_func/cummax_1/add"
  input: "transformation_func/cummax_1/add_1"
  device: "/device:CPU:0"
  attr {
    key: "N"
    value {
      i: 2
    }
  }
  attr {
    key: "T"
    value {
      type: DT_INT64
    }
  }
  attr {
    key: "_output_shapes"
    value {
      list {
        shape {
        }
      }
    }
  }
}
node {
  name: "transformation_func/cummax_1/AddN_1"
  op: "AddN"
  input: "transformation_func/cummax_1/add"
  input: "transformation_func/cummax_1/add_1"
  input: "transformation_func/cummax_1/add_2"
  device: "/device:CPU:0"
  attr {
    key: "N"
    value {
      i: 3
    }
  }
  attr {
    key: "T"
    value {
      type: DT_INT64
    }
  }
  attr {
    key: "_output_shapes"
    value {
      list {
        shape {
        }
      }
    }
  }
}
node {
  name: "transformation_func/cummax_1/AddN_2"
  op: "AddN"
  input: "transformation_func/cummax_1/add"
  input: "transformation_func/cummax_1/add_1"
  input: "transformation_func/cummax_1/add_2"
  input: "transformation_func/cummax_1/add_3"
  device: "/device:CPU:0"
  attr {
    key: "N"
    value {
      i: 4
    }
  }
  attr {
    key: "T"
    value {
      type: DT_INT64
    }
  }
  attr {
    key: "_output_shapes"
    value {
      list {
        shape {
        }
      }
    }
  }
}
node {
  name: "transformation_func/cummax_1/AddN_3"
  op: "AddN"
  input: "transformation_func/cummax_1/add"
  input: "transformation_func/cummax_1/add_1"
  input: "transformation_func/cummax_1/add_2"
  input: "transformation_func/cummax_1/add_3"
  input: "transformation_func/cummax_1/add_4"
  device: "/device:CPU:0"
  attr {
    key: "N"
    value {
      i: 5
    }
  }
  attr {
    key: "T"
    value {
      type: DT_INT64
    }
  }
  attr {
    key: "_output_shapes"
    value {
      list {
        shape {
        }
      }
    }
  }
}
node {
  name: "transformation_func/cummax_1/AddN_4"
  op: "AddN"
  input: "transformation_func/cummax_1/add"
  input: "transformation_func/cummax_1/add_1"
  input: "transformation_func/cummax_1/add_2"
  input: "transformation_func/cummax_1/add_3"
  input: "transformation_func/cummax_1/add_4"
  input: "transformation_func/cummax_1/add_5"
  device: "/device:CPU:0"
  attr {
    key: "N"
    value {
      i: 6
    }
  }
  attr {
    key: "T"
    value {
      type: DT_INT64
    }
  }
  attr {
    key: "_output_shapes"
    value {
      list {
        shape {
        }
      }
    }
  }
}
node {
  name: "transformation_func/cummax_1/AddN_5"
  op: "AddN"
  input: "transformation_func/cummax_1/add"
  input: "transformation_func/cummax_1/add_1"
  input: "transformation_func/cummax_1/add_2"
  input: "transformation_func/cummax_1/add_3"
  input: "transformation_func/cummax_1/add_4"
  input: "transformation_func/cummax_1/add_5"
  input: "transformation_func/cummax_1/add_6"
  device: "/device:CPU:0"
  attr {
    key: "N"
    value {
      i: 7
    }
  }
  attr {
    key: "T"
    value {
      type: DT_INT64
    }
  }
  attr {
    key: "_output_shapes"
    value {
      list {
        shape {
        }
      }
    }
  }
}
node {
  name: "transformation_func/concat/axis"
  op: "Const"
  device: "/device:CPU:0"
  attr {
    key: "_output_shapes"
    value {
      list {
        shape {
        }
      }
    }
  }
  attr {
    key: "dtype"
    value {
      type: DT_INT32
    }
  }
  attr {
    key: "value"
    value {
      tensor {
        dtype: DT_INT32
        tensor_shape {
        }
        int_val: 0
      }
    }
  }
}
node {
  name: "transformation_func/concat"
  op: "ConcatV2"
  input: "transformation_func/IteratorGetNext:7"
  input: "transformation_func/IteratorGetNext_1:7"
  input: "transformation_func/IteratorGetNext_2:7"
  input: "transformation_func/IteratorGetNext_3:7"
  input: "transformation_func/IteratorGetNext_4:7"
  input: "transformation_func/IteratorGetNext_5:7"
  input: "transformation_func/IteratorGetNext_6:7"
  input: "transformation_func/IteratorGetNext_7:7"
  input: "transformation_func/concat/axis"
  device: "/device:CPU:0"
  attr {
    key: "N"
    value {
      i: 8
    }
  }
  attr {
    key: "T"
    value {
      type: DT_FLOAT
    }
  }
  attr {
    key: "Tidx"
    value {
      type: DT_INT32
    }
  }
  attr {
    key: "_output_shapes"
    value {
      list {
        shape {
          dim {
            size: -1
          }
        }
      }
    }
  }
}
node {
  name: "transformation_func/concat_1/axis"
  op: "Const"
  device: "/device:CPU:0"
  attr {
    key: "_output_shapes"
    value {
      list {
        shape {
        }
      }
    }
  }
  attr {
    key: "dtype"
    value {
      type: DT_INT32
    }
  }
  attr {
    key: "value"
    value {
      tensor {
        dtype: DT_INT32
        tensor_shape {
        }
        int_val: 0
      }
    }
  }
}
node {
  name: "transformation_func/concat_1"
  op: "ConcatV2"
  input: "transformation_func/IteratorGetNext:6"
  input: "transformation_func/IteratorGetNext_1:6"
  input: "transformation_func/IteratorGetNext_2:6"
  input: "transformation_func/IteratorGetNext_3:6"
  input: "transformation_func/IteratorGetNext_4:6"
  input: "transformation_func/IteratorGetNext_5:6"
  input: "transformation_func/IteratorGetNext_6:6"
  input: "transformation_func/IteratorGetNext_7:6"
  input: "transformation_func/concat_1/axis"
  device: "/device:CPU:0"
  attr {
    key: "N"
    value {
      i: 8
    }
  }
  attr {
    key: "T"
    value {
      type: DT_INT64
    }
  }
  attr {
    key: "Tidx"
    value {
      type: DT_INT32
    }
  }
  attr {
    key: "_output_shapes"
    value {
      list {
        shape {
          dim {
            size: -1
          }
        }
      }
    }
  }
}
node {
  name: "transformation_func/concat_2/axis"
  op: "Const"
  device: "/device:CPU:0"
  attr {
    key: "_output_shapes"
    value {
      list {
        shape {
        }
      }
    }
  }
  attr {
    key: "dtype"
    value {
      type: DT_INT32
    }
  }
  attr {
    key: "value"
    value {
      tensor {
        dtype: DT_INT32
        tensor_shape {
        }
        int_val: 0
      }
    }
  }
}
node {
  name: "transformation_func/concat_2"
  op: "ConcatV2"
  input: "transformation_func/IteratorGetNext"
  input: "transformation_func/IteratorGetNext_1"
  input: "transformation_func/IteratorGetNext_2"
  input: "transformation_func/IteratorGetNext_3"
  input: "transformation_func/IteratorGetNext_4"
  input: "transformation_func/IteratorGetNext_5"
  input: "transformation_func/IteratorGetNext_6"
  input: "transformation_func/IteratorGetNext_7"
  input: "transformation_func/concat_2/axis"
  device: "/device:CPU:0"
  attr {
    key: "N"
    value {
      i: 8
    }
  }
  attr {
    key: "T"
    value {
      type: DT_FLOAT
    }
  }
  attr {
    key: "Tidx"
    value {
      type: DT_INT32
    }
  }
  attr {
    key: "_output_shapes"
    value {
      list {
        shape {
          dim {
            size: -1
          }
        }
      }
    }
  }
}
node {
  name: "transformation_func/add"
  op: "Add"
  input: "transformation_func/IteratorGetNext:1"
  input: "transformation_func/cummax/zeros_like"
  device: "/device:CPU:0"
  attr {
    key: "T"
    value {
      type: DT_INT64
    }
  }
  attr {
    key: "_output_shapes"
    value {
      list {
        shape {
          dim {
            size: -1
          }
        }
      }
    }
  }
}
node {
  name: "transformation_func/add_1"
  op: "Add"
  input: "transformation_func/IteratorGetNext_1:1"
  input: "transformation_func/cummax/add"
  device: "/device:CPU:0"
  attr {
    key: "T"
    value {
      type: DT_INT64
    }
  }
  attr {
    key: "_output_shapes"
    value {
      list {
        shape {
          dim {
            size: -1
          }
        }
      }
    }
  }
}
node {
  name: "transformation_func/add_2"
  op: "Add"
  input: "transformation_func/IteratorGetNext_2:1"
  input: "transformation_func/cummax/AddN"
  device: "/device:CPU:0"
  attr {
    key: "T"
    value {
      type: DT_INT64
    }
  }
  attr {
    key: "_output_shapes"
    value {
      list {
        shape {
          dim {
            size: -1
          }
        }
      }
    }
  }
}
node {
  name: "transformation_func/add_3"
  op: "Add"
  input: "transformation_func/IteratorGetNext_3:1"
  input: "transformation_func/cummax/AddN_1"
  device: "/device:CPU:0"
  attr {
    key: "T"
    value {
      type: DT_INT64
    }
  }
  attr {
    key: "_output_shapes"
    value {
      list {
        shape {
          dim {
            size: -1
          }
        }
      }
    }
  }
}
node {
  name: "transformation_func/add_4"
  op: "Add"
  input: "transformation_func/IteratorGetNext_4:1"
  input: "transformation_func/cummax/AddN_2"
  device: "/device:CPU:0"
  attr {
    key: "T"
    value {
      type: DT_INT64
    }
  }
  attr {
    key: "_output_shapes"
    value {
      list {
        shape {
          dim {
            size: -1
          }
        }
      }
    }
  }
}
node {
  name: "transformation_func/add_5"
  op: "Add"
  input: "transformation_func/IteratorGetNext_5:1"
  input: "transformation_func/cummax/AddN_3"
  device: "/device:CPU:0"
  attr {
    key: "T"
    value {
      type: DT_INT64
    }
  }
  attr {
    key: "_output_shapes"
    value {
      list {
        shape {
          dim {
            size: -1
          }
        }
      }
    }
  }
}
node {
  name: "transformation_func/add_6"
  op: "Add"
  input: "transformation_func/IteratorGetNext_6:1"
  input: "transformation_func/cummax/AddN_4"
  device: "/device:CPU:0"
  attr {
    key: "T"
    value {
      type: DT_INT64
    }
  }
  attr {
    key: "_output_shapes"
    value {
      list {
        shape {
          dim {
            size: -1
          }
        }
      }
    }
  }
}
node {
  name: "transformation_func/add_7"
  op: "Add"
  input: "transformation_func/IteratorGetNext_7:1"
  input: "transformation_func/cummax/AddN_5"
  device: "/device:CPU:0"
  attr {
    key: "T"
    value {
      type: DT_INT64
    }
  }
  attr {
    key: "_output_shapes"
    value {
      list {
        shape {
          dim {
            size: -1
          }
        }
      }
    }
  }
}
node {
  name: "transformation_func/concat_3/axis"
  op: "Const"
  device: "/device:CPU:0"
  attr {
    key: "_output_shapes"
    value {
      list {
        shape {
        }
      }
    }
  }
  attr {
    key: "dtype"
    value {
      type: DT_INT32
    }
  }
  attr {
    key: "value"
    value {
      tensor {
        dtype: DT_INT32
        tensor_shape {
        }
        int_val: 0
      }
    }
  }
}
node {
  name: "transformation_func/concat_3"
  op: "ConcatV2"
  input: "transformation_func/add"
  input: "transformation_func/add_1"
  input: "transformation_func/add_2"
  input: "transformation_func/add_3"
  input: "transformation_func/add_4"
  input: "transformation_func/add_5"
  input: "transformation_func/add_6"
  input: "transformation_func/add_7"
  input: "transformation_func/concat_3/axis"
  device: "/device:CPU:0"
  attr {
    key: "N"
    value {
      i: 8
    }
  }
  attr {
    key: "T"
    value {
      type: DT_INT64
    }
  }
  attr {
    key: "Tidx"
    value {
      type: DT_INT32
    }
  }
  attr {
    key: "_output_shapes"
    value {
      list {
        shape {
          dim {
            size: -1
          }
        }
      }
    }
  }
}
node {
  name: "transformation_func/add_8"
  op: "Add"
  input: "transformation_func/IteratorGetNext:5"
  input: "transformation_func/cummax_1/zeros_like"
  device: "/device:CPU:0"
  attr {
    key: "T"
    value {
      type: DT_INT64
    }
  }
  attr {
    key: "_output_shapes"
    value {
      list {
        shape {
          dim {
            size: -1
          }
        }
      }
    }
  }
}
node {
  name: "transformation_func/add_9"
  op: "Add"
  input: "transformation_func/IteratorGetNext_1:5"
  input: "transformation_func/cummax_1/add"
  device: "/device:CPU:0"
  attr {
    key: "T"
    value {
      type: DT_INT64
    }
  }
  attr {
    key: "_output_shapes"
    value {
      list {
        shape {
          dim {
            size: -1
          }
        }
      }
    }
  }
}
node {
  name: "transformation_func/add_10"
  op: "Add"
  input: "transformation_func/IteratorGetNext_2:5"
  input: "transformation_func/cummax_1/AddN"
  device: "/device:CPU:0"
  attr {
    key: "T"
    value {
      type: DT_INT64
    }
  }
  attr {
    key: "_output_shapes"
    value {
      list {
        shape {
          dim {
            size: -1
          }
        }
      }
    }
  }
}
node {
  name: "transformation_func/add_11"
  op: "Add"
  input: "transformation_func/IteratorGetNext_3:5"
  input: "transformation_func/cummax_1/AddN_1"
  device: "/device:CPU:0"
  attr {
    key: "T"
    value {
      type: DT_INT64
    }
  }
  attr {
    key: "_output_shapes"
    value {
      list {
        shape {
          dim {
            size: -1
          }
        }
      }
    }
  }
}
node {
  name: "transformation_func/add_12"
  op: "Add"
  input: "transformation_func/IteratorGetNext_4:5"
  input: "transformation_func/cummax_1/AddN_2"
  device: "/device:CPU:0"
  attr {
    key: "T"
    value {
      type: DT_INT64
    }
  }
  attr {
    key: "_output_shapes"
    value {
      list {
        shape {
          dim {
            size: -1
          }
        }
      }
    }
  }
}
node {
  name: "transformation_func/add_13"
  op: "Add"
  input: "transformation_func/IteratorGetNext_5:5"
  input: "transformation_func/cummax_1/AddN_3"
  device: "/device:CPU:0"
  attr {
    key: "T"
    value {
      type: DT_INT64
    }
  }
  attr {
    key: "_output_shapes"
    value {
      list {
        shape {
          dim {
            size: -1
          }
        }
      }
    }
  }
}
node {
  name: "transformation_func/add_14"
  op: "Add"
  input: "transformation_func/IteratorGetNext_6:5"
  input: "transformation_func/cummax_1/AddN_4"
  device: "/device:CPU:0"
  attr {
    key: "T"
    value {
      type: DT_INT64
    }
  }
  attr {
    key: "_output_shapes"
    value {
      list {
        shape {
          dim {
            size: -1
          }
        }
      }
    }
  }
}
node {
  name: "transformation_func/add_15"
  op: "Add"
  input: "transformation_func/IteratorGetNext_7:5"
  input: "transformation_func/cummax_1/AddN_5"
  device: "/device:CPU:0"
  attr {
    key: "T"
    value {
      type: DT_INT64
    }
  }
  attr {
    key: "_output_shapes"
    value {
      list {
        shape {
          dim {
            size: -1
          }
        }
      }
    }
  }
}
node {
  name: "transformation_func/concat_4/axis"
  op: "Const"
  device: "/device:CPU:0"
  attr {
    key: "_output_shapes"
    value {
      list {
        shape {
        }
      }
    }
  }
  attr {
    key: "dtype"
    value {
      type: DT_INT32
    }
  }
  attr {
    key: "value"
    value {
      tensor {
        dtype: DT_INT32
        tensor_shape {
        }
        int_val: 0
      }
    }
  }
}
node {
  name: "transformation_func/concat_4"
  op: "ConcatV2"
  input: "transformation_func/add_8"
  input: "transformation_func/add_9"
  input: "transformation_func/add_10"
  input: "transformation_func/add_11"
  input: "transformation_func/add_12"
  input: "transformation_func/add_13"
  input: "transformation_func/add_14"
  input: "transformation_func/add_15"
  input: "transformation_func/concat_4/axis"
  device: "/device:CPU:0"
  attr {
    key: "N"
    value {
      i: 8
    }
  }
  attr {
    key: "T"
    value {
      type: DT_INT64
    }
  }
  attr {
    key: "Tidx"
    value {
      type: DT_INT32
    }
  }
  attr {
    key: "_output_shapes"
    value {
      list {
        shape {
          dim {
            size: -1
          }
        }
      }
    }
  }
}
node {
  name: "transformation_func/AddN"
  op: "AddN"
  input: "transformation_func/IteratorGetNext:2"
  input: "transformation_func/IteratorGetNext_1:2"
  input: "transformation_func/IteratorGetNext_2:2"
  input: "transformation_func/IteratorGetNext_3:2"
  input: "transformation_func/IteratorGetNext_4:2"
  input: "transformation_func/IteratorGetNext_5:2"
  input: "transformation_func/IteratorGetNext_6:2"
  input: "transformation_func/IteratorGetNext_7:2"
  device: "/device:CPU:0"
  attr {
    key: "N"
    value {
      i: 8
    }
  }
  attr {
    key: "T"
    value {
      type: DT_INT64
    }
  }
  attr {
    key: "_output_shapes"
    value {
      list {
        shape {
        }
      }
    }
  }
}
node {
  name: "transformation_func/AddN_1"
  op: "AddN"
  input: "transformation_func/IteratorGetNext:3"
  input: "transformation_func/IteratorGetNext_1:3"
  input: "transformation_func/IteratorGetNext_2:3"
  input: "transformation_func/IteratorGetNext_3:3"
  input: "transformation_func/IteratorGetNext_4:3"
  input: "transformation_func/IteratorGetNext_5:3"
  input: "transformation_func/IteratorGetNext_6:3"
  input: "transformation_func/IteratorGetNext_7:3"
  device: "/device:CPU:0"
  attr {
    key: "N"
    value {
      i: 8
    }
  }
  attr {
    key: "T"
    value {
      type: DT_INT64
    }
  }
  attr {
    key: "_output_shapes"
    value {
      list {
        shape {
        }
      }
    }
  }
}
node {
  name: "transformation_func/AddN_2"
  op: "AddN"
  input: "transformation_func/IteratorGetNext:4"
  input: "transformation_func/IteratorGetNext_1:4"
  input: "transformation_func/IteratorGetNext_2:4"
  input: "transformation_func/IteratorGetNext_3:4"
  input: "transformation_func/IteratorGetNext_4:4"
  input: "transformation_func/IteratorGetNext_5:4"
  input: "transformation_func/IteratorGetNext_6:4"
  input: "transformation_func/IteratorGetNext_7:4"
  device: "/device:CPU:0"
  attr {
    key: "N"
    value {
      i: 8
    }
  }
  attr {
    key: "T"
    value {
      type: DT_INT64
    }
  }
  attr {
    key: "_output_shapes"
    value {
      list {
        shape {
        }
      }
    }
  }
}
node {
  name: "transformation_func/concat_5/axis"
  op: "Const"
  device: "/device:CPU:0"
  attr {
    key: "_output_shapes"
    value {
      list {
        shape {
        }
      }
    }
  }
  attr {
    key: "dtype"
    value {
      type: DT_INT32
    }
  }
  attr {
    key: "value"
    value {
      tensor {
        dtype: DT_INT32
        tensor_shape {
        }
        int_val: 0
      }
    }
  }
}
node {
  name: "transformation_func/concat_5"
  op: "ConcatV2"
  input: "transformation_func/IteratorGetNext:8"
  input: "transformation_func/IteratorGetNext_1:8"
  input: "transformation_func/IteratorGetNext_2:8"
  input: "transformation_func/IteratorGetNext_3:8"
  input: "transformation_func/IteratorGetNext_4:8"
  input: "transformation_func/IteratorGetNext_5:8"
  input: "transformation_func/IteratorGetNext_6:8"
  input: "transformation_func/IteratorGetNext_7:8"
  input: "transformation_func/concat_5/axis"
  device: "/device:CPU:0"
  attr {
    key: "N"
    value {
      i: 8
    }
  }
  attr {
    key: "T"
    value {
      type: DT_FLOAT
    }
  }
  attr {
    key: "Tidx"
    value {
      type: DT_INT32
    }
  }
  attr {
    key: "_output_shapes"
    value {
      list {
        shape {
          dim {
            size: -1
          }
        }
      }
    }
  }
}
node {
  name: "kernel/Initializer/random_uniform/shape"
  op: "Const"
  attr {
    key: "_class"
    value {
      list {
        s: "loc:@kernel"
      }
    }
  }
  attr {
    key: "_output_shapes"
    value {
      list {
        shape {
          dim {
            size: 2
          }
        }
      }
    }
  }
  attr {
    key: "dtype"
    value {
      type: DT_INT32
    }
  }
  attr {
    key: "value"
    value {
      tensor {
        dtype: DT_INT32
        tensor_shape {
          dim {
            size: 2
          }
        }
        tensor_content: "@\000\000\000\300\000\000\000"
      }
    }
  }
}
node {
  name: "kernel/Initializer/random_uniform/min"
  op: "Const"
  attr {
    key: "_class"
    value {
      list {
        s: "loc:@kernel"
      }
    }
  }
  attr {
    key: "_output_shapes"
    value {
      list {
        shape {
        }
      }
    }
  }
  attr {
    key: "dtype"
    value {
      type: DT_FLOAT
    }
  }
  attr {
    key: "value"
    value {
      tensor {
        dtype: DT_FLOAT
        tensor_shape {
        }
        float_val: -0.1530931144952774
      }
    }
  }
}
node {
  name: "kernel/Initializer/random_uniform/max"
  op: "Const"
  attr {
    key: "_class"
    value {
      list {
        s: "loc:@kernel"
      }
    }
  }
  attr {
    key: "_output_shapes"
    value {
      list {
        shape {
        }
      }
    }
  }
  attr {
    key: "dtype"
    value {
      type: DT_FLOAT
    }
  }
  attr {
    key: "value"
    value {
      tensor {
        dtype: DT_FLOAT
        tensor_shape {
        }
        float_val: 0.1530931144952774
      }
    }
  }
}
node {
  name: "kernel/Initializer/random_uniform/RandomUniform"
  op: "RandomUniform"
  input: "kernel/Initializer/random_uniform/shape"
  attr {
    key: "T"
    value {
      type: DT_INT32
    }
  }
  attr {
    key: "_class"
    value {
      list {
        s: "loc:@kernel"
      }
    }
  }
  attr {
    key: "_output_shapes"
    value {
      list {
        shape {
          dim {
            size: 64
          }
          dim {
            size: 192
          }
        }
      }
    }
  }
  attr {
    key: "dtype"
    value {
      type: DT_FLOAT
    }
  }
  attr {
    key: "seed"
    value {
      i: 0
    }
  }
  attr {
    key: "seed2"
    value {
      i: 0
    }
  }
}
node {
  name: "kernel/Initializer/random_uniform/sub"
  op: "Sub"
  input: "kernel/Initializer/random_uniform/max"
  input: "kernel/Initializer/random_uniform/min"
  attr {
    key: "T"
    value {
      type: DT_FLOAT
    }
  }
  attr {
    key: "_class"
    value {
      list {
        s: "loc:@kernel"
      }
    }
  }
  attr {
    key: "_output_shapes"
    value {
      list {
        shape {
        }
      }
    }
  }
}
node {
  name: "kernel/Initializer/random_uniform/mul"
  op: "Mul"
  input: "kernel/Initializer/random_uniform/RandomUniform"
  input: "kernel/Initializer/random_uniform/sub"
  attr {
    key: "T"
    value {
      type: DT_FLOAT
    }
  }
  attr {
    key: "_class"
    value {
      list {
        s: "loc:@kernel"
      }
    }
  }
  attr {
    key: "_output_shapes"
    value {
      list {
        shape {
          dim {
            size: 64
          }
          dim {
            size: 192
          }
        }
      }
    }
  }
}
node {
  name: "kernel/Initializer/random_uniform"
  op: "Add"
  input: "kernel/Initializer/random_uniform/mul"
  input: "kernel/Initializer/random_uniform/min"
  attr {
    key: "T"
    value {
      type: DT_FLOAT
    }
  }
  attr {
    key: "_class"
    value {
      list {
        s: "loc:@kernel"
      }
    }
  }
  attr {
    key: "_output_shapes"
    value {
      list {
        shape {
          dim {
            size: 64
          }
          dim {
            size: 192
          }
        }
      }
    }
  }
}
node {
  name: "kernel"
  op: "VarHandleOp"
  attr {
    key: "_class"
    value {
      list {
        s: "loc:@kernel"
      }
    }
  }
  attr {
    key: "_output_shapes"
    value {
      list {
        shape {
        }
      }
    }
  }
  attr {
    key: "container"
    value {
      s: ""
    }
  }
  attr {
    key: "dtype"
    value {
      type: DT_FLOAT
    }
  }
  attr {
    key: "shape"
    value {
      shape {
        dim {
          size: 64
        }
        dim {
          size: 192
        }
      }
    }
  }
  attr {
    key: "shared_name"
    value {
      s: "kernel"
    }
  }
}
node {
  name: "kernel/IsInitialized/VarIsInitializedOp"
  op: "VarIsInitializedOp"
  input: "kernel"
  attr {
    key: "_output_shapes"
    value {
      list {
        shape {
        }
      }
    }
  }
}
node {
  name: "kernel/Assign"
  op: "AssignVariableOp"
  input: "kernel"
  input: "kernel/Initializer/random_uniform"
  attr {
    key: "_class"
    value {
      list {
        s: "loc:@kernel"
      }
    }
  }
  attr {
    key: "dtype"
    value {
      type: DT_FLOAT
    }
  }
}
node {
  name: "kernel/Read/ReadVariableOp"
  op: "ReadVariableOp"
  input: "kernel"
  attr {
    key: "_class"
    value {
      list {
        s: "loc:@kernel"
      }
    }
  }
  attr {
    key: "_output_shapes"
    value {
      list {
        shape {
          dim {
            size: 64
          }
          dim {
            size: 192
          }
        }
      }
    }
  }
  attr {
    key: "dtype"
    value {
      type: DT_FLOAT
    }
  }
}
node {
  name: "recurrent_kernel/Initializer/random_normal/shape"
  op: "Const"
  attr {
    key: "_class"
    value {
      list {
        s: "loc:@recurrent_kernel"
      }
    }
  }
  attr {
    key: "_output_shapes"
    value {
      list {
        shape {
          dim {
            size: 2
          }
        }
      }
    }
  }
  attr {
    key: "dtype"
    value {
      type: DT_INT32
    }
  }
  attr {
    key: "value"
    value {
      tensor {
        dtype: DT_INT32
        tensor_shape {
          dim {
            size: 2
          }
        }
        tensor_content: "\300\000\000\000@\000\000\000"
      }
    }
  }
}
node {
  name: "recurrent_kernel/Initializer/random_normal/mean"
  op: "Const"
  attr {
    key: "_class"
    value {
      list {
        s: "loc:@recurrent_kernel"
      }
    }
  }
  attr {
    key: "_output_shapes"
    value {
      list {
        shape {
        }
      }
    }
  }
  attr {
    key: "dtype"
    value {
      type: DT_FLOAT
    }
  }
  attr {
    key: "value"
    value {
      tensor {
        dtype: DT_FLOAT
        tensor_shape {
        }
        float_val: 0.0
      }
    }
  }
}
node {
  name: "recurrent_kernel/Initializer/random_normal/stddev"
  op: "Const"
  attr {
    key: "_class"
    value {
      list {
        s: "loc:@recurrent_kernel"
      }
    }
  }
  attr {
    key: "_output_shapes"
    value {
      list {
        shape {
        }
      }
    }
  }
  attr {
    key: "dtype"
    value {
      type: DT_FLOAT
    }
  }
  attr {
    key: "value"
    value {
      tensor {
        dtype: DT_FLOAT
        tensor_shape {
        }
        float_val: 1.0
      }
    }
  }
}
node {
  name: "recurrent_kernel/Initializer/random_normal/RandomStandardNormal"
  op: "RandomStandardNormal"
  input: "recurrent_kernel/Initializer/random_normal/shape"
  attr {
    key: "T"
    value {
      type: DT_INT32
    }
  }
  attr {
    key: "_class"
    value {
      list {
        s: "loc:@recurrent_kernel"
      }
    }
  }
  attr {
    key: "_output_shapes"
    value {
      list {
        shape {
          dim {
            size: 192
          }
          dim {
            size: 64
          }
        }
      }
    }
  }
  attr {
    key: "dtype"
    value {
      type: DT_FLOAT
    }
  }
  attr {
    key: "seed"
    value {
      i: 0
    }
  }
  attr {
    key: "seed2"
    value {
      i: 0
    }
  }
}
node {
  name: "recurrent_kernel/Initializer/random_normal/mul"
  op: "Mul"
  input: "recurrent_kernel/Initializer/random_normal/RandomStandardNormal"
  input: "recurrent_kernel/Initializer/random_normal/stddev"
  attr {
    key: "T"
    value {
      type: DT_FLOAT
    }
  }
  attr {
    key: "_class"
    value {
      list {
        s: "loc:@recurrent_kernel"
      }
    }
  }
  attr {
    key: "_output_shapes"
    value {
      list {
        shape {
          dim {
            size: 192
          }
          dim {
            size: 64
          }
        }
      }
    }
  }
}
node {
  name: "recurrent_kernel/Initializer/random_normal"
  op: "Add"
  input: "recurrent_kernel/Initializer/random_normal/mul"
  input: "recurrent_kernel/Initializer/random_normal/mean"
  attr {
    key: "T"
    value {
      type: DT_FLOAT
    }
  }
  attr {
    key: "_class"
    value {
      list {
        s: "loc:@recurrent_kernel"
      }
    }
  }
  attr {
    key: "_output_shapes"
    value {
      list {
        shape {
          dim {
            size: 192
          }
          dim {
            size: 64
          }
        }
      }
    }
  }
}
node {
  name: "recurrent_kernel/Initializer/Qr"
  op: "Qr"
  input: "recurrent_kernel/Initializer/random_normal"
  attr {
    key: "T"
    value {
      type: DT_FLOAT
    }
  }
  attr {
    key: "_class"
    value {
      list {
        s: "loc:@recurrent_kernel"
      }
    }
  }
  attr {
    key: "_output_shapes"
    value {
      list {
        shape {
          dim {
            size: 192
          }
          dim {
            size: 64
          }
        }
        shape {
          dim {
            size: 64
          }
          dim {
            size: 64
          }
        }
      }
    }
  }
  attr {
    key: "full_matrices"
    value {
      b: false
    }
  }
}
node {
  name: "recurrent_kernel/Initializer/DiagPart"
  op: "DiagPart"
  input: "recurrent_kernel/Initializer/Qr:1"
  attr {
    key: "T"
    value {
      type: DT_FLOAT
    }
  }
  attr {
    key: "_class"
    value {
      list {
        s: "loc:@recurrent_kernel"
      }
    }
  }
  attr {
    key: "_output_shapes"
    value {
      list {
        shape {
          dim {
            size: 64
          }
        }
      }
    }
  }
}
node {
  name: "recurrent_kernel/Initializer/Sign"
  op: "Sign"
  input: "recurrent_kernel/Initializer/DiagPart"
  attr {
    key: "T"
    value {
      type: DT_FLOAT
    }
  }
  attr {
    key: "_class"
    value {
      list {
        s: "loc:@recurrent_kernel"
      }
    }
  }
  attr {
    key: "_output_shapes"
    value {
      list {
        shape {
          dim {
            size: 64
          }
        }
      }
    }
  }
}
node {
  name: "recurrent_kernel/Initializer/mul"
  op: "Mul"
  input: "recurrent_kernel/Initializer/Qr"
  input: "recurrent_kernel/Initializer/Sign"
  attr {
    key: "T"
    value {
      type: DT_FLOAT
    }
  }
  attr {
    key: "_class"
    value {
      list {
        s: "loc:@recurrent_kernel"
      }
    }
  }
  attr {
    key: "_output_shapes"
    value {
      list {
        shape {
          dim {
            size: 192
          }
          dim {
            size: 64
          }
        }
      }
    }
  }
}
node {
  name: "recurrent_kernel/Initializer/matrix_transpose/transpose/perm"
  op: "Const"
  attr {
    key: "_class"
    value {
      list {
        s: "loc:@recurrent_kernel"
      }
    }
  }
  attr {
    key: "_output_shapes"
    value {
      list {
        shape {
          dim {
            size: 2
          }
        }
      }
    }
  }
  attr {
    key: "dtype"
    value {
      type: DT_INT32
    }
  }
  attr {
    key: "value"
    value {
      tensor {
        dtype: DT_INT32
        tensor_shape {
          dim {
            size: 2
          }
        }
        tensor_content: "\001\000\000\000\000\000\000\000"
      }
    }
  }
}
node {
  name: "recurrent_kernel/Initializer/matrix_transpose/transpose"
  op: "Transpose"
  input: "recurrent_kernel/Initializer/mul"
  input: "recurrent_kernel/Initializer/matrix_transpose/transpose/perm"
  attr {
    key: "T"
    value {
      type: DT_FLOAT
    }
  }
  attr {
    key: "Tperm"
    value {
      type: DT_INT32
    }
  }
  attr {
    key: "_class"
    value {
      list {
        s: "loc:@recurrent_kernel"
      }
    }
  }
  attr {
    key: "_output_shapes"
    value {
      list {
        shape {
          dim {
            size: 64
          }
          dim {
            size: 192
          }
        }
      }
    }
  }
}
node {
  name: "recurrent_kernel/Initializer/Reshape/shape"
  op: "Const"
  attr {
    key: "_class"
    value {
      list {
        s: "loc:@recurrent_kernel"
      }
    }
  }
  attr {
    key: "_output_shapes"
    value {
      list {
        shape {
          dim {
            size: 2
          }
        }
      }
    }
  }
  attr {
    key: "dtype"
    value {
      type: DT_INT32
    }
  }
  attr {
    key: "value"
    value {
      tensor {
        dtype: DT_INT32
        tensor_shape {
          dim {
            size: 2
          }
        }
        tensor_content: "@\000\000\000\300\000\000\000"
      }
    }
  }
}
node {
  name: "recurrent_kernel/Initializer/Reshape"
  op: "Reshape"
  input: "recurrent_kernel/Initializer/matrix_transpose/transpose"
  input: "recurrent_kernel/Initializer/Reshape/shape"
  attr {
    key: "T"
    value {
      type: DT_FLOAT
    }
  }
  attr {
    key: "Tshape"
    value {
      type: DT_INT32
    }
  }
  attr {
    key: "_class"
    value {
      list {
        s: "loc:@recurrent_kernel"
      }
    }
  }
  attr {
    key: "_output_shapes"
    value {
      list {
        shape {
          dim {
            size: 64
          }
          dim {
            size: 192
          }
        }
      }
    }
  }
}
node {
  name: "recurrent_kernel/Initializer/mul_1/x"
  op: "Const"
  attr {
    key: "_class"
    value {
      list {
        s: "loc:@recurrent_kernel"
      }
    }
  }
  attr {
    key: "_output_shapes"
    value {
      list {
        shape {
        }
      }
    }
  }
  attr {
    key: "dtype"
    value {
      type: DT_FLOAT
    }
  }
  attr {
    key: "value"
    value {
      tensor {
        dtype: DT_FLOAT
        tensor_shape {
        }
        float_val: 1.0
      }
    }
  }
}
node {
  name: "recurrent_kernel/Initializer/mul_1"
  op: "Mul"
  input: "recurrent_kernel/Initializer/mul_1/x"
  input: "recurrent_kernel/Initializer/Reshape"
  attr {
    key: "T"
    value {
      type: DT_FLOAT
    }
  }
  attr {
    key: "_class"
    value {
      list {
        s: "loc:@recurrent_kernel"
      }
    }
  }
  attr {
    key: "_output_shapes"
    value {
      list {
        shape {
          dim {
            size: 64
          }
          dim {
            size: 192
          }
        }
      }
    }
  }
}
node {
  name: "recurrent_kernel"
  op: "VarHandleOp"
  attr {
    key: "_class"
    value {
      list {
        s: "loc:@recurrent_kernel"
      }
    }
  }
  attr {
    key: "_output_shapes"
    value {
      list {
        shape {
        }
      }
    }
  }
  attr {
    key: "container"
    value {
      s: ""
    }
  }
  attr {
    key: "dtype"
    value {
      type: DT_FLOAT
    }
  }
  attr {
    key: "shape"
    value {
      shape {
        dim {
          size: 64
        }
        dim {
          size: 192
        }
      }
    }
  }
  attr {
    key: "shared_name"
    value {
      s: "recurrent_kernel"
    }
  }
}
node {
  name: "recurrent_kernel/IsInitialized/VarIsInitializedOp"
  op: "VarIsInitializedOp"
  input: "recurrent_kernel"
  attr {
    key: "_output_shapes"
    value {
      list {
        shape {
        }
      }
    }
  }
}
node {
  name: "recurrent_kernel/Assign"
  op: "AssignVariableOp"
  input: "recurrent_kernel"
  input: "recurrent_kernel/Initializer/mul_1"
  attr {
    key: "_class"
    value {
      list {
        s: "loc:@recurrent_kernel"
      }
    }
  }
  attr {
    key: "dtype"
    value {
      type: DT_FLOAT
    }
  }
}
node {
  name: "recurrent_kernel/Read/ReadVariableOp"
  op: "ReadVariableOp"
  input: "recurrent_kernel"
  attr {
    key: "_class"
    value {
      list {
        s: "loc:@recurrent_kernel"
      }
    }
  }
  attr {
    key: "_output_shapes"
    value {
      list {
        shape {
          dim {
            size: 64
          }
          dim {
            size: 192
          }
        }
      }
    }
  }
  attr {
    key: "dtype"
    value {
      type: DT_FLOAT
    }
  }
}
node {
  name: "bias/Initializer/zeros"
  op: "Const"
  attr {
    key: "_class"
    value {
      list {
        s: "loc:@bias"
      }
    }
  }
  attr {
    key: "_output_shapes"
    value {
      list {
        shape {
          dim {
            size: 192
          }
        }
      }
    }
  }
  attr {
    key: "dtype"
    value {
      type: DT_FLOAT
    }
  }
  attr {
    key: "value"
    value {
      tensor {
        dtype: DT_FLOAT
        tensor_shape {
          dim {
            size: 192
          }
        }
        float_val: 0.0
      }
    }
  }
}
node {
  name: "bias"
  op: "VarHandleOp"
  attr {
    key: "_class"
    value {
      list {
        s: "loc:@bias"
      }
    }
  }
  attr {
    key: "_output_shapes"
    value {
      list {
        shape {
        }
      }
    }
  }
  attr {
    key: "container"
    value {
      s: ""
    }
  }
  attr {
    key: "dtype"
    value {
      type: DT_FLOAT
    }
  }
  attr {
    key: "shape"
    value {
      shape {
        dim {
          size: 192
        }
      }
    }
  }
  attr {
    key: "shared_name"
    value {
      s: "bias"
    }
  }
}
node {
  name: "bias/IsInitialized/VarIsInitializedOp"
  op: "VarIsInitializedOp"
  input: "bias"
  attr {
    key: "_output_shapes"
    value {
      list {
        shape {
        }
      }
    }
  }
}
node {
  name: "bias/Assign"
  op: "AssignVariableOp"
  input: "bias"
  input: "bias/Initializer/zeros"
  attr {
    key: "_class"
    value {
      list {
        s: "loc:@bias"
      }
    }
  }
  attr {
    key: "dtype"
    value {
      type: DT_FLOAT
    }
  }
}
node {
  name: "bias/Read/ReadVariableOp"
  op: "ReadVariableOp"
  input: "bias"
  attr {
    key: "_class"
    value {
      list {
        s: "loc:@bias"
      }
    }
  }
  attr {
    key: "_output_shapes"
    value {
      list {
        shape {
          dim {
            size: 192
          }
        }
      }
    }
  }
  attr {
    key: "dtype"
    value {
      type: DT_FLOAT
    }
  }
}
node {
  name: "kernel_1/Initializer/random_uniform/shape"
  op: "Const"
  attr {
    key: "_class"
    value {
      list {
        s: "loc:@kernel_1"
      }
    }
  }
  attr {
    key: "_output_shapes"
    value {
      list {
        shape {
          dim {
            size: 2
          }
        }
      }
    }
  }
  attr {
    key: "dtype"
    value {
      type: DT_INT32
    }
  }
  attr {
    key: "value"
    value {
      tensor {
        dtype: DT_INT32
        tensor_shape {
          dim {
            size: 2
          }
        }
        tensor_content: "@\000\000\000\300\000\000\000"
      }
    }
  }
}
node {
  name: "kernel_1/Initializer/random_uniform/min"
  op: "Const"
  attr {
    key: "_class"
    value {
      list {
        s: "loc:@kernel_1"
      }
    }
  }
  attr {
    key: "_output_shapes"
    value {
      list {
        shape {
        }
      }
    }
  }
  attr {
    key: "dtype"
    value {
      type: DT_FLOAT
    }
  }
  attr {
    key: "value"
    value {
      tensor {
        dtype: DT_FLOAT
        tensor_shape {
        }
        float_val: -0.1530931144952774
      }
    }
  }
}
node {
  name: "kernel_1/Initializer/random_uniform/max"
  op: "Const"
  attr {
    key: "_class"
    value {
      list {
        s: "loc:@kernel_1"
      }
    }
  }
  attr {
    key: "_output_shapes"
    value {
      list {
        shape {
        }
      }
    }
  }
  attr {
    key: "dtype"
    value {
      type: DT_FLOAT
    }
  }
  attr {
    key: "value"
    value {
      tensor {
        dtype: DT_FLOAT
        tensor_shape {
        }
        float_val: 0.1530931144952774
      }
    }
  }
}
node {
  name: "kernel_1/Initializer/random_uniform/RandomUniform"
  op: "RandomUniform"
  input: "kernel_1/Initializer/random_uniform/shape"
  attr {
    key: "T"
    value {
      type: DT_INT32
    }
  }
  attr {
    key: "_class"
    value {
      list {
        s: "loc:@kernel_1"
      }
    }
  }
  attr {
    key: "_output_shapes"
    value {
      list {
        shape {
          dim {
            size: 64
          }
          dim {
            size: 192
          }
        }
      }
    }
  }
  attr {
    key: "dtype"
    value {
      type: DT_FLOAT
    }
  }
  attr {
    key: "seed"
    value {
      i: 0
    }
  }
  attr {
    key: "seed2"
    value {
      i: 0
    }
  }
}
node {
  name: "kernel_1/Initializer/random_uniform/sub"
  op: "Sub"
  input: "kernel_1/Initializer/random_uniform/max"
  input: "kernel_1/Initializer/random_uniform/min"
  attr {
    key: "T"
    value {
      type: DT_FLOAT
    }
  }
  attr {
    key: "_class"
    value {
      list {
        s: "loc:@kernel_1"
      }
    }
  }
  attr {
    key: "_output_shapes"
    value {
      list {
        shape {
        }
      }
    }
  }
}
node {
  name: "kernel_1/Initializer/random_uniform/mul"
  op: "Mul"
  input: "kernel_1/Initializer/random_uniform/RandomUniform"
  input: "kernel_1/Initializer/random_uniform/sub"
  attr {
    key: "T"
    value {
      type: DT_FLOAT
    }
  }
  attr {
    key: "_class"
    value {
      list {
        s: "loc:@kernel_1"
      }
    }
  }
  attr {
    key: "_output_shapes"
    value {
      list {
        shape {
          dim {
            size: 64
          }
          dim {
            size: 192
          }
        }
      }
    }
  }
}
node {
  name: "kernel_1/Initializer/random_uniform"
  op: "Add"
  input: "kernel_1/Initializer/random_uniform/mul"
  input: "kernel_1/Initializer/random_uniform/min"
  attr {
    key: "T"
    value {
      type: DT_FLOAT
    }
  }
  attr {
    key: "_class"
    value {
      list {
        s: "loc:@kernel_1"
      }
    }
  }
  attr {
    key: "_output_shapes"
    value {
      list {
        shape {
          dim {
            size: 64
          }
          dim {
            size: 192
          }
        }
      }
    }
  }
}
node {
  name: "kernel_1"
  op: "VarHandleOp"
  attr {
    key: "_class"
    value {
      list {
        s: "loc:@kernel_1"
      }
    }
  }
  attr {
    key: "_output_shapes"
    value {
      list {
        shape {
        }
      }
    }
  }
  attr {
    key: "container"
    value {
      s: ""
    }
  }
  attr {
    key: "dtype"
    value {
      type: DT_FLOAT
    }
  }
  attr {
    key: "shape"
    value {
      shape {
        dim {
          size: 64
        }
        dim {
          size: 192
        }
      }
    }
  }
  attr {
    key: "shared_name"
    value {
      s: "kernel_1"
    }
  }
}
node {
  name: "kernel_1/IsInitialized/VarIsInitializedOp"
  op: "VarIsInitializedOp"
  input: "kernel_1"
  attr {
    key: "_output_shapes"
    value {
      list {
        shape {
        }
      }
    }
  }
}
node {
  name: "kernel_1/Assign"
  op: "AssignVariableOp"
  input: "kernel_1"
  input: "kernel_1/Initializer/random_uniform"
  attr {
    key: "_class"
    value {
      list {
        s: "loc:@kernel_1"
      }
    }
  }
  attr {
    key: "dtype"
    value {
      type: DT_FLOAT
    }
  }
}
node {
  name: "kernel_1/Read/ReadVariableOp"
  op: "ReadVariableOp"
  input: "kernel_1"
  attr {
    key: "_class"
    value {
      list {
        s: "loc:@kernel_1"
      }
    }
  }
  attr {
    key: "_output_shapes"
    value {
      list {
        shape {
          dim {
            size: 64
          }
          dim {
            size: 192
          }
        }
      }
    }
  }
  attr {
    key: "dtype"
    value {
      type: DT_FLOAT
    }
  }
}
node {
  name: "recurrent_kernel_1/Initializer/random_normal/shape"
  op: "Const"
  attr {
    key: "_class"
    value {
      list {
        s: "loc:@recurrent_kernel_1"
      }
    }
  }
  attr {
    key: "_output_shapes"
    value {
      list {
        shape {
          dim {
            size: 2
          }
        }
      }
    }
  }
  attr {
    key: "dtype"
    value {
      type: DT_INT32
    }
  }
  attr {
    key: "value"
    value {
      tensor {
        dtype: DT_INT32
        tensor_shape {
          dim {
            size: 2
          }
        }
        tensor_content: "\300\000\000\000@\000\000\000"
      }
    }
  }
}
node {
  name: "recurrent_kernel_1/Initializer/random_normal/mean"
  op: "Const"
  attr {
    key: "_class"
    value {
      list {
        s: "loc:@recurrent_kernel_1"
      }
    }
  }
  attr {
    key: "_output_shapes"
    value {
      list {
        shape {
        }
      }
    }
  }
  attr {
    key: "dtype"
    value {
      type: DT_FLOAT
    }
  }
  attr {
    key: "value"
    value {
      tensor {
        dtype: DT_FLOAT
        tensor_shape {
        }
        float_val: 0.0
      }
    }
  }
}
node {
  name: "recurrent_kernel_1/Initializer/random_normal/stddev"
  op: "Const"
  attr {
    key: "_class"
    value {
      list {
        s: "loc:@recurrent_kernel_1"
      }
    }
  }
  attr {
    key: "_output_shapes"
    value {
      list {
        shape {
        }
      }
    }
  }
  attr {
    key: "dtype"
    value {
      type: DT_FLOAT
    }
  }
  attr {
    key: "value"
    value {
      tensor {
        dtype: DT_FLOAT
        tensor_shape {
        }
        float_val: 1.0
      }
    }
  }
}
node {
  name: "recurrent_kernel_1/Initializer/random_normal/RandomStandardNormal"
  op: "RandomStandardNormal"
  input: "recurrent_kernel_1/Initializer/random_normal/shape"
  attr {
    key: "T"
    value {
      type: DT_INT32
    }
  }
  attr {
    key: "_class"
    value {
      list {
        s: "loc:@recurrent_kernel_1"
      }
    }
  }
  attr {
    key: "_output_shapes"
    value {
      list {
        shape {
          dim {
            size: 192
          }
          dim {
            size: 64
          }
        }
      }
    }
  }
  attr {
    key: "dtype"
    value {
      type: DT_FLOAT
    }
  }
  attr {
    key: "seed"
    value {
      i: 0
    }
  }
  attr {
    key: "seed2"
    value {
      i: 0
    }
  }
}
node {
  name: "recurrent_kernel_1/Initializer/random_normal/mul"
  op: "Mul"
  input: "recurrent_kernel_1/Initializer/random_normal/RandomStandardNormal"
  input: "recurrent_kernel_1/Initializer/random_normal/stddev"
  attr {
    key: "T"
    value {
      type: DT_FLOAT
    }
  }
  attr {
    key: "_class"
    value {
      list {
        s: "loc:@recurrent_kernel_1"
      }
    }
  }
  attr {
    key: "_output_shapes"
    value {
      list {
        shape {
          dim {
            size: 192
          }
          dim {
            size: 64
          }
        }
      }
    }
  }
}
node {
  name: "recurrent_kernel_1/Initializer/random_normal"
  op: "Add"
  input: "recurrent_kernel_1/Initializer/random_normal/mul"
  input: "recurrent_kernel_1/Initializer/random_normal/mean"
  attr {
    key: "T"
    value {
      type: DT_FLOAT
    }
  }
  attr {
    key: "_class"
    value {
      list {
        s: "loc:@recurrent_kernel_1"
      }
    }
  }
  attr {
    key: "_output_shapes"
    value {
      list {
        shape {
          dim {
            size: 192
          }
          dim {
            size: 64
          }
        }
      }
    }
  }
}
node {
  name: "recurrent_kernel_1/Initializer/Qr"
  op: "Qr"
  input: "recurrent_kernel_1/Initializer/random_normal"
  attr {
    key: "T"
    value {
      type: DT_FLOAT
    }
  }
  attr {
    key: "_class"
    value {
      list {
        s: "loc:@recurrent_kernel_1"
      }
    }
  }
  attr {
    key: "_output_shapes"
    value {
      list {
        shape {
          dim {
            size: 192
          }
          dim {
            size: 64
          }
        }
        shape {
          dim {
            size: 64
          }
          dim {
            size: 64
          }
        }
      }
    }
  }
  attr {
    key: "full_matrices"
    value {
      b: false
    }
  }
}
node {
  name: "recurrent_kernel_1/Initializer/DiagPart"
  op: "DiagPart"
  input: "recurrent_kernel_1/Initializer/Qr:1"
  attr {
    key: "T"
    value {
      type: DT_FLOAT
    }
  }
  attr {
    key: "_class"
    value {
      list {
        s: "loc:@recurrent_kernel_1"
      }
    }
  }
  attr {
    key: "_output_shapes"
    value {
      list {
        shape {
          dim {
            size: 64
          }
        }
      }
    }
  }
}
node {
  name: "recurrent_kernel_1/Initializer/Sign"
  op: "Sign"
  input: "recurrent_kernel_1/Initializer/DiagPart"
  attr {
    key: "T"
    value {
      type: DT_FLOAT
    }
  }
  attr {
    key: "_class"
    value {
      list {
        s: "loc:@recurrent_kernel_1"
      }
    }
  }
  attr {
    key: "_output_shapes"
    value {
      list {
        shape {
          dim {
            size: 64
          }
        }
      }
    }
  }
}
node {
  name: "recurrent_kernel_1/Initializer/mul"
  op: "Mul"
  input: "recurrent_kernel_1/Initializer/Qr"
  input: "recurrent_kernel_1/Initializer/Sign"
  attr {
    key: "T"
    value {
      type: DT_FLOAT
    }
  }
  attr {
    key: "_class"
    value {
      list {
        s: "loc:@recurrent_kernel_1"
      }
    }
  }
  attr {
    key: "_output_shapes"
    value {
      list {
        shape {
          dim {
            size: 192
          }
          dim {
            size: 64
          }
        }
      }
    }
  }
}
node {
  name: "recurrent_kernel_1/Initializer/matrix_transpose/transpose/perm"
  op: "Const"
  attr {
    key: "_class"
    value {
      list {
        s: "loc:@recurrent_kernel_1"
      }
    }
  }
  attr {
    key: "_output_shapes"
    value {
      list {
        shape {
          dim {
            size: 2
          }
        }
      }
    }
  }
  attr {
    key: "dtype"
    value {
      type: DT_INT32
    }
  }
  attr {
    key: "value"
    value {
      tensor {
        dtype: DT_INT32
        tensor_shape {
          dim {
            size: 2
          }
        }
        tensor_content: "\001\000\000\000\000\000\000\000"
      }
    }
  }
}
node {
  name: "recurrent_kernel_1/Initializer/matrix_transpose/transpose"
  op: "Transpose"
  input: "recurrent_kernel_1/Initializer/mul"
  input: "recurrent_kernel_1/Initializer/matrix_transpose/transpose/perm"
  attr {
    key: "T"
    value {
      type: DT_FLOAT
    }
  }
  attr {
    key: "Tperm"
    value {
      type: DT_INT32
    }
  }
  attr {
    key: "_class"
    value {
      list {
        s: "loc:@recurrent_kernel_1"
      }
    }
  }
  attr {
    key: "_output_shapes"
    value {
      list {
        shape {
          dim {
            size: 64
          }
          dim {
            size: 192
          }
        }
      }
    }
  }
}
node {
  name: "recurrent_kernel_1/Initializer/Reshape/shape"
  op: "Const"
  attr {
    key: "_class"
    value {
      list {
        s: "loc:@recurrent_kernel_1"
      }
    }
  }
  attr {
    key: "_output_shapes"
    value {
      list {
        shape {
          dim {
            size: 2
          }
        }
      }
    }
  }
  attr {
    key: "dtype"
    value {
      type: DT_INT32
    }
  }
  attr {
    key: "value"
    value {
      tensor {
        dtype: DT_INT32
        tensor_shape {
          dim {
            size: 2
          }
        }
        tensor_content: "@\000\000\000\300\000\000\000"
      }
    }
  }
}
node {
  name: "recurrent_kernel_1/Initializer/Reshape"
  op: "Reshape"
  input: "recurrent_kernel_1/Initializer/matrix_transpose/transpose"
  input: "recurrent_kernel_1/Initializer/Reshape/shape"
  attr {
    key: "T"
    value {
      type: DT_FLOAT
    }
  }
  attr {
    key: "Tshape"
    value {
      type: DT_INT32
    }
  }
  attr {
    key: "_class"
    value {
      list {
        s: "loc:@recurrent_kernel_1"
      }
    }
  }
  attr {
    key: "_output_shapes"
    value {
      list {
        shape {
          dim {
            size: 64
          }
          dim {
            size: 192
          }
        }
      }
    }
  }
}
node {
  name: "recurrent_kernel_1/Initializer/mul_1/x"
  op: "Const"
  attr {
    key: "_class"
    value {
      list {
        s: "loc:@recurrent_kernel_1"
      }
    }
  }
  attr {
    key: "_output_shapes"
    value {
      list {
        shape {
        }
      }
    }
  }
  attr {
    key: "dtype"
    value {
      type: DT_FLOAT
    }
  }
  attr {
    key: "value"
    value {
      tensor {
        dtype: DT_FLOAT
        tensor_shape {
        }
        float_val: 1.0
      }
    }
  }
}
node {
  name: "recurrent_kernel_1/Initializer/mul_1"
  op: "Mul"
  input: "recurrent_kernel_1/Initializer/mul_1/x"
  input: "recurrent_kernel_1/Initializer/Reshape"
  attr {
    key: "T"
    value {
      type: DT_FLOAT
    }
  }
  attr {
    key: "_class"
    value {
      list {
        s: "loc:@recurrent_kernel_1"
      }
    }
  }
  attr {
    key: "_output_shapes"
    value {
      list {
        shape {
          dim {
            size: 64
          }
          dim {
            size: 192
          }
        }
      }
    }
  }
}
node {
  name: "recurrent_kernel_1"
  op: "VarHandleOp"
  attr {
    key: "_class"
    value {
      list {
        s: "loc:@recurrent_kernel_1"
      }
    }
  }
  attr {
    key: "_output_shapes"
    value {
      list {
        shape {
        }
      }
    }
  }
  attr {
    key: "container"
    value {
      s: ""
    }
  }
  attr {
    key: "dtype"
    value {
      type: DT_FLOAT
    }
  }
  attr {
    key: "shape"
    value {
      shape {
        dim {
          size: 64
        }
        dim {
          size: 192
        }
      }
    }
  }
  attr {
    key: "shared_name"
    value {
      s: "recurrent_kernel_1"
    }
  }
}
node {
  name: "recurrent_kernel_1/IsInitialized/VarIsInitializedOp"
  op: "VarIsInitializedOp"
  input: "recurrent_kernel_1"
  attr {
    key: "_output_shapes"
    value {
      list {
        shape {
        }
      }
    }
  }
}
node {
  name: "recurrent_kernel_1/Assign"
  op: "AssignVariableOp"
  input: "recurrent_kernel_1"
  input: "recurrent_kernel_1/Initializer/mul_1"
  attr {
    key: "_class"
    value {
      list {
        s: "loc:@recurrent_kernel_1"
      }
    }
  }
  attr {
    key: "dtype"
    value {
      type: DT_FLOAT
    }
  }
}
node {
  name: "recurrent_kernel_1/Read/ReadVariableOp"
  op: "ReadVariableOp"
  input: "recurrent_kernel_1"
  attr {
    key: "_class"
    value {
      list {
        s: "loc:@recurrent_kernel_1"
      }
    }
  }
  attr {
    key: "_output_shapes"
    value {
      list {
        shape {
          dim {
            size: 64
          }
          dim {
            size: 192
          }
        }
      }
    }
  }
  attr {
    key: "dtype"
    value {
      type: DT_FLOAT
    }
  }
}
node {
  name: "bias_1/Initializer/zeros"
  op: "Const"
  attr {
    key: "_class"
    value {
      list {
        s: "loc:@bias_1"
      }
    }
  }
  attr {
    key: "_output_shapes"
    value {
      list {
        shape {
          dim {
            size: 192
          }
        }
      }
    }
  }
  attr {
    key: "dtype"
    value {
      type: DT_FLOAT
    }
  }
  attr {
    key: "value"
    value {
      tensor {
        dtype: DT_FLOAT
        tensor_shape {
          dim {
            size: 192
          }
        }
        float_val: 0.0
      }
    }
  }
}
node {
  name: "bias_1"
  op: "VarHandleOp"
  attr {
    key: "_class"
    value {
      list {
        s: "loc:@bias_1"
      }
    }
  }
  attr {
    key: "_output_shapes"
    value {
      list {
        shape {
        }
      }
    }
  }
  attr {
    key: "container"
    value {
      s: ""
    }
  }
  attr {
    key: "dtype"
    value {
      type: DT_FLOAT
    }
  }
  attr {
    key: "shape"
    value {
      shape {
        dim {
          size: 192
        }
      }
    }
  }
  attr {
    key: "shared_name"
    value {
      s: "bias_1"
    }
  }
}
node {
  name: "bias_1/IsInitialized/VarIsInitializedOp"
  op: "VarIsInitializedOp"
  input: "bias_1"
  attr {
    key: "_output_shapes"
    value {
      list {
        shape {
        }
      }
    }
  }
}
node {
  name: "bias_1/Assign"
  op: "AssignVariableOp"
  input: "bias_1"
  input: "bias_1/Initializer/zeros"
  attr {
    key: "_class"
    value {
      list {
        s: "loc:@bias_1"
      }
    }
  }
  attr {
    key: "dtype"
    value {
      type: DT_FLOAT
    }
  }
}
node {
  name: "bias_1/Read/ReadVariableOp"
  op: "ReadVariableOp"
  input: "bias_1"
  attr {
    key: "_class"
    value {
      list {
        s: "loc:@bias_1"
      }
    }
  }
  attr {
    key: "_output_shapes"
    value {
      list {
        shape {
          dim {
            size: 192
          }
        }
      }
    }
  }
  attr {
    key: "dtype"
    value {
      type: DT_FLOAT
    }
  }
}
node {
  name: "Placeholder"
  op: "Placeholder"
  attr {
    key: "_output_shapes"
    value {
      list {
        shape {
          dim {
            size: -1
          }
          dim {
            size: 64
          }
        }
      }
    }
  }
  attr {
    key: "dtype"
    value {
      type: DT_FLOAT
    }
  }
  attr {
    key: "shape"
    value {
      shape {
        dim {
          size: -1
        }
        dim {
          size: 64
        }
      }
    }
  }
}
node {
  name: "dense/kernel/Initializer/truncated_normal/shape"
  op: "Const"
  attr {
    key: "_class"
    value {
      list {
        s: "loc:@dense/kernel"
      }
    }
  }
  attr {
    key: "_output_shapes"
    value {
      list {
        shape {
          dim {
            size: 2
          }
        }
      }
    }
  }
  attr {
    key: "dtype"
    value {
      type: DT_INT32
    }
  }
  attr {
    key: "value"
    value {
      tensor {
        dtype: DT_INT32
        tensor_shape {
          dim {
            size: 2
          }
        }
        tensor_content: "@\000\000\000\000\001\000\000"
      }
    }
  }
}
node {
  name: "dense/kernel/Initializer/truncated_normal/mean"
  op: "Const"
  attr {
    key: "_class"
    value {
      list {
        s: "loc:@dense/kernel"
      }
    }
  }
  attr {
    key: "_output_shapes"
    value {
      list {
        shape {
        }
      }
    }
  }
  attr {
    key: "dtype"
    value {
      type: DT_FLOAT
    }
  }
  attr {
    key: "value"
    value {
      tensor {
        dtype: DT_FLOAT
        tensor_shape {
        }
        float_val: 0.0
      }
    }
  }
}
node {
  name: "dense/kernel/Initializer/truncated_normal/stddev"
  op: "Const"
  attr {
    key: "_class"
    value {
      list {
        s: "loc:@dense/kernel"
      }
    }
  }
  attr {
    key: "_output_shapes"
    value {
      list {
        shape {
        }
      }
    }
  }
  attr {
    key: "dtype"
    value {
      type: DT_FLOAT
    }
  }
  attr {
    key: "value"
    value {
      tensor {
        dtype: DT_FLOAT
        tensor_shape {
        }
        float_val: 0.20096810162067413
      }
    }
  }
}
node {
  name: "dense/kernel/Initializer/truncated_normal/TruncatedNormal"
  op: "TruncatedNormal"
  input: "dense/kernel/Initializer/truncated_normal/shape"
  attr {
    key: "T"
    value {
      type: DT_INT32
    }
  }
  attr {
    key: "_class"
    value {
      list {
        s: "loc:@dense/kernel"
      }
    }
  }
  attr {
    key: "_output_shapes"
    value {
      list {
        shape {
          dim {
            size: 64
          }
          dim {
            size: 256
          }
        }
      }
    }
  }
  attr {
    key: "dtype"
    value {
      type: DT_FLOAT
    }
  }
  attr {
    key: "seed"
    value {
      i: 0
    }
  }
  attr {
    key: "seed2"
    value {
      i: 0
    }
  }
}
node {
  name: "dense/kernel/Initializer/truncated_normal/mul"
  op: "Mul"
  input: "dense/kernel/Initializer/truncated_normal/TruncatedNormal"
  input: "dense/kernel/Initializer/truncated_normal/stddev"
  attr {
    key: "T"
    value {
      type: DT_FLOAT
    }
  }
  attr {
    key: "_class"
    value {
      list {
        s: "loc:@dense/kernel"
      }
    }
  }
  attr {
    key: "_output_shapes"
    value {
      list {
        shape {
          dim {
            size: 64
          }
          dim {
            size: 256
          }
        }
      }
    }
  }
}
node {
  name: "dense/kernel/Initializer/truncated_normal"
  op: "Add"
  input: "dense/kernel/Initializer/truncated_normal/mul"
  input: "dense/kernel/Initializer/truncated_normal/mean"
  attr {
    key: "T"
    value {
      type: DT_FLOAT
    }
  }
  attr {
    key: "_class"
    value {
      list {
        s: "loc:@dense/kernel"
      }
    }
  }
  attr {
    key: "_output_shapes"
    value {
      list {
        shape {
          dim {
            size: 64
          }
          dim {
            size: 256
          }
        }
      }
    }
  }
}
node {
  name: "dense/kernel"
  op: "VarHandleOp"
  attr {
    key: "_class"
    value {
      list {
        s: "loc:@dense/kernel"
      }
    }
  }
  attr {
    key: "_output_shapes"
    value {
      list {
        shape {
        }
      }
    }
  }
  attr {
    key: "container"
    value {
      s: ""
    }
  }
  attr {
    key: "dtype"
    value {
      type: DT_FLOAT
    }
  }
  attr {
    key: "shape"
    value {
      shape {
        dim {
          size: 64
        }
        dim {
          size: 256
        }
      }
    }
  }
  attr {
    key: "shared_name"
    value {
      s: "dense/kernel"
    }
  }
}
node {
  name: "dense/kernel/IsInitialized/VarIsInitializedOp"
  op: "VarIsInitializedOp"
  input: "dense/kernel"
  attr {
    key: "_output_shapes"
    value {
      list {
        shape {
        }
      }
    }
  }
}
node {
  name: "dense/kernel/Assign"
  op: "AssignVariableOp"
  input: "dense/kernel"
  input: "dense/kernel/Initializer/truncated_normal"
  attr {
    key: "_class"
    value {
      list {
        s: "loc:@dense/kernel"
      }
    }
  }
  attr {
    key: "dtype"
    value {
      type: DT_FLOAT
    }
  }
}
node {
  name: "dense/kernel/Read/ReadVariableOp"
  op: "ReadVariableOp"
  input: "dense/kernel"
  attr {
    key: "_class"
    value {
      list {
        s: "loc:@dense/kernel"
      }
    }
  }
  attr {
    key: "_output_shapes"
    value {
      list {
        shape {
          dim {
            size: 64
          }
          dim {
            size: 256
          }
        }
      }
    }
  }
  attr {
    key: "dtype"
    value {
      type: DT_FLOAT
    }
  }
}
node {
  name: "dense/bias/Initializer/zeros"
  op: "Const"
  attr {
    key: "_class"
    value {
      list {
        s: "loc:@dense/bias"
      }
    }
  }
  attr {
    key: "_output_shapes"
    value {
      list {
        shape {
          dim {
            size: 256
          }
        }
      }
    }
  }
  attr {
    key: "dtype"
    value {
      type: DT_FLOAT
    }
  }
  attr {
    key: "value"
    value {
      tensor {
        dtype: DT_FLOAT
        tensor_shape {
          dim {
            size: 256
          }
        }
        float_val: 0.0
      }
    }
  }
}
node {
  name: "dense/bias"
  op: "VarHandleOp"
  attr {
    key: "_class"
    value {
      list {
        s: "loc:@dense/bias"
      }
    }
  }
  attr {
    key: "_output_shapes"
    value {
      list {
        shape {
        }
      }
    }
  }
  attr {
    key: "container"
    value {
      s: ""
    }
  }
  attr {
    key: "dtype"
    value {
      type: DT_FLOAT
    }
  }
  attr {
    key: "shape"
    value {
      shape {
        dim {
          size: 256
        }
      }
    }
  }
  attr {
    key: "shared_name"
    value {
      s: "dense/bias"
    }
  }
}
node {
  name: "dense/bias/IsInitialized/VarIsInitializedOp"
  op: "VarIsInitializedOp"
  input: "dense/bias"
  attr {
    key: "_output_shapes"
    value {
      list {
        shape {
        }
      }
    }
  }
}
node {
  name: "dense/bias/Assign"
  op: "AssignVariableOp"
  input: "dense/bias"
  input: "dense/bias/Initializer/zeros"
  attr {
    key: "_class"
    value {
      list {
        s: "loc:@dense/bias"
      }
    }
  }
  attr {
    key: "dtype"
    value {
      type: DT_FLOAT
    }
  }
}
node {
  name: "dense/bias/Read/ReadVariableOp"
  op: "ReadVariableOp"
  input: "dense/bias"
  attr {
    key: "_class"
    value {
      list {
        s: "loc:@dense/bias"
      }
    }
  }
  attr {
    key: "_output_shapes"
    value {
      list {
        shape {
          dim {
            size: 256
          }
        }
      }
    }
  }
  attr {
    key: "dtype"
    value {
      type: DT_FLOAT
    }
  }
}
node {
  name: "dense/MatMul/ReadVariableOp"
  op: "ReadVariableOp"
  input: "dense/kernel"
  attr {
    key: "_output_shapes"
    value {
      list {
        shape {
          dim {
            size: 64
          }
          dim {
            size: 256
          }
        }
      }
    }
  }
  attr {
    key: "dtype"
    value {
      type: DT_FLOAT
    }
  }
}
node {
  name: "dense/MatMul"
  op: "MatMul"
  input: "Placeholder"
  input: "dense/MatMul/ReadVariableOp"
  attr {
    key: "T"
    value {
      type: DT_FLOAT
    }
  }
  attr {
    key: "_output_shapes"
    value {
      list {
        shape {
          dim {
            size: -1
          }
          dim {
            size: 256
          }
        }
      }
    }
  }
  attr {
    key: "transpose_a"
    value {
      b: false
    }
  }
  attr {
    key: "transpose_b"
    value {
      b: false
    }
  }
}
node {
  name: "dense/BiasAdd/ReadVariableOp"
  op: "ReadVariableOp"
  input: "dense/bias"
  attr {
    key: "_output_shapes"
    value {
      list {
        shape {
          dim {
            size: 256
          }
        }
      }
    }
  }
  attr {
    key: "dtype"
    value {
      type: DT_FLOAT
    }
  }
}
node {
  name: "dense/BiasAdd"
  op: "BiasAdd"
  input: "dense/MatMul"
  input: "dense/BiasAdd/ReadVariableOp"
  attr {
    key: "T"
    value {
      type: DT_FLOAT
    }
  }
  attr {
    key: "_output_shapes"
    value {
      list {
        shape {
          dim {
            size: -1
          }
          dim {
            size: 256
          }
        }
      }
    }
  }
  attr {
    key: "data_format"
    value {
      s: "NHWC"
    }
  }
}
node {
  name: "dense/LeakyRelu"
  op: "LeakyRelu"
  input: "dense/BiasAdd"
  attr {
    key: "T"
    value {
      type: DT_FLOAT
    }
  }
  attr {
    key: "_output_shapes"
    value {
      list {
        shape {
          dim {
            size: -1
          }
          dim {
            size: 256
          }
        }
      }
    }
  }
  attr {
    key: "alpha"
    value {
      f: 0.20000000298023224
    }
  }
}
node {
  name: "keras_learning_phase/input"
  op: "Const"
  attr {
    key: "_output_shapes"
    value {
      list {
        shape {
        }
      }
    }
  }
  attr {
    key: "dtype"
    value {
      type: DT_BOOL
    }
  }
  attr {
    key: "value"
    value {
      tensor {
…
    node_def {
      name: "parse/SparseToDense_5/default_value"
      op: "Const"
      device: "/device:CPU:0"
      attr {
        key: "_output_shapes"
        value {
          list {
            shape {
            }
          }
        }
      }
      attr {
        key: "dtype"
        value {
          type: DT_INT64
        }
      }
      attr {
        key: "value"
        value {
          tensor {
            dtype: DT_INT64
            tensor_shape {
            }
            int64_val: 0
          }
        }
      }
    }
    node_def {
      name: "parse/SparseToDense_5"
      op: "SparseToDense"
      input: "parse/ParseSingleExample/ParseSingleExample:sparse_indices:4"
      input: "parse/ParseSingleExample/ParseSingleExample:sparse_shapes:4"
      input: "parse/ParseSingleExample/ParseSingleExample:sparse_values:4"
      input: "parse/SparseToDense_5/default_value:output:0"
      device: "/device:CPU:0"
      attr {
        key: "T"
        value {
          type: DT_INT64
        }
      }
      attr {
        key: "Tindices"
        value {
          type: DT_INT64
        }
      }
      attr {
        key: "_output_shapes"
        value {
          list {
            shape {
              dim {
                size: -1
              }
            }
          }
        }
      }
      attr {
        key: "validate_indices"
        value {
          b: true
        }
      }
    }
    node_def {
      name: "Identity"
      op: "Identity"
      input: "parse/SparseToDense_2:dense:0"
      attr {
        key: "T"
        value {
          type: DT_FLOAT
        }
      }
      attr {
        key: "_output_shapes"
        value {
          list {
            shape {
              dim {
                size: -1
              }
            }
          }
        }
      }
    }
    node_def {
      name: "Identity_1"
      op: "Identity"
      input: "parse/SparseToDense_3:dense:0"
      attr {
        key: "T"
        value {
          type: DT_INT64
        }
      }
      attr {
        key: "_output_shapes"
        value {
          list {
            shape {
              dim {
                size: -1
              }
            }
          }
        }
      }
    }
    node_def {
      name: "Identity_2"
      op: "Identity"
      input: "parse/ParseSingleExample/ParseSingleExample:dense_values:0"
      attr {
        key: "T"
        value {
          type: DT_INT64
        }
      }
      attr {
        key: "_output_shapes"
        value {
          list {
            shape {
            }
          }
        }
      }
    }
    node_def {
      name: "Identity_3"
      op: "Identity"
      input: "parse/ParseSingleExample/ParseSingleExample:dense_values:1"
      attr {
        key: "T"
        value {
          type: DT_INT64
        }
      }
      attr {
        key: "_output_shapes"
        value {
          list {
            shape {
            }
          }
        }
      }
    }
    node_def {
      name: "Identity_4"
      op: "Identity"
      input: "parse/ParseSingleExample/ParseSingleExample:dense_values:2"
      attr {
        key: "T"
        value {
          type: DT_INT64
        }
      }
      attr {
        key: "_output_shapes"
        value {
          list {
            shape {
            }
          }
        }
      }
    }
    node_def {
      name: "Identity_5"
      op: "Identity"
      input: "parse/SparseToDense_4:dense:0"
      attr {
        key: "T"
        value {
          type: DT_INT64
        }
      }
      attr {
        key: "_output_shapes"
        value {
          list {
            shape {
              dim {
                size: -1
              }
            }
          }
        }
      }
    }
    node_def {
      name: "Identity_6"
      op: "Identity"
      input: "parse/SparseToDense_5:dense:0"
      attr {
        key: "T"
        value {
          type: DT_INT64
        }
      }
      attr {
        key: "_output_shapes"
        value {
          list {
            shape {
              dim {
                size: -1
              }
            }
          }
        }
      }
    }
    node_def {
      name: "Identity_7"
      op: "Identity"
      input: "parse/SparseToDense:dense:0"
      attr {
        key: "T"
        value {
          type: DT_FLOAT
        }
      }
      attr {
        key: "_output_shapes"
        value {
          list {
            shape {
              dim {
                size: -1
              }
            }
          }
        }
      }
    }
    node_def {
      name: "Identity_8"
      op: "Identity"
      input: "parse/SparseToDense_1:dense:0"
      attr {
        key: "T"
        value {
          type: DT_FLOAT
        }
      }
      attr {
        key: "_output_shapes"
        value {
          list {
            shape {
              dim {
                size: -1
              }
            }
          }
        }
      }
    }
    ret {
      key: "identity"
      value: "Identity:output:0"
    }
    ret {
      key: "identity_1"
      value: "Identity_1:output:0"
    }
    ret {
      key: "identity_2"
      value: "Identity_2:output:0"
    }
    ret {
      key: "identity_3"
      value: "Identity_3:output:0"
    }
    ret {
      key: "identity_4"
      value: "Identity_4:output:0"
    }
    ret {
      key: "identity_5"
      value: "Identity_5:output:0"
    }
    ret {
      key: "identity_6"
      value: "Identity_6:output:0"
    }
    ret {
      key: "identity_7"
      value: "Identity_7:output:0"
    }
    ret {
      key: "identity_8"
      value: "Identity_8:output:0"
    }
    attr {
      key: "_input_shapes"
      value {
        list {
          shape {
          }
        }
      }
    }
    arg_attr {
      value {
        attr {
          key: "_user_specified_name"
          value {
            s: "args_0"
          }
        }
      }
    }
  }
  function {
    signature {
      name: "__inference_tf_data_experimental_parallel_interleave_<class \'abc.ABCMeta\'>_40"
      input_arg {
        name: "args_0"
        type: DT_STRING
      }
      output_arg {
        name: "identity"
        type: DT_VARIANT
      }
      is_stateful: true
      control_output: "TensorSliceDataset"
    }
    node_def {
      name: "flat_filenames/shape"
      op: "Const"
      attr {
        key: "_output_shapes"
        value {
          list {
            shape {
              dim {
                size: 1
              }
            }
          }
        }
      }
      attr {
        key: "dtype"
        value {
          type: DT_INT32
        }
      }
      attr {
        key: "value"
        value {
          tensor {
            dtype: DT_INT32
            tensor_shape {
              dim {
                size: 1
              }
            }
            int_val: -1
          }
        }
      }
    }
    node_def {
      name: "flat_filenames"
      op: "Reshape"
      input: "args_0"
      input: "flat_filenames/shape:output:0"
      attr {
        key: "T"
        value {
          type: DT_STRING
        }
      }
      attr {
        key: "Tshape"
        value {
          type: DT_INT32
        }
      }
      attr {
        key: "_output_shapes"
        value {
          list {
            shape {
              dim {
                size: 1
              }
            }
          }
        }
      }
    }
    node_def {
      name: "TensorSliceDataset"
      op: "TensorSliceDataset"
      input: "flat_filenames:output:0"
      attr {
        key: "Toutput_types"
        value {
          list {
            type: DT_STRING
          }
        }
      }
      attr {
        key: "_output_shapes"
        value {
          list {
            shape {
            }
          }
        }
      }
      attr {
        key: "output_shapes"
        value {
          list {
            shape {
            }
          }
        }
      }
    }
    node_def {
      name: "FlatMapDataset"
      op: "FlatMapDataset"
      input: "TensorSliceDataset:handle:0"
      attr {
        key: "Targuments"
        value {
          list {
          }
        }
      }
      attr {
        key: "_output_shapes"
        value {
          list {
            shape {
            }
          }
        }
      }
      attr {
        key: "f"
        value {
          func {
            name: "__inference_Dataset_flat_map_read_one_file_37"
          }
        }
      }
      attr {
        key: "output_shapes"
        value {
          list {
            shape {
            }
          }
        }
      }
      attr {
        key: "output_types"
        value {
          list {
            type: DT_STRING
          }
        }
      }
    }
    node_def {
      name: "Identity"
      op: "Identity"
      input: "FlatMapDataset:handle:0"
      input: "^TensorSliceDataset"
      attr {
        key: "T"
        value {
          type: DT_VARIANT
        }
      }
      attr {
        key: "_output_shapes"
        value {
          list {
            shape {
            }
          }
        }
      }
    }
    ret {
      key: "identity"
      value: "Identity:output:0"
    }
    attr {
      key: "_input_shapes"
      value {
        list {
          shape {
          }
        }
      }
    }
    control_ret {
      key: "TensorSliceDataset"
      value: "TensorSliceDataset"
    }
    arg_attr {
      value {
        attr {
          key: "_user_specified_name"
          value {
            s: "args_0"
          }
        }
      }
    }
  }
  function {
    signature {
      name: "__inference_Dataset_flat_map_read_one_file_37"
      input_arg {
        name: "args_0"
        type: DT_STRING
      }
      output_arg {
        name: "identity"
        type: DT_VARIANT
      }
      is_stateful: true
      control_output: "TFRecordDataset"
    }
    node_def {
      name: "compression_type"
      op: "Const"
      attr {
        key: "_output_shapes"
        value {
          list {
            shape {
            }
          }
        }
      }
      attr {
        key: "dtype"
        value {
          type: DT_STRING
        }
      }
      attr {
        key: "value"
        value {
          tensor {
            dtype: DT_STRING
            tensor_shape {
            }
            string_val: ""
          }
        }
      }
    }
    node_def {
      name: "buffer_size"
      op: "Const"
      attr {
        key: "_output_shapes"
        value {
          list {
            shape {
            }
          }
        }
      }
      attr {
        key: "dtype"
        value {
          type: DT_INT64
        }
      }
      attr {
        key: "value"
        value {
          tensor {
            dtype: DT_INT64
            tensor_shape {
            }
            int64_val: 262144
          }
        }
      }
    }
    node_def {
      name: "TFRecordDataset"
      op: "TFRecordDataset"
      input: "args_0"
      input: "compression_type:output:0"
      input: "buffer_size:output:0"
      attr {
        key: "_output_shapes"
        value {
          list {
            shape {
            }
          }
        }
      }
    }
    node_def {
      name: "Identity"
      op: "Identity"
      input: "TFRecordDataset:handle:0"
      input: "^TFRecordDataset"
      attr {
        key: "T"
        value {
          type: DT_VARIANT
        }
      }
      attr {
        key: "_output_shapes"
        value {
          list {
            shape {
            }
          }
        }
      }
    }
    ret {
      key: "identity"
      value: "Identity:output:0"
    }
    attr {
      key: "_input_shapes"
      value {
        list {
          shape {
          }
        }
      }
    }
    control_ret {
      key: "TFRecordDataset"
      value: "TFRecordDataset"
    }
    arg_attr {
      value {
        attr {
          key: "_user_specified_name"
          value {
            s: "args_0"
          }
        }
      }
    }
  }
  function {
    signature {
      name: "_make_dataset_lBp6ShTBAu8"
      output_arg {
        name: "modeldataset"
        type: DT_VARIANT
      }
      description: "Factory function for a dataset."
      is_stateful: true
    }
    node_def {
      name: "optimizations"
      op: "Const"
      device: "/device:CPU:0"
      attr {
        key: "dtype"
        value {
          type: DT_STRING
        }
      }
      attr {
        key: "value"
        value {
          tensor {
            dtype: DT_STRING
            tensor_shape {
              dim {
                size: 3
              }
            }
            string_val: "map_and_batch_fusion"
            string_val: "noop_elimination"
            string_val: "shuffle_and_repeat_fusion"
          }
        }
      }
    }
    node_def {
      name: "OptimizeDataset/tensors/normalize_tensors/component_0"
      op: "Const"
      device: "/device:CPU:0"
      attr {
        key: "dtype"
        value {
          type: DT_STRING
        }
      }
      attr {
        key: "value"
        value {
          tensor {
            dtype: DT_STRING
            tensor_shape {
              dim {
                size: 345
              }
            }
            string_val: "topology/tfrecords/mix/1001.tfrecords"
            string_val: "topology/tfrecords/mix/1002.tfrecords"
            string_val: "topology/tfrecords/mix/1003.tfrecords"
            string_val: "topology/tfrecords/mix/1005.tfrecords"
            string_val: "topology/tfrecords/mix/1006.tfrecords"
            string_val: "topology/tfrecords/mix/1007.tfrecords"
            string_val: "topology/tfrecords/mix/1008.tfrecords"
            string_val: "topology/tfrecords/mix/1009.tfrecords"
            string_val: "topology/tfrecords/mix/100.tfrecords"
            string_val: "topology/tfrecords/mix/1010.tfrecords"
            string_val: "topology/tfrecords/mix/1011.tfrecords"
            string_val: "topology/tfrecords/mix/1013.tfrecords"
            string_val: "topology/tfrecords/mix/1014.tfrecords"
            string_val: "topology/tfrecords/mix/1016.tfrecords"
            string_val: "topology/tfrecords/mix/1017.tfrecords"
            string_val: "topology/tfrecords/mix/1018.tfrecords"
            string_val: "topology/tfrecords/mix/1019.tfrecords"
            string_val: "topology/tfrecords/mix/101.tfrecords"
            string_val: "topology/tfrecords/mix/1021.tfrecords"
            string_val: "topology/tfrecords/mix/1022.tfrecords"
            string_val: "topology/tfrecords/mix/1023.tfrecords"
            string_val: "topology/tfrecords/mix/1024.tfrecords"
            string_val: "topology/tfrecords/mix/1026.tfrecords"
            string_val: "topology/tfrecords/mix/1027.tfrecords"
            string_val: "topology/tfrecords/mix/1028.tfrecords"
            string_val: "topology/tfrecords/mix/1029.tfrecords"
            string_val: "topology/tfrecords/mix/102.tfrecords"
            string_val: "topology/tfrecords/mix/1030.tfrecords"
            string_val: "topology/tfrecords/mix/1031.tfrecords"
            string_val: "topology/tfrecords/mix/1032.tfrecords"
            string_val: "topology/tfrecords/mix/1033.tfrecords"
            string_val: "topology/tfrecords/mix/1034.tfrecords"
            string_val: "topology/tfrecords/mix/1035.tfrecords"
            string_val: "topology/tfrecords/mix/1036.tfrecords"
            string_val: "topology/tfrecords/mix/1038.tfrecords"
            string_val: "topology/tfrecords/mix/1039.tfrecords"
            string_val: "topology/tfrecords/mix/1040.tfrecords"
            string_val: "topology/tfrecords/mix/1041.tfrecords"
            string_val: "topology/tfrecords/mix/1042.tfrecords"
            string_val: "topology/tfrecords/mix/1043.tfrecords"
            string_val: "topology/tfrecords/mix/1045.tfrecords"
            string_val: "topology/tfrecords/mix/1048.tfrecords"
            string_val: "topology/tfrecords/mix/1049.tfrecords"
            string_val: "topology/tfrecords/mix/104.tfrecords"
            string_val: "topology/tfrecords/mix/1051.tfrecords"
            string_val: "topology/tfrecords/mix/1052.tfrecords"
            string_val: "topology/tfrecords/mix/1053.tfrecords"
            string_val: "topology/tfrecords/mix/1054.tfrecords"
            string_val: "topology/tfrecords/mix/1055.tfrecords"
            string_val: "topology/tfrecords/mix/1056.tfrecords"
            string_val: "topology/tfrecords/mix/1058.tfrecords"
            string_val: "topology/tfrecords/mix/1059.tfrecords"
            string_val: "topology/tfrecords/mix/105.tfrecords"
            string_val: "topology/tfrecords/mix/1060.tfrecords"
            string_val: "topology/tfrecords/mix/1061.tfrecords"
            string_val: "topology/tfrecords/mix/1062.tfrecords"
            string_val: "topology/tfrecords/mix/1063.tfrecords"
            string_val: "topology/tfrecords/mix/1064.tfrecords"
            string_val: "topology/tfrecords/mix/1066.tfrecords"
            string_val: "topology/tfrecords/mix/1067.tfrecords"
            string_val: "topology/tfrecords/mix/1068.tfrecords"
            string_val: "topology/tfrecords/mix/1069.tfrecords"
            string_val: "topology/tfrecords/mix/106.tfrecords"
            string_val: "topology/tfrecords/mix/1070.tfrecords"
            string_val: "topology/tfrecords/mix/1072.tfrecords"
            string_val: "topology/tfrecords/mix/1074.tfrecords"
            string_val: "topology/tfrecords/mix/1075.tfrecords"
            string_val: "topology/tfrecords/mix/1076.tfrecords"
            string_val: "topology/tfrecords/mix/1077.tfrecords"
            string_val: "topology/tfrecords/mix/1078.tfrecords"
            string_val: "topology/tfrecords/mix/1079.tfrecords"
            string_val: "topology/tfrecords/mix/107.tfrecords"
            string_val: "topology/tfrecords/mix/1080.tfrecords"
            string_val: "topology/tfrecords/mix/1081.tfrecords"
            string_val: "topology/tfrecords/mix/1083.tfrecords"
            string_val: "topology/tfrecords/mix/1085.tfrecords"
            string_val: "topology/tfrecords/mix/1086.tfrecords"
            string_val: "topology/tfrecords/mix/1087.tfrecords"
            string_val: "topology/tfrecords/mix/1089.tfrecords"
            string_val: "topology/tfrecords/mix/108.tfrecords"
            string_val: "topology/tfrecords/mix/1090.tfrecords"
            string_val: "topology/tfrecords/mix/1091.tfrecords"
            string_val: "topology/tfrecords/mix/1092.tfrecords"
            string_val: "topology/tfrecords/mix/1093.tfrecords"
            string_val: "topology/tfrecords/mix/1095.tfrecords"
            string_val: "topology/tfrecords/mix/1096.tfrecords"
            string_val: "topology/tfrecords/mix/1097.tfrecords"
            string_val: "topology/tfrecords/mix/1099.tfrecords"
            string_val: "topology/tfrecords/mix/109.tfrecords"
            string_val: "topology/tfrecords/mix/10.tfrecords"
            string_val: "topology/tfrecords/mix/1100.tfrecords"
            string_val: "topology/tfrecords/mix/1102.tfrecords"
            string_val: "topology/tfrecords/mix/1104.tfrecords"
            string_val: "topology/tfrecords/mix/1106.tfrecords"
            string_val: "topology/tfrecords/mix/1107.tfrecords"
            string_val: "topology/tfrecords/mix/1108.tfrecords"
            string_val: "topology/tfrecords/mix/110.tfrecords"
            string_val: "topology/tfrecords/mix/1111.tfrecords"
            string_val: "topology/tfrecords/mix/1112.tfrecords"
            string_val: "topology/tfrecords/mix/1113.tfrecords"
            string_val: "topology/tfrecords/mix/1114.tfrecords"
            string_val: "topology/tfrecords/mix/1115.tfrecords"
            string_val: "topology/tfrecords/mix/1116.tfrecords"
            string_val: "topology/tfrecords/mix/1117.tfrecords"
            string_val: "topology/tfrecords/mix/1118.tfrecords"
            string_val: "topology/tfrecords/mix/1119.tfrecords"
            string_val: "topology/tfrecords/mix/111.tfrecords"
            string_val: "topology/tfrecords/mix/1120.tfrecords"
            string_val: "topology/tfrecords/mix/1122.tfrecords"
            string_val: "topology/tfrecords/mix/1123.tfrecords"
            string_val: "topology/tfrecords/mix/1124.tfrecords"
            string_val: "topology/tfrecords/mix/1126.tfrecords"
            string_val: "topology/tfrecords/mix/1127.tfrecords"
            string_val: "topology/tfrecords/mix/1128.tfrecords"
            string_val: "topology/tfrecords/mix/112.tfrecords"
            string_val: "topology/tfrecords/mix/1132.tfrecords"
            string_val: "topology/tfrecords/mix/1133.tfrecords"
            string_val: "topology/tfrecords/mix/1134.tfrecords"
            string_val: "topology/tfrecords/mix/1135.tfrecords"
            string_val: "topology/tfrecords/mix/1136.tfrecords"
            string_val: "topology/tfrecords/mix/1137.tfrecords"
            string_val: "topology/tfrecords/mix/1138.tfrecords"
            string_val: "topology/tfrecords/mix/1139.tfrecords"
            string_val: "topology/tfrecords/mix/113.tfrecords"
            string_val: "topology/tfrecords/mix/1140.tfrecords"
            string_val: "topology/tfrecords/mix/1142.tfrecords"
            string_val: "topology/tfrecords/mix/1144.tfrecords"
            string_val: "topology/tfrecords/mix/1145.tfrecords"
            string_val: "topology/tfrecords/mix/1146.tfrecords"
            string_val: "topology/tfrecords/mix/1147.tfrecords"
            string_val: "topology/tfrecords/mix/1148.tfrecords"
            string_val: "topology/tfrecords/mix/1149.tfrecords"
            string_val: "topology/tfrecords/mix/114.tfrecords"
            string_val: "topology/tfrecords/mix/1151.tfrecords"
            string_val: "topology/tfrecords/mix/1152.tfrecords"
            string_val: "topology/tfrecords/mix/1153.tfrecords"
            string_val: "topology/tfrecords/mix/1155.tfrecords"
            string_val: "topology/tfrecords/mix/1157.tfrecords"
            string_val: "topology/tfrecords/mix/1158.tfrecords"
            string_val: "topology/tfrecords/mix/1159.tfrecords"
            string_val: "topology/tfrecords/mix/115.tfrecords"
            string_val: "topology/tfrecords/mix/1160.tfrecords"
            string_val: "topology/tfrecords/mix/1161.tfrecords"
            string_val: "topology/tfrecords/mix/1162.tfrecords"
            string_val: "topology/tfrecords/mix/1165.tfrecords"
            string_val: "topology/tfrecords/mix/1166.tfrecords"
            string_val: "topology/tfrecords/mix/1167.tfrecords"
            string_val: "topology/tfrecords/mix/1169.tfrecords"
            string_val: "topology/tfrecords/mix/116.tfrecords"
            string_val: "topology/tfrecords/mix/1170.tfrecords"
            string_val: "topology/tfrecords/mix/1171.tfrecords"
            string_val: "topology/tfrecords/mix/1172.tfrecords"
            string_val: "topology/tfrecords/mix/1173.tfrecords"
            string_val: "topology/tfrecords/mix/1176.tfrecords"
            string_val: "topology/tfrecords/mix/1178.tfrecords"
            string_val: "topology/tfrecords/mix/1179.tfrecords"
            string_val: "topology/tfrecords/mix/117.tfrecords"
            string_val: "topology/tfrecords/mix/1180.tfrecords"
            string_val: "topology/tfrecords/mix/1181.tfrecords"
            string_val: "topology/tfrecords/mix/1182.tfrecords"
            string_val: "topology/tfrecords/mix/1184.tfrecords"
            string_val: "topology/tfrecords/mix/1185.tfrecords"
            string_val: "topology/tfrecords/mix/1186.tfrecords"
            string_val: "topology/tfrecords/mix/1187.tfrecords"
            string_val: "topology/tfrecords/mix/1188.tfrecords"
            string_val: "topology/tfrecords/mix/1189.tfrecords"
            string_val: "topology/tfrecords/mix/118.tfrecords"
            string_val: "topology/tfrecords/mix/1190.tfrecords"
            string_val: "topology/tfrecords/mix/1191.tfrecords"
            string_val: "topology/tfrecords/mix/1192.tfrecords"
            string_val: "topology/tfrecords/mix/1193.tfrecords"
            string_val: "topology/tfrecords/mix/1194.tfrecords"
            string_val: "topology/tfrecords/mix/1195.tfrecords"
            string_val: "topology/tfrecords/mix/1196.tfrecords"
            string_val: "topology/tfrecords/mix/1197.tfrecords"
            string_val: "topology/tfrecords/mix/1198.tfrecords"
            string_val: "topology/tfrecords/mix/1199.tfrecords"
            string_val: "topology/tfrecords/mix/119.tfrecords"
            string_val: "topology/tfrecords/mix/11.tfrecords"
            string_val: "topology/tfrecords/mix/1200.tfrecords"
            string_val: "topology/tfrecords/mix/1201.tfrecords"
            string_val: "topology/tfrecords/mix/1202.tfrecords"
            string_val: "topology/tfrecords/mix/1203.tfrecords"
            string_val: "topology/tfrecords/mix/1204.tfrecords"
            string_val: "topology/tfrecords/mix/1206.tfrecords"
            string_val: "topology/tfrecords/mix/1207.tfrecords"
            string_val: "topology/tfrecords/mix/1208.tfrecords"
            string_val: "topology/tfrecords/mix/1209.tfrecords"
            string_val: "topology/tfrecords/mix/120.tfrecords"
            string_val: "topology/tfrecords/mix/1210.tfrecords"
            string_val: "topology/tfrecords/mix/1211.tfrecords"
            string_val: "topology/tfrecords/mix/1212.tfrecords"
            string_val: "topology/tfrecords/mix/1213.tfrecords"
            string_val: "topology/tfrecords/mix/1214.tfrecords"
            string_val: "topology/tfrecords/mix/1215.tfrecords"
            string_val: "topology/tfrecords/mix/1216.tfrecords"
            string_val: "topology/tfrecords/mix/1217.tfrecords"
            string_val: "topology/tfrecords/mix/121.tfrecords"
            string_val: "topology/tfrecords/mix/1220.tfrecords"
            string_val: "topology/tfrecords/mix/1221.tfrecords"
            string_val: "topology/tfrecords/mix/1222.tfrecords"
            string_val: "topology/tfrecords/mix/1223.tfrecords"
            string_val: "topology/tfrecords/mix/122.tfrecords"
            string_val: "topology/tfrecords/mix/123.tfrecords"
            string_val: "topology/tfrecords/mix/124.tfrecords"
            string_val: "topology/tfrecords/mix/125.tfrecords"
            string_val: "topology/tfrecords/mix/126.tfrecords"
            string_val: "topology/tfrecords/mix/127.tfrecords"
            string_val: "topology/tfrecords/mix/12.tfrecords"
            string_val: "topology/tfrecords/mix/130.tfrecords"
            string_val: "topology/tfrecords/mix/131.tfrecords"
            string_val: "topology/tfrecords/mix/132.tfrecords"
            string_val: "topology/tfrecords/mix/133.tfrecords"
            string_val: "topology/tfrecords/mix/135.tfrecords"
            string_val: "topology/tfrecords/mix/136.tfrecords"
            string_val: "topology/tfrecords/mix/137.tfrecords"
            string_val: "topology/tfrecords/mix/138.tfrecords"
            string_val: "topology/tfrecords/mix/139.tfrecords"
            string_val: "topology/tfrecords/mix/13.tfrecords"
            string_val: "topology/tfrecords/mix/140.tfrecords"
            string_val: "topology/tfrecords/mix/141.tfrecords"
            string_val: "topology/tfrecords/mix/142.tfrecords"
            string_val: "topology/tfrecords/mix/143.tfrecords"
            string_val: "topology/tfrecords/mix/145.tfrecords"
            string_val: "topology/tfrecords/mix/146.tfrecords"
            string_val: "topology/tfrecords/mix/147.tfrecords"
            string_val: "topology/tfrecords/mix/148.tfrecords"
            string_val: "topology/tfrecords/mix/151.tfrecords"
            string_val: "topology/tfrecords/mix/154.tfrecords"
            string_val: "topology/tfrecords/mix/155.tfrecords"
            string_val: "topology/tfrecords/mix/156.tfrecords"
            string_val: "topology/tfrecords/mix/157.tfrecords"
            string_val: "topology/tfrecords/mix/158.tfrecords"
            string_val: "topology/tfrecords/mix/15.tfrecords"
            string_val: "topology/tfrecords/mix/160.tfrecords"
            string_val: "topology/tfrecords/mix/162.tfrecords"
            string_val: "topology/tfrecords/mix/163.tfrecords"
            string_val: "topology/tfrecords/mix/164.tfrecords"
            string_val: "topology/tfrecords/mix/165.tfrecords"
            string_val: "topology/tfrecords/mix/167.tfrecords"
            string_val: "topology/tfrecords/mix/168.tfrecords"
            string_val: "topology/tfrecords/mix/171.tfrecords"
            string_val: "topology/tfrecords/mix/173.tfrecords"
            string_val: "topology/tfrecords/mix/174.tfrecords"
            string_val: "topology/tfrecords/mix/175.tfrecords"
            string_val: "topology/tfrecords/mix/176.tfrecords"
            string_val: "topology/tfrecords/mix/177.tfrecords"
            string_val: "topology/tfrecords/mix/178.tfrecords"
            string_val: "topology/tfrecords/mix/179.tfrecords"
            string_val: "topology/tfrecords/mix/17.tfrecords"
            string_val: "topology/tfrecords/mix/180.tfrecords"
            string_val: "topology/tfrecords/mix/181.tfrecords"
            string_val: "topology/tfrecords/mix/183.tfrecords"
            string_val: "topology/tfrecords/mix/184.tfrecords"
            string_val: "topology/tfrecords/mix/185.tfrecords"
            string_val: "topology/tfrecords/mix/186.tfrecords"
            string_val: "topology/tfrecords/mix/187.tfrecords"
            string_val: "topology/tfrecords/mix/188.tfrecords"
            string_val: "topology/tfrecords/mix/189.tfrecords"
            string_val: "topology/tfrecords/mix/191.tfrecords"
            string_val: "topology/tfrecords/mix/192.tfrecords"
            string_val: "topology/tfrecords/mix/193.tfrecords"
            string_val: "topology/tfrecords/mix/194.tfrecords"
            string_val: "topology/tfrecords/mix/195.tfrecords"
            string_val: "topology/tfrecords/mix/197.tfrecords"
            string_val: "topology/tfrecords/mix/198.tfrecords"
            string_val: "topology/tfrecords/mix/199.tfrecords"
            string_val: "topology/tfrecords/mix/19.tfrecords"
            string_val: "topology/tfrecords/mix/1.tfrecords"
            string_val: "topology/tfrecords/mix/20.tfrecords"
            string_val: "topology/tfrecords/mix/21.tfrecords"
            string_val: "topology/tfrecords/mix/22.tfrecords"
            string_val: "topology/tfrecords/mix/23.tfrecords"
            string_val: "topology/tfrecords/mix/24.tfrecords"
            string_val: "topology/tfrecords/mix/25.tfrecords"
            string_val: "topology/tfrecords/mix/26.tfrecords"
            string_val: "topology/tfrecords/mix/27.tfrecords"
            string_val: "topology/tfrecords/mix/28.tfrecords"
            string_val: "topology/tfrecords/mix/29.tfrecords"
            string_val: "topology/tfrecords/mix/2.tfrecords"
            string_val: "topology/tfrecords/mix/30.tfrecords"
            string_val: "topology/tfrecords/mix/31.tfrecords"
            string_val: "topology/tfrecords/mix/32.tfrecords"
            string_val: "topology/tfrecords/mix/33.tfrecords"
            string_val: "topology/tfrecords/mix/34.tfrecords"
            string_val: "topology/tfrecords/mix/35.tfrecords"
            string_val: "topology/tfrecords/mix/37.tfrecords"
            string_val: "topology/tfrecords/mix/38.tfrecords"
            string_val: "topology/tfrecords/mix/39.tfrecords"
            string_val: "topology/tfrecords/mix/3.tfrecords"
            string_val: "topology/tfrecords/mix/40.tfrecords"
            string_val: "topology/tfrecords/mix/41.tfrecords"
            string_val: "topology/tfrecords/mix/42.tfrecords"
            string_val: "topology/tfrecords/mix/44.tfrecords"
            string_val: "topology/tfrecords/mix/45.tfrecords"
            string_val: "topology/tfrecords/mix/46.tfrecords"
            string_val: "topology/tfrecords/mix/48.tfrecords"
            string_val: "topology/tfrecords/mix/4.tfrecords"
            string_val: "topology/tfrecords/mix/50.tfrecords"
            string_val: "topology/tfrecords/mix/51.tfrecords"
            string_val: "topology/tfrecords/mix/52.tfrecords"
            string_val: "topology/tfrecords/mix/53.tfrecords"
            string_val: "topology/tfrecords/mix/54.tfrecords"
            string_val: "topology/tfrecords/mix/55.tfrecords"
            string_val: "topology/tfrecords/mix/56.tfrecords"
            string_val: "topology/tfrecords/mix/58.tfrecords"
            string_val: "topology/tfrecords/mix/5.tfrecords"
            string_val: "topology/tfrecords/mix/61.tfrecords"
            string_val: "topology/tfrecords/mix/63.tfrecords"
            string_val: "topology/tfrecords/mix/64.tfrecords"
            string_val: "topology/tfrecords/mix/65.tfrecords"
            string_val: "topology/tfrecords/mix/67.tfrecords"
            string_val: "topology/tfrecords/mix/68.tfrecords"
            string_val: "topology/tfrecords/mix/69.tfrecords"
            string_val: "topology/tfrecords/mix/6.tfrecords"
            string_val: "topology/tfrecords/mix/70.tfrecords"
            string_val: "topology/tfrecords/mix/71.tfrecords"
            string_val: "topology/tfrecords/mix/73.tfrecords"
            string_val: "topology/tfrecords/mix/74.tfrecords"
            string_val: "topology/tfrecords/mix/76.tfrecords"
            string_val: "topology/tfrecords/mix/77.tfrecords"
            string_val: "topology/tfrecords/mix/79.tfrecords"
            string_val: "topology/tfrecords/mix/7.tfrecords"
            string_val: "topology/tfrecords/mix/80.tfrecords"
            string_val: "topology/tfrecords/mix/81.tfrecords"
            string_val: "topology/tfrecords/mix/82.tfrecords"
            string_val: "topology/tfrecords/mix/83.tfrecords"
            string_val: "topology/tfrecords/mix/84.tfrecords"
            string_val: "topology/tfrecords/mix/85.tfrecords"
            string_val: "topology/tfrecords/mix/86.tfrecords"
            string_val: "topology/tfrecords/mix/87.tfrecords"
            string_val: "topology/tfrecords/mix/88.tfrecords"
            string_val: "topology/tfrecords/mix/89.tfrecords"
            string_val: "topology/tfrecords/mix/8.tfrecords"
            string_val: "topology/tfrecords/mix/90.tfrecords"
            string_val: "topology/tfrecords/mix/91.tfrecords"
            string_val: "topology/tfrecords/mix/92.tfrecords"
            string_val: "topology/tfrecords/mix/93.tfrecords"
            string_val: "topology/tfrecords/mix/94.tfrecords"
            string_val: "topology/tfrecords/mix/95.tfrecords"
            string_val: "topology/tfrecords/mix/96.tfrecords"
            string_val: "topology/tfrecords/mix/97.tfrecords"
            string_val: "topology/tfrecords/mix/98.tfrecords"
            string_val: "topology/tfrecords/mix/99.tfrecords"
            string_val: "topology/tfrecords/mix/9.tfrecords"
          }
        }
      }
    }
    node_def {
      name: "OptimizeDataset/TensorSliceDataset"
      op: "TensorSliceDataset"
      input: "OptimizeDataset/tensors/normalize_tensors/component_0:output:0"
      device: "/device:CPU:0"
      attr {
        key: "Toutput_types"
        value {
          list {
            type: DT_STRING
          }
        }
      }
      attr {
        key: "output_shapes"
        value {
          list {
            shape {
            }
          }
        }
      }
    }
    node_def {
      name: "OptimizeDataset/buffer_size"
      op: "Const"
      device: "/device:CPU:0"
      attr {
        key: "dtype"
        value {
          type: DT_INT64
        }
      }
      attr {
        key: "value"
        value {
          tensor {
            dtype: DT_INT64
            tensor_shape {
            }
            int64_val: 345
          }
        }
      }
    }
    node_def {
      name: "OptimizeDataset/seed"
      op: "Const"
      device: "/device:CPU:0"
      attr {
        key: "dtype"
        value {
          type: DT_INT64
        }
      }
      attr {
        key: "value"
        value {
          tensor {
            dtype: DT_INT64
            tensor_shape {
            }
            int64_val: 0
          }
        }
      }
    }
    node_def {
      name: "OptimizeDataset/seed2"
      op: "Const"
      device: "/device:CPU:0"
      attr {
        key: "dtype"
        value {
          type: DT_INT64
        }
      }
      attr {
        key: "value"
        value {
          tensor {
            dtype: DT_INT64
            tensor_shape {
            }
            int64_val: 0
          }
        }
      }
    }
    node_def {
      name: "OptimizeDataset/ShuffleDataset"
      op: "ShuffleDataset"
      input: "OptimizeDataset/TensorSliceDataset:handle:0"
      input: "OptimizeDataset/buffer_size:output:0"
      input: "OptimizeDataset/seed:output:0"
      input: "OptimizeDataset/seed2:output:0"
      device: "/device:CPU:0"
      attr {
        key: "output_shapes"
        value {
          list {
            shape {
            }
          }
        }
      }
      attr {
        key: "output_types"
        value {
          list {
            type: DT_STRING
          }
        }
      }
      attr {
        key: "reshuffle_each_iteration"
        value {
          b: true
        }
      }
    }
    node_def {
      name: "OptimizeDataset/cycle_length"
      op: "Const"
      device: "/device:CPU:0"
      attr {
        key: "dtype"
        value {
          type: DT_INT64
        }
      }
      attr {
        key: "value"
        value {
          tensor {
            dtype: DT_INT64
            tensor_shape {
            }
            int64_val: 4
          }
        }
      }
    }
    node_def {
      name: "OptimizeDataset/block_length"
      op: "Const"
      device: "/device:CPU:0"
      attr {
        key: "dtype"
        value {
          type: DT_INT64
        }
      }
      attr {
        key: "value"
        value {
          tensor {
            dtype: DT_INT64
            tensor_shape {
            }
            int64_val: 1
          }
        }
      }
    }
    node_def {
      name: "OptimizeDataset/sloppy"
      op: "Const"
      device: "/device:CPU:0"
      attr {
        key: "dtype"
        value {
          type: DT_BOOL
        }
      }
      attr {
        key: "value"
        value {
          tensor {
            dtype: DT_BOOL
            tensor_shape {
            }
            bool_val: false
          }
        }
      }
    }
    node_def {
      name: "OptimizeDataset/buffer_output_elements"
      op: "Const"
      device: "/device:CPU:0"
      attr {
        key: "dtype"
        value {
          type: DT_INT64
        }
      }
      attr {
        key: "value"
        value {
          tensor {
            dtype: DT_INT64
            tensor_shape {
            }
            int64_val: 2
          }
        }
      }
    }
    node_def {
      name: "OptimizeDataset/prefetch_input_elements"
      op: "Const"
      device: "/device:CPU:0"
      attr {
        key: "dtype"
        value {
          type: DT_INT64
        }
      }
      attr {
        key: "value"
        value {
          tensor {
            dtype: DT_INT64
            tensor_shape {
            }
            int64_val: 8
          }
        }
      }
    }
    node_def {
      name: "OptimizeDataset/ExperimentalParallelInterleaveDataset"
      op: "ExperimentalParallelInterleaveDataset"
      input: "OptimizeDataset/ShuffleDataset:handle:0"
      input: "OptimizeDataset/cycle_length:output:0"
      input: "OptimizeDataset/block_length:output:0"
      input: "OptimizeDataset/sloppy:output:0"
      input: "OptimizeDataset/buffer_output_elements:output:0"
      input: "OptimizeDataset/prefetch_input_elements:output:0"
      device: "/device:CPU:0"
      attr {
        key: "Targuments"
        value {
          list {
          }
        }
      }
      attr {
        key: "f"
        value {
          func {
            name: "__inference_tf_data_experimental_parallel_interleave_<class \'abc.ABCMeta\'>_40"
          }
        }
      }
      attr {
        key: "output_shapes"
        value {
          list {
            shape {
            }
          }
        }
      }
      attr {
        key: "output_types"
        value {
          list {
            type: DT_STRING
          }
        }
      }
    }
    node_def {
      name: "OptimizeDataset/buffer_size_1"
      op: "Const"
      device: "/device:CPU:0"
      attr {
        key: "dtype"
        value {
          type: DT_INT64
        }
      }
      attr {
        key: "value"
        value {
          tensor {
            dtype: DT_INT64
            tensor_shape {
            }
            int64_val: 10000
          }
        }
      }
    }
    node_def {
      name: "OptimizeDataset/seed_1"
      op: "Const"
      device: "/device:CPU:0"
      attr {
        key: "dtype"
        value {
          type: DT_INT64
        }
      }
      attr {
        key: "value"
        value {
          tensor {
            dtype: DT_INT64
            tensor_shape {
            }
            int64_val: 0
          }
        }
      }
    }
    node_def {
      name: "OptimizeDataset/seed2_1"
      op: "Const"
      device: "/device:CPU:0"
      attr {
        key: "dtype"
        value {
          type: DT_INT64
        }
      }
      attr {
        key: "value"
        value {
          tensor {
            dtype: DT_INT64
            tensor_shape {
            }
            int64_val: 0
          }
        }
      }
    }
    node_def {
      name: "OptimizeDataset/count"
      op: "Const"
      device: "/device:CPU:0"
      attr {
        key: "dtype"
        value {
          type: DT_INT64
        }
      }
      attr {
        key: "value"
        value {
          tensor {
            dtype: DT_INT64
            tensor_shape {
            }
            int64_val: -1
          }
        }
      }
    }
    node_def {
      name: "OptimizeDataset/ShuffleAndRepeatDataset"
      op: "ShuffleAndRepeatDataset"
      input: "OptimizeDataset/ExperimentalParallelInterleaveDataset:handle:0"
      input: "OptimizeDataset/buffer_size_1:output:0"
      input: "OptimizeDataset/seed_1:output:0"
      input: "OptimizeDataset/seed2_1:output:0"
      input: "OptimizeDataset/count:output:0"
      device: "/device:CPU:0"
      attr {
        key: "output_shapes"
        value {
          list {
            shape {
            }
          }
        }
      }
      attr {
        key: "output_types"
        value {
          list {
            type: DT_STRING
          }
        }
      }
    }
    node_def {
      name: "OptimizeDataset/num_parallel_calls"
      op: "Const"
      device: "/device:CPU:0"
      attr {
        key: "dtype"
        value {
          type: DT_INT32
        }
      }
      attr {
        key: "value"
        value {
          tensor {
            dtype: DT_INT32
            tensor_shape {
            }
            int_val: 2
          }
        }
      }
    }
    node_def {
      name: "OptimizeDataset/ParallelMapDataset"
      op: "ParallelMapDataset"
      input: "OptimizeDataset/ShuffleAndRepeatDataset:handle:0"
      input: "OptimizeDataset/num_parallel_calls:output:0"
      device: "/device:CPU:0"
      attr {
        key: "Targuments"
        value {
          list {
          }
        }
      }
      attr {
        key: "f"
        value {
          func {
            name: "__inference_Dataset_map_<lambda>_99"
          }
        }
      }
      attr {
        key: "output_shapes"
        value {
          list {
            shape {
              dim {
                size: -1
              }
            }
            shape {
              dim {
                size: -1
              }
            }
            shape {
            }
            shape {
            }
            shape {
            }
            shape {
              dim {
                size: -1
              }
            }
            shape {
              dim {
                size: -1
              }
            }
            shape {
              dim {
                size: -1
              }
            }
            shape {
              dim {
                size: -1
              }
            }
          }
        }
      }
      attr {
        key: "output_types"
        value {
          list {
            type: DT_FLOAT
            type: DT_INT64
            type: DT_INT64
            type: DT_INT64
            type: DT_INT64
            type: DT_INT64
            type: DT_INT64
            type: DT_FLOAT
            type: DT_FLOAT
          }
        }
      }
      attr {
        key: "preserve_cardinality"
        value {
          b: false
        }
      }
      attr {
        key: "sloppy"
        value {
          b: false
        }
      }
      attr {
        key: "use_inter_op_parallelism"
        value {
          b: true
        }
      }
    }
    node_def {
      name: "OptimizeDataset/buffer_size_2"
      op: "Const"
      device: "/device:CPU:0"
      attr {
        key: "dtype"
        value {
          type: DT_INT64
        }
      }
      attr {
        key: "value"
        value {
          tensor {
            dtype: DT_INT64
            tensor_shape {
            }
            int64_val: 10
          }
        }
      }
    }
    node_def {
      name: "OptimizeDataset/PrefetchDataset"
      op: "PrefetchDataset"
      input: "OptimizeDataset/ParallelMapDataset:handle:0"
      input: "OptimizeDataset/buffer_size_2:output:0"
      device: "/device:CPU:0"
      attr {
        key: "output_shapes"
        value {
          list {
            shape {
              dim {
                size: -1
              }
            }
            shape {
              dim {
                size: -1
              }
            }
            shape {
            }
            shape {
            }
            shape {
            }
            shape {
              dim {
                size: -1
              }
            }
            shape {
              dim {
                size: -1
              }
            }
            shape {
              dim {
                size: -1
              }
            }
            shape {
              dim {
                size: -1
              }
            }
          }
        }
      }
      attr {
        key: "output_types"
        value {
          list {
            type: DT_FLOAT
            type: DT_INT64
            type: DT_INT64
            type: DT_INT64
            type: DT_INT64
            type: DT_INT64
            type: DT_INT64
            type: DT_FLOAT
            type: DT_FLOAT
          }
        }
      }
      attr {
        key: "slack_period"
        value {
          i: 0
        }
      }
    }
    node_def {
      name: "OptimizeDataset"
      op: "OptimizeDataset"
      input: "OptimizeDataset/PrefetchDataset:handle:0"
      input: "optimizations:output:0"
      device: "/device:CPU:0"
      attr {
        key: "optimization_configs"
        value {
          list {
            s: "map_vectorization:use_choose_fastest:false"
          }
        }
      }
      attr {
        key: "output_shapes"
        value {
          list {
            shape {
              dim {
                size: -1
              }
            }
            shape {
              dim {
                size: -1
              }
            }
            shape {
            }
            shape {
            }
            shape {
            }
            shape {
              dim {
                size: -1
              }
            }
            shape {
              dim {
                size: -1
              }
            }
            shape {
              dim {
                size: -1
              }
            }
            shape {
              dim {
                size: -1
              }
            }
          }
        }
      }
      attr {
        key: "output_types"
        value {
          list {
            type: DT_FLOAT
            type: DT_INT64
            type: DT_INT64
            type: DT_INT64
            type: DT_INT64
            type: DT_INT64
            type: DT_INT64
            type: DT_FLOAT
            type: DT_FLOAT
          }
        }
      }
    }
    node_def {
      name: "ModelDataset"
      op: "ModelDataset"
      input: "OptimizeDataset:handle:0"
      device: "/device:CPU:0"
      attr {
        key: "cpu_budget"
        value {
          i: 0
        }
      }
      attr {
        key: "output_shapes"
        value {
          list {
            shape {
              dim {
                size: -1
              }
            }
            shape {
              dim {
                size: -1
              }
            }
            shape {
            }
            shape {
            }
            shape {
            }
            shape {
              dim {
                size: -1
              }
            }
            shape {
              dim {
                size: -1
              }
            }
            shape {
              dim {
                size: -1
              }
            }
            shape {
              dim {
                size: -1
              }
            }
          }
        }
      }
      attr {
        key: "output_types"
        value {
          list {
            type: DT_FLOAT
            type: DT_INT64
            type: DT_INT64
            type: DT_INT64
            type: DT_INT64
            type: DT_INT64
            type: DT_INT64
            type: DT_FLOAT
            type: DT_FLOAT
          }
        }
      }
    }
    ret {
      key: "modeldataset"
      value: "ModelDataset:handle:0"
    }
    attr {
      key: "_disable_call_shape_inference"
      value {
        b: true
      }
    }
  }
}
versions {
  producer: 38
  min_consumer: 12
}
