node {
  name: "global_step/Initializer/zeros"
  op: "Const"
  attr {
    key: "_class"
    value {
      list {
        s: "loc:@global_step"
      }
    }
  }
  attr {
    key: "_output_shapes"
    value {
      list {
        shape {
        }
      }
    }
  }
  attr {
    key: "dtype"
    value {
      type: DT_INT64
    }
  }
  attr {
    key: "value"
    value {
      tensor {
        dtype: DT_INT64
        tensor_shape {
        }
        int64_val: 0
      }
    }
  }
}
node {
  name: "global_step"
  op: "VariableV2"
  attr {
    key: "_class"
    value {
      list {
        s: "loc:@global_step"
      }
    }
  }
  attr {
    key: "_output_shapes"
    value {
      list {
        shape {
        }
      }
    }
  }
  attr {
    key: "container"
    value {
      s: ""
    }
  }
  attr {
    key: "dtype"
    value {
      type: DT_INT64
    }
  }
  attr {
    key: "shape"
    value {
      shape {
      }
    }
  }
  attr {
    key: "shared_name"
    value {
      s: ""
    }
  }
}
node {
  name: "global_step/Assign"
  op: "Assign"
  input: "global_step"
  input: "global_step/Initializer/zeros"
  attr {
    key: "T"
    value {
      type: DT_INT64
    }
  }
  attr {
    key: "_class"
    value {
      list {
        s: "loc:@global_step"
      }
    }
  }
  attr {
    key: "_output_shapes"
    value {
      list {
        shape {
        }
      }
    }
  }
  attr {
    key: "use_locking"
    value {
      b: true
    }
  }
  attr {
    key: "validate_shape"
    value {
      b: true
    }
  }
}
node {
  name: "global_step/read"
  op: "Identity"
  input: "global_step"
  attr {
    key: "T"
    value {
      type: DT_INT64
    }
  }
  attr {
    key: "_class"
    value {
      list {
        s: "loc:@global_step"
      }
    }
  }
  attr {
    key: "_output_shapes"
    value {
      list {
        shape {
        }
      }
    }
  }
}
node {
  name: "global_step/IsVariableInitialized"
  op: "IsVariableInitialized"
  input: "global_step"
  attr {
    key: "_class"
    value {
      list {
        s: "loc:@global_step"
      }
    }
  }
  attr {
    key: "_output_shapes"
    value {
      list {
        shape {
        }
      }
    }
  }
  attr {
    key: "dtype"
    value {
      type: DT_INT64
    }
  }
}
node {
  name: "global_step/cond/Switch"
  op: "Switch"
  input: "global_step/IsVariableInitialized"
  input: "global_step/IsVariableInitialized"
  attr {
    key: "T"
    value {
      type: DT_BOOL
    }
  }
  attr {
    key: "_output_shapes"
    value {
      list {
        shape {
        }
        shape {
        }
      }
    }
  }
}
node {
  name: "global_step/cond/switch_t"
  op: "Identity"
  input: "global_step/cond/Switch:1"
  attr {
    key: "T"
    value {
      type: DT_BOOL
    }
  }
  attr {
    key: "_output_shapes"
    value {
      list {
        shape {
        }
      }
    }
  }
}
node {
  name: "global_step/cond/switch_f"
  op: "Identity"
  input: "global_step/cond/Switch"
  attr {
    key: "T"
    value {
      type: DT_BOOL
    }
  }
  attr {
    key: "_output_shapes"
    value {
      list {
        shape {
        }
      }
    }
  }
}
node {
  name: "global_step/cond/pred_id"
  op: "Identity"
  input: "global_step/IsVariableInitialized"
  attr {
    key: "T"
    value {
      type: DT_BOOL
    }
  }
  attr {
    key: "_output_shapes"
    value {
      list {
        shape {
        }
      }
    }
  }
}
node {
  name: "global_step/cond/read"
  op: "Identity"
  input: "global_step/cond/read/Switch:1"
  attr {
    key: "T"
    value {
      type: DT_INT64
    }
  }
  attr {
    key: "_output_shapes"
    value {
      list {
        shape {
        }
      }
    }
  }
}
node {
  name: "global_step/cond/read/Switch"
  op: "RefSwitch"
  input: "global_step"
  input: "global_step/cond/pred_id"
  attr {
    key: "T"
    value {
      type: DT_INT64
    }
  }
  attr {
    key: "_class"
    value {
      list {
        s: "loc:@global_step"
      }
    }
  }
  attr {
    key: "_output_shapes"
    value {
      list {
        shape {
        }
        shape {
        }
      }
    }
  }
}
node {
  name: "global_step/cond/Switch_1"
  op: "Switch"
  input: "global_step/Initializer/zeros"
  input: "global_step/cond/pred_id"
  attr {
    key: "T"
    value {
      type: DT_INT64
    }
  }
  attr {
    key: "_class"
    value {
      list {
        s: "loc:@global_step"
      }
    }
  }
  attr {
    key: "_output_shapes"
    value {
      list {
        shape {
        }
        shape {
        }
      }
    }
  }
}
node {
  name: "global_step/cond/Merge"
  op: "Merge"
  input: "global_step/cond/Switch_1"
  input: "global_step/cond/read"
  attr {
    key: "N"
    value {
      i: 2
    }
  }
  attr {
    key: "T"
    value {
      type: DT_INT64
    }
  }
  attr {
    key: "_output_shapes"
    value {
      list {
        shape {
        }
        shape {
        }
      }
    }
  }
}
node {
  name: "global_step/add/y"
  op: "Const"
  attr {
    key: "_output_shapes"
    value {
      list {
        shape {
        }
      }
    }
  }
  attr {
    key: "dtype"
    value {
      type: DT_INT64
    }
  }
  attr {
    key: "value"
    value {
      tensor {
        dtype: DT_INT64
        tensor_shape {
        }
        int64_val: 0
      }
    }
  }
}
node {
  name: "global_step/add"
  op: "Add"
  input: "global_step/cond/Merge"
  input: "global_step/add/y"
  attr {
    key: "T"
    value {
      type: DT_INT64
    }
  }
  attr {
    key: "_output_shapes"
    value {
      list {
        shape {
        }
      }
    }
  }
}
node {
  name: "tensors/normalize_tensors/component_0"
  op: "Const"
  device: "/device:CPU:0"
  attr {
    key: "_output_shapes"
    value {
      list {
        shape {
          dim {
            size: 2951
          }
        }
      }
    }
  }
  attr {
    key: "dtype"
    value {
      type: DT_STRING
    }
  }
  attr {
    key: "value"
    value {
      tensor {
        dtype: DT_STRING
        tensor_shape {
          dim {
            size: 2951
          }
        }
        string_val: "topology/tfrecords/train_2ms/1000.tfrecords"
        string_val: "topology/tfrecords/train_2ms/1001.tfrecords"
        string_val: "topology/tfrecords/train_2ms/1002.tfrecords"
        string_val: "topology/tfrecords/train_2ms/1003.tfrecords"
        string_val: "topology/tfrecords/train_2ms/1004.tfrecords"
        string_val: "topology/tfrecords/train_2ms/1006.tfrecords"
        string_val: "topology/tfrecords/train_2ms/1007.tfrecords"
        string_val: "topology/tfrecords/train_2ms/100.tfrecords"
        string_val: "topology/tfrecords/train_2ms/1010.tfrecords"
        string_val: "topology/tfrecords/train_2ms/1013.tfrecords"
        string_val: "topology/tfrecords/train_2ms/1014.tfrecords"
        string_val: "topology/tfrecords/train_2ms/1015.tfrecords"
        string_val: "topology/tfrecords/train_2ms/1016.tfrecords"
        string_val: "topology/tfrecords/train_2ms/1017.tfrecords"
        string_val: "topology/tfrecords/train_2ms/1018.tfrecords"
        string_val: "topology/tfrecords/train_2ms/1019.tfrecords"
        string_val: "topology/tfrecords/train_2ms/1020.tfrecords"
        string_val: "topology/tfrecords/train_2ms/1021.tfrecords"
        string_val: "topology/tfrecords/train_2ms/1023.tfrecords"
        string_val: "topology/tfrecords/train_2ms/1024.tfrecords"
        string_val: "topology/tfrecords/train_2ms/1025.tfrecords"
        string_val: "topology/tfrecords/train_2ms/1028.tfrecords"
        string_val: "topology/tfrecords/train_2ms/1029.tfrecords"
        string_val: "topology/tfrecords/train_2ms/102.tfrecords"
        string_val: "topology/tfrecords/train_2ms/1030.tfrecords"
        string_val: "topology/tfrecords/train_2ms/1031.tfrecords"
        string_val: "topology/tfrecords/train_2ms/1032.tfrecords"
        string_val: "topology/tfrecords/train_2ms/1033.tfrecords"
        string_val: "topology/tfrecords/train_2ms/1034.tfrecords"
        string_val: "topology/tfrecords/train_2ms/1035.tfrecords"
        string_val: "topology/tfrecords/train_2ms/1036.tfrecords"
        string_val: "topology/tfrecords/train_2ms/1037.tfrecords"
        string_val: "topology/tfrecords/train_2ms/1038.tfrecords"
        string_val: "topology/tfrecords/train_2ms/1039.tfrecords"
        string_val: "topology/tfrecords/train_2ms/103.tfrecords"
        string_val: "topology/tfrecords/train_2ms/1043.tfrecords"
        string_val: "topology/tfrecords/train_2ms/1044.tfrecords"
        string_val: "topology/tfrecords/train_2ms/1045.tfrecords"
        string_val: "topology/tfrecords/train_2ms/1046.tfrecords"
        string_val: "topology/tfrecords/train_2ms/1047.tfrecords"
        string_val: "topology/tfrecords/train_2ms/1048.tfrecords"
        string_val: "topology/tfrecords/train_2ms/1049.tfrecords"
        string_val: "topology/tfrecords/train_2ms/104.tfrecords"
        string_val: "topology/tfrecords/train_2ms/1051.tfrecords"
        string_val: "topology/tfrecords/train_2ms/1052.tfrecords"
        string_val: "topology/tfrecords/train_2ms/1053.tfrecords"
        string_val: "topology/tfrecords/train_2ms/1054.tfrecords"
        string_val: "topology/tfrecords/train_2ms/1055.tfrecords"
        string_val: "topology/tfrecords/train_2ms/1056.tfrecords"
        string_val: "topology/tfrecords/train_2ms/1057.tfrecords"
        string_val: "topology/tfrecords/train_2ms/1058.tfrecords"
        string_val: "topology/tfrecords/train_2ms/1059.tfrecords"
        string_val: "topology/tfrecords/train_2ms/105.tfrecords"
        string_val: "topology/tfrecords/train_2ms/1061.tfrecords"
        string_val: "topology/tfrecords/train_2ms/1062.tfrecords"
        string_val: "topology/tfrecords/train_2ms/1064.tfrecords"
        string_val: "topology/tfrecords/train_2ms/1065.tfrecords"
        string_val: "topology/tfrecords/train_2ms/1068.tfrecords"
        string_val: "topology/tfrecords/train_2ms/1069.tfrecords"
        string_val: "topology/tfrecords/train_2ms/106.tfrecords"
        string_val: "topology/tfrecords/train_2ms/1071.tfrecords"
        string_val: "topology/tfrecords/train_2ms/1072.tfrecords"
        string_val: "topology/tfrecords/train_2ms/1074.tfrecords"
        string_val: "topology/tfrecords/train_2ms/1075.tfrecords"
        string_val: "topology/tfrecords/train_2ms/1076.tfrecords"
        string_val: "topology/tfrecords/train_2ms/1077.tfrecords"
        string_val: "topology/tfrecords/train_2ms/1078.tfrecords"
        string_val: "topology/tfrecords/train_2ms/1079.tfrecords"
        string_val: "topology/tfrecords/train_2ms/107.tfrecords"
        string_val: "topology/tfrecords/train_2ms/1080.tfrecords"
        string_val: "topology/tfrecords/train_2ms/1081.tfrecords"
        string_val: "topology/tfrecords/train_2ms/1082.tfrecords"
        string_val: "topology/tfrecords/train_2ms/1083.tfrecords"
        string_val: "topology/tfrecords/train_2ms/1084.tfrecords"
        string_val: "topology/tfrecords/train_2ms/1086.tfrecords"
        string_val: "topology/tfrecords/train_2ms/1087.tfrecords"
        string_val: "topology/tfrecords/train_2ms/108.tfrecords"
        string_val: "topology/tfrecords/train_2ms/1090.tfrecords"
        string_val: "topology/tfrecords/train_2ms/1091.tfrecords"
        string_val: "topology/tfrecords/train_2ms/1092.tfrecords"
        string_val: "topology/tfrecords/train_2ms/1093.tfrecords"
        string_val: "topology/tfrecords/train_2ms/1094.tfrecords"
        string_val: "topology/tfrecords/train_2ms/1096.tfrecords"
        string_val: "topology/tfrecords/train_2ms/1097.tfrecords"
        string_val: "topology/tfrecords/train_2ms/1098.tfrecords"
        string_val: "topology/tfrecords/train_2ms/109.tfrecords"
        string_val: "topology/tfrecords/train_2ms/10.tfrecords"
        string_val: "topology/tfrecords/train_2ms/1100.tfrecords"
        string_val: "topology/tfrecords/train_2ms/1102.tfrecords"
        string_val: "topology/tfrecords/train_2ms/1103.tfrecords"
        string_val: "topology/tfrecords/train_2ms/1105.tfrecords"
        string_val: "topology/tfrecords/train_2ms/1107.tfrecords"
        string_val: "topology/tfrecords/train_2ms/1108.tfrecords"
        string_val: "topology/tfrecords/train_2ms/1109.tfrecords"
        string_val: "topology/tfrecords/train_2ms/110.tfrecords"
        string_val: "topology/tfrecords/train_2ms/1112.tfrecords"
        string_val: "topology/tfrecords/train_2ms/1114.tfrecords"
        string_val: "topology/tfrecords/train_2ms/1115.tfrecords"
        string_val: "topology/tfrecords/train_2ms/1116.tfrecords"
        string_val: "topology/tfrecords/train_2ms/1117.tfrecords"
        string_val: "topology/tfrecords/train_2ms/1118.tfrecords"
        string_val: "topology/tfrecords/train_2ms/111.tfrecords"
        string_val: "topology/tfrecords/train_2ms/1120.tfrecords"
        string_val: "topology/tfrecords/train_2ms/1121.tfrecords"
        string_val: "topology/tfrecords/train_2ms/1122.tfrecords"
        string_val: "topology/tfrecords/train_2ms/1124.tfrecords"
        string_val: "topology/tfrecords/train_2ms/1125.tfrecords"
        string_val: "topology/tfrecords/train_2ms/1126.tfrecords"
        string_val: "topology/tfrecords/train_2ms/1127.tfrecords"
        string_val: "topology/tfrecords/train_2ms/1128.tfrecords"
        string_val: "topology/tfrecords/train_2ms/1129.tfrecords"
        string_val: "topology/tfrecords/train_2ms/112.tfrecords"
        string_val: "topology/tfrecords/train_2ms/1130.tfrecords"
        string_val: "topology/tfrecords/train_2ms/1134.tfrecords"
        string_val: "topology/tfrecords/train_2ms/1135.tfrecords"
        string_val: "topology/tfrecords/train_2ms/1136.tfrecords"
        string_val: "topology/tfrecords/train_2ms/1137.tfrecords"
        string_val: "topology/tfrecords/train_2ms/1138.tfrecords"
        string_val: "topology/tfrecords/train_2ms/1139.tfrecords"
        string_val: "topology/tfrecords/train_2ms/113.tfrecords"
        string_val: "topology/tfrecords/train_2ms/1140.tfrecords"
        string_val: "topology/tfrecords/train_2ms/1141.tfrecords"
        string_val: "topology/tfrecords/train_2ms/1143.tfrecords"
        string_val: "topology/tfrecords/train_2ms/1144.tfrecords"
        string_val: "topology/tfrecords/train_2ms/1145.tfrecords"
        string_val: "topology/tfrecords/train_2ms/1146.tfrecords"
        string_val: "topology/tfrecords/train_2ms/1147.tfrecords"
        string_val: "topology/tfrecords/train_2ms/1148.tfrecords"
        string_val: "topology/tfrecords/train_2ms/1149.tfrecords"
        string_val: "topology/tfrecords/train_2ms/114.tfrecords"
        string_val: "topology/tfrecords/train_2ms/1150.tfrecords"
        string_val: "topology/tfrecords/train_2ms/1151.tfrecords"
        string_val: "topology/tfrecords/train_2ms/1152.tfrecords"
        string_val: "topology/tfrecords/train_2ms/1153.tfrecords"
        string_val: "topology/tfrecords/train_2ms/1154.tfrecords"
        string_val: "topology/tfrecords/train_2ms/1155.tfrecords"
        string_val: "topology/tfrecords/train_2ms/1156.tfrecords"
        string_val: "topology/tfrecords/train_2ms/1157.tfrecords"
        string_val: "topology/tfrecords/train_2ms/1158.tfrecords"
        string_val: "topology/tfrecords/train_2ms/1159.tfrecords"
        string_val: "topology/tfrecords/train_2ms/115.tfrecords"
        string_val: "topology/tfrecords/train_2ms/1160.tfrecords"
        string_val: "topology/tfrecords/train_2ms/1161.tfrecords"
        string_val: "topology/tfrecords/train_2ms/1163.tfrecords"
        string_val: "topology/tfrecords/train_2ms/1164.tfrecords"
        string_val: "topology/tfrecords/train_2ms/1165.tfrecords"
        string_val: "topology/tfrecords/train_2ms/1166.tfrecords"
        string_val: "topology/tfrecords/train_2ms/1167.tfrecords"
        string_val: "topology/tfrecords/train_2ms/1168.tfrecords"
        string_val: "topology/tfrecords/train_2ms/1169.tfrecords"
        string_val: "topology/tfrecords/train_2ms/116.tfrecords"
        string_val: "topology/tfrecords/train_2ms/1170.tfrecords"
        string_val: "topology/tfrecords/train_2ms/1171.tfrecords"
        string_val: "topology/tfrecords/train_2ms/1172.tfrecords"
        string_val: "topology/tfrecords/train_2ms/1173.tfrecords"
        string_val: "topology/tfrecords/train_2ms/1174.tfrecords"
        string_val: "topology/tfrecords/train_2ms/1175.tfrecords"
        string_val: "topology/tfrecords/train_2ms/1176.tfrecords"
        string_val: "topology/tfrecords/train_2ms/1177.tfrecords"
        string_val: "topology/tfrecords/train_2ms/117.tfrecords"
        string_val: "topology/tfrecords/train_2ms/1180.tfrecords"
        string_val: "topology/tfrecords/train_2ms/1181.tfrecords"
        string_val: "topology/tfrecords/train_2ms/1182.tfrecords"
        string_val: "topology/tfrecords/train_2ms/1185.tfrecords"
        string_val: "topology/tfrecords/train_2ms/1186.tfrecords"
        string_val: "topology/tfrecords/train_2ms/1187.tfrecords"
        string_val: "topology/tfrecords/train_2ms/1189.tfrecords"
        string_val: "topology/tfrecords/train_2ms/118.tfrecords"
        string_val: "topology/tfrecords/train_2ms/1190.tfrecords"
        string_val: "topology/tfrecords/train_2ms/1191.tfrecords"
        string_val: "topology/tfrecords/train_2ms/1193.tfrecords"
        string_val: "topology/tfrecords/train_2ms/1194.tfrecords"
        string_val: "topology/tfrecords/train_2ms/1195.tfrecords"
        string_val: "topology/tfrecords/train_2ms/1197.tfrecords"
        string_val: "topology/tfrecords/train_2ms/1198.tfrecords"
        string_val: "topology/tfrecords/train_2ms/1199.tfrecords"
        string_val: "topology/tfrecords/train_2ms/119.tfrecords"
        string_val: "topology/tfrecords/train_2ms/11.tfrecords"
        string_val: "topology/tfrecords/train_2ms/1200.tfrecords"
        string_val: "topology/tfrecords/train_2ms/1201.tfrecords"
        string_val: "topology/tfrecords/train_2ms/1202.tfrecords"
        string_val: "topology/tfrecords/train_2ms/1203.tfrecords"
        string_val: "topology/tfrecords/train_2ms/1204.tfrecords"
        string_val: "topology/tfrecords/train_2ms/1206.tfrecords"
        string_val: "topology/tfrecords/train_2ms/1207.tfrecords"
        string_val: "topology/tfrecords/train_2ms/1209.tfrecords"
        string_val: "topology/tfrecords/train_2ms/120.tfrecords"
        string_val: "topology/tfrecords/train_2ms/1210.tfrecords"
        string_val: "topology/tfrecords/train_2ms/1211.tfrecords"
        string_val: "topology/tfrecords/train_2ms/1212.tfrecords"
        string_val: "topology/tfrecords/train_2ms/1213.tfrecords"
        string_val: "topology/tfrecords/train_2ms/1214.tfrecords"
        string_val: "topology/tfrecords/train_2ms/1215.tfrecords"
        string_val: "topology/tfrecords/train_2ms/1216.tfrecords"
        string_val: "topology/tfrecords/train_2ms/1218.tfrecords"
        string_val: "topology/tfrecords/train_2ms/1219.tfrecords"
        string_val: "topology/tfrecords/train_2ms/121.tfrecords"
        string_val: "topology/tfrecords/train_2ms/1220.tfrecords"
        string_val: "topology/tfrecords/train_2ms/1221.tfrecords"
        string_val: "topology/tfrecords/train_2ms/1222.tfrecords"
        string_val: "topology/tfrecords/train_2ms/1223.tfrecords"
        string_val: "topology/tfrecords/train_2ms/1224.tfrecords"
        string_val: "topology/tfrecords/train_2ms/1225.tfrecords"
        string_val: "topology/tfrecords/train_2ms/1226.tfrecords"
        string_val: "topology/tfrecords/train_2ms/1227.tfrecords"
        string_val: "topology/tfrecords/train_2ms/1228.tfrecords"
        string_val: "topology/tfrecords/train_2ms/1229.tfrecords"
        string_val: "topology/tfrecords/train_2ms/122.tfrecords"
        string_val: "topology/tfrecords/train_2ms/1232.tfrecords"
        string_val: "topology/tfrecords/train_2ms/1233.tfrecords"
        string_val: "topology/tfrecords/train_2ms/1234.tfrecords"
        string_val: "topology/tfrecords/train_2ms/1235.tfrecords"
        string_val: "topology/tfrecords/train_2ms/1236.tfrecords"
        string_val: "topology/tfrecords/train_2ms/1238.tfrecords"
        string_val: "topology/tfrecords/train_2ms/1239.tfrecords"
        string_val: "topology/tfrecords/train_2ms/123.tfrecords"
        string_val: "topology/tfrecords/train_2ms/1240.tfrecords"
        string_val: "topology/tfrecords/train_2ms/1241.tfrecords"
        string_val: "topology/tfrecords/train_2ms/1242.tfrecords"
        string_val: "topology/tfrecords/train_2ms/1247.tfrecords"
        string_val: "topology/tfrecords/train_2ms/1249.tfrecords"
        string_val: "topology/tfrecords/train_2ms/1250.tfrecords"
        string_val: "topology/tfrecords/train_2ms/1251.tfrecords"
        string_val: "topology/tfrecords/train_2ms/1252.tfrecords"
        string_val: "topology/tfrecords/train_2ms/1253.tfrecords"
        string_val: "topology/tfrecords/train_2ms/1255.tfrecords"
        string_val: "topology/tfrecords/train_2ms/1256.tfrecords"
        string_val: "topology/tfrecords/train_2ms/1257.tfrecords"
        string_val: "topology/tfrecords/train_2ms/1258.tfrecords"
        string_val: "topology/tfrecords/train_2ms/1259.tfrecords"
        string_val: "topology/tfrecords/train_2ms/125.tfrecords"
        string_val: "topology/tfrecords/train_2ms/1260.tfrecords"
        string_val: "topology/tfrecords/train_2ms/1261.tfrecords"
        string_val: "topology/tfrecords/train_2ms/1263.tfrecords"
        string_val: "topology/tfrecords/train_2ms/1264.tfrecords"
        string_val: "topology/tfrecords/train_2ms/1266.tfrecords"
        string_val: "topology/tfrecords/train_2ms/1267.tfrecords"
        string_val: "topology/tfrecords/train_2ms/1268.tfrecords"
        string_val: "topology/tfrecords/train_2ms/1269.tfrecords"
        string_val: "topology/tfrecords/train_2ms/1270.tfrecords"
        string_val: "topology/tfrecords/train_2ms/1271.tfrecords"
        string_val: "topology/tfrecords/train_2ms/1272.tfrecords"
        string_val: "topology/tfrecords/train_2ms/1273.tfrecords"
        string_val: "topology/tfrecords/train_2ms/1274.tfrecords"
        string_val: "topology/tfrecords/train_2ms/1275.tfrecords"
        string_val: "topology/tfrecords/train_2ms/1276.tfrecords"
        string_val: "topology/tfrecords/train_2ms/1277.tfrecords"
        string_val: "topology/tfrecords/train_2ms/1278.tfrecords"
        string_val: "topology/tfrecords/train_2ms/1279.tfrecords"
        string_val: "topology/tfrecords/train_2ms/127.tfrecords"
        string_val: "topology/tfrecords/train_2ms/1280.tfrecords"
        string_val: "topology/tfrecords/train_2ms/1281.tfrecords"
        string_val: "topology/tfrecords/train_2ms/1282.tfrecords"
        string_val: "topology/tfrecords/train_2ms/1283.tfrecords"
        string_val: "topology/tfrecords/train_2ms/1284.tfrecords"
        string_val: "topology/tfrecords/train_2ms/1285.tfrecords"
        string_val: "topology/tfrecords/train_2ms/1287.tfrecords"
        string_val: "topology/tfrecords/train_2ms/128.tfrecords"
        string_val: "topology/tfrecords/train_2ms/1290.tfrecords"
        string_val: "topology/tfrecords/train_2ms/1291.tfrecords"
        string_val: "topology/tfrecords/train_2ms/1293.tfrecords"
        string_val: "topology/tfrecords/train_2ms/1294.tfrecords"
        string_val: "topology/tfrecords/train_2ms/1295.tfrecords"
        string_val: "topology/tfrecords/train_2ms/1296.tfrecords"
        string_val: "topology/tfrecords/train_2ms/1297.tfrecords"
        string_val: "topology/tfrecords/train_2ms/1299.tfrecords"
        string_val: "topology/tfrecords/train_2ms/129.tfrecords"
        string_val: "topology/tfrecords/train_2ms/1300.tfrecords"
        string_val: "topology/tfrecords/train_2ms/1301.tfrecords"
        string_val: "topology/tfrecords/train_2ms/1302.tfrecords"
        string_val: "topology/tfrecords/train_2ms/1303.tfrecords"
        string_val: "topology/tfrecords/train_2ms/1304.tfrecords"
        string_val: "topology/tfrecords/train_2ms/1305.tfrecords"
        string_val: "topology/tfrecords/train_2ms/1306.tfrecords"
        string_val: "topology/tfrecords/train_2ms/1307.tfrecords"
        string_val: "topology/tfrecords/train_2ms/1308.tfrecords"
        string_val: "topology/tfrecords/train_2ms/1309.tfrecords"
        string_val: "topology/tfrecords/train_2ms/130.tfrecords"
        string_val: "topology/tfrecords/train_2ms/1310.tfrecords"
        string_val: "topology/tfrecords/train_2ms/1311.tfrecords"
        string_val: "topology/tfrecords/train_2ms/1312.tfrecords"
        string_val: "topology/tfrecords/train_2ms/1314.tfrecords"
        string_val: "topology/tfrecords/train_2ms/1317.tfrecords"
        string_val: "topology/tfrecords/train_2ms/1319.tfrecords"
        string_val: "topology/tfrecords/train_2ms/131.tfrecords"
        string_val: "topology/tfrecords/train_2ms/1320.tfrecords"
        string_val: "topology/tfrecords/train_2ms/1322.tfrecords"
        string_val: "topology/tfrecords/train_2ms/1323.tfrecords"
        string_val: "topology/tfrecords/train_2ms/1325.tfrecords"
        string_val: "topology/tfrecords/train_2ms/1327.tfrecords"
        string_val: "topology/tfrecords/train_2ms/1328.tfrecords"
        string_val: "topology/tfrecords/train_2ms/1329.tfrecords"
        string_val: "topology/tfrecords/train_2ms/132.tfrecords"
        string_val: "topology/tfrecords/train_2ms/1330.tfrecords"
        string_val: "topology/tfrecords/train_2ms/1331.tfrecords"
        string_val: "topology/tfrecords/train_2ms/1332.tfrecords"
        string_val: "topology/tfrecords/train_2ms/1333.tfrecords"
        string_val: "topology/tfrecords/train_2ms/1334.tfrecords"
        string_val: "topology/tfrecords/train_2ms/1336.tfrecords"
        string_val: "topology/tfrecords/train_2ms/1337.tfrecords"
        string_val: "topology/tfrecords/train_2ms/1338.tfrecords"
        string_val: "topology/tfrecords/train_2ms/1339.tfrecords"
        string_val: "topology/tfrecords/train_2ms/133.tfrecords"
        string_val: "topology/tfrecords/train_2ms/1340.tfrecords"
        string_val: "topology/tfrecords/train_2ms/1341.tfrecords"
        string_val: "topology/tfrecords/train_2ms/1342.tfrecords"
        string_val: "topology/tfrecords/train_2ms/1343.tfrecords"
        string_val: "topology/tfrecords/train_2ms/1344.tfrecords"
        string_val: "topology/tfrecords/train_2ms/1345.tfrecords"
        string_val: "topology/tfrecords/train_2ms/1346.tfrecords"
        string_val: "topology/tfrecords/train_2ms/1347.tfrecords"
        string_val: "topology/tfrecords/train_2ms/1348.tfrecords"
        string_val: "topology/tfrecords/train_2ms/1349.tfrecords"
        string_val: "topology/tfrecords/train_2ms/134.tfrecords"
        string_val: "topology/tfrecords/train_2ms/1350.tfrecords"
        string_val: "topology/tfrecords/train_2ms/1351.tfrecords"
        string_val: "topology/tfrecords/train_2ms/1352.tfrecords"
        string_val: "topology/tfrecords/train_2ms/1353.tfrecords"
        string_val: "topology/tfrecords/train_2ms/1354.tfrecords"
        string_val: "topology/tfrecords/train_2ms/1355.tfrecords"
        string_val: "topology/tfrecords/train_2ms/1357.tfrecords"
        string_val: "topology/tfrecords/train_2ms/135.tfrecords"
        string_val: "topology/tfrecords/train_2ms/1360.tfrecords"
        string_val: "topology/tfrecords/train_2ms/1361.tfrecords"
        string_val: "topology/tfrecords/train_2ms/1363.tfrecords"
        string_val: "topology/tfrecords/train_2ms/1364.tfrecords"
        string_val: "topology/tfrecords/train_2ms/1365.tfrecords"
        string_val: "topology/tfrecords/train_2ms/1366.tfrecords"
        string_val: "topology/tfrecords/train_2ms/1367.tfrecords"
        string_val: "topology/tfrecords/train_2ms/1369.tfrecords"
        string_val: "topology/tfrecords/train_2ms/136.tfrecords"
        string_val: "topology/tfrecords/train_2ms/1370.tfrecords"
        string_val: "topology/tfrecords/train_2ms/1371.tfrecords"
        string_val: "topology/tfrecords/train_2ms/1372.tfrecords"
        string_val: "topology/tfrecords/train_2ms/1374.tfrecords"
        string_val: "topology/tfrecords/train_2ms/1375.tfrecords"
        string_val: "topology/tfrecords/train_2ms/1376.tfrecords"
        string_val: "topology/tfrecords/train_2ms/1377.tfrecords"
        string_val: "topology/tfrecords/train_2ms/1378.tfrecords"
        string_val: "topology/tfrecords/train_2ms/1379.tfrecords"
        string_val: "topology/tfrecords/train_2ms/1380.tfrecords"
        string_val: "topology/tfrecords/train_2ms/1381.tfrecords"
        string_val: "topology/tfrecords/train_2ms/1382.tfrecords"
        string_val: "topology/tfrecords/train_2ms/1383.tfrecords"
        string_val: "topology/tfrecords/train_2ms/1384.tfrecords"
        string_val: "topology/tfrecords/train_2ms/1385.tfrecords"
        string_val: "topology/tfrecords/train_2ms/1387.tfrecords"
        string_val: "topology/tfrecords/train_2ms/1388.tfrecords"
        string_val: "topology/tfrecords/train_2ms/1389.tfrecords"
        string_val: "topology/tfrecords/train_2ms/138.tfrecords"
        string_val: "topology/tfrecords/train_2ms/1390.tfrecords"
        string_val: "topology/tfrecords/train_2ms/1391.tfrecords"
        string_val: "topology/tfrecords/train_2ms/1392.tfrecords"
        string_val: "topology/tfrecords/train_2ms/1393.tfrecords"
        string_val: "topology/tfrecords/train_2ms/1394.tfrecords"
        string_val: "topology/tfrecords/train_2ms/1396.tfrecords"
        string_val: "topology/tfrecords/train_2ms/1397.tfrecords"
        string_val: "topology/tfrecords/train_2ms/1398.tfrecords"
        string_val: "topology/tfrecords/train_2ms/1399.tfrecords"
        string_val: "topology/tfrecords/train_2ms/13.tfrecords"
        string_val: "topology/tfrecords/train_2ms/1400.tfrecords"
        string_val: "topology/tfrecords/train_2ms/1401.tfrecords"
        string_val: "topology/tfrecords/train_2ms/1402.tfrecords"
        string_val: "topology/tfrecords/train_2ms/1403.tfrecords"
        string_val: "topology/tfrecords/train_2ms/1404.tfrecords"
        string_val: "topology/tfrecords/train_2ms/1405.tfrecords"
        string_val: "topology/tfrecords/train_2ms/1406.tfrecords"
        string_val: "topology/tfrecords/train_2ms/1408.tfrecords"
        string_val: "topology/tfrecords/train_2ms/140.tfrecords"
        string_val: "topology/tfrecords/train_2ms/1410.tfrecords"
        string_val: "topology/tfrecords/train_2ms/1413.tfrecords"
        string_val: "topology/tfrecords/train_2ms/1414.tfrecords"
        string_val: "topology/tfrecords/train_2ms/1415.tfrecords"
        string_val: "topology/tfrecords/train_2ms/1417.tfrecords"
        string_val: "topology/tfrecords/train_2ms/1418.tfrecords"
        string_val: "topology/tfrecords/train_2ms/1419.tfrecords"
        string_val: "topology/tfrecords/train_2ms/141.tfrecords"
        string_val: "topology/tfrecords/train_2ms/1420.tfrecords"
        string_val: "topology/tfrecords/train_2ms/1421.tfrecords"
        string_val: "topology/tfrecords/train_2ms/1422.tfrecords"
        string_val: "topology/tfrecords/train_2ms/1426.tfrecords"
        string_val: "topology/tfrecords/train_2ms/1427.tfrecords"
        string_val: "topology/tfrecords/train_2ms/1428.tfrecords"
        string_val: "topology/tfrecords/train_2ms/142.tfrecords"
        string_val: "topology/tfrecords/train_2ms/1430.tfrecords"
        string_val: "topology/tfrecords/train_2ms/1431.tfrecords"
        string_val: "topology/tfrecords/train_2ms/1432.tfrecords"
        string_val: "topology/tfrecords/train_2ms/1433.tfrecords"
        string_val: "topology/tfrecords/train_2ms/1434.tfrecords"
        string_val: "topology/tfrecords/train_2ms/1435.tfrecords"
        string_val: "topology/tfrecords/train_2ms/1436.tfrecords"
        string_val: "topology/tfrecords/train_2ms/1437.tfrecords"
        string_val: "topology/tfrecords/train_2ms/1438.tfrecords"
        string_val: "topology/tfrecords/train_2ms/1439.tfrecords"
        string_val: "topology/tfrecords/train_2ms/143.tfrecords"
        string_val: "topology/tfrecords/train_2ms/1440.tfrecords"
        string_val: "topology/tfrecords/train_2ms/1441.tfrecords"
        string_val: "topology/tfrecords/train_2ms/1443.tfrecords"
        string_val: "topology/tfrecords/train_2ms/1444.tfrecords"
        string_val: "topology/tfrecords/train_2ms/1445.tfrecords"
        string_val: "topology/tfrecords/train_2ms/1447.tfrecords"
        string_val: "topology/tfrecords/train_2ms/1448.tfrecords"
        string_val: "topology/tfrecords/train_2ms/1449.tfrecords"
        string_val: "topology/tfrecords/train_2ms/1450.tfrecords"
        string_val: "topology/tfrecords/train_2ms/1452.tfrecords"
        string_val: "topology/tfrecords/train_2ms/1453.tfrecords"
        string_val: "topology/tfrecords/train_2ms/1455.tfrecords"
        string_val: "topology/tfrecords/train_2ms/1457.tfrecords"
        string_val: "topology/tfrecords/train_2ms/1458.tfrecords"
        string_val: "topology/tfrecords/train_2ms/1459.tfrecords"
        string_val: "topology/tfrecords/train_2ms/145.tfrecords"
        string_val: "topology/tfrecords/train_2ms/1461.tfrecords"
        string_val: "topology/tfrecords/train_2ms/1462.tfrecords"
        string_val: "topology/tfrecords/train_2ms/1463.tfrecords"
        string_val: "topology/tfrecords/train_2ms/1464.tfrecords"
        string_val: "topology/tfrecords/train_2ms/1465.tfrecords"
        string_val: "topology/tfrecords/train_2ms/1466.tfrecords"
        string_val: "topology/tfrecords/train_2ms/1467.tfrecords"
        string_val: "topology/tfrecords/train_2ms/1468.tfrecords"
        string_val: "topology/tfrecords/train_2ms/1469.tfrecords"
        string_val: "topology/tfrecords/train_2ms/146.tfrecords"
        string_val: "topology/tfrecords/train_2ms/1470.tfrecords"
        string_val: "topology/tfrecords/train_2ms/1471.tfrecords"
        string_val: "topology/tfrecords/train_2ms/1472.tfrecords"
        string_val: "topology/tfrecords/train_2ms/1473.tfrecords"
        string_val: "topology/tfrecords/train_2ms/1474.tfrecords"
        string_val: "topology/tfrecords/train_2ms/1475.tfrecords"
        string_val: "topology/tfrecords/train_2ms/1476.tfrecords"
        string_val: "topology/tfrecords/train_2ms/1477.tfrecords"
        string_val: "topology/tfrecords/train_2ms/1478.tfrecords"
        string_val: "topology/tfrecords/train_2ms/1479.tfrecords"
        string_val: "topology/tfrecords/train_2ms/147.tfrecords"
        string_val: "topology/tfrecords/train_2ms/1480.tfrecords"
        string_val: "topology/tfrecords/train_2ms/1481.tfrecords"
        string_val: "topology/tfrecords/train_2ms/1482.tfrecords"
        string_val: "topology/tfrecords/train_2ms/1483.tfrecords"
        string_val: "topology/tfrecords/train_2ms/1484.tfrecords"
        string_val: "topology/tfrecords/train_2ms/1485.tfrecords"
        string_val: "topology/tfrecords/train_2ms/1487.tfrecords"
        string_val: "topology/tfrecords/train_2ms/1488.tfrecords"
        string_val: "topology/tfrecords/train_2ms/1489.tfrecords"
        string_val: "topology/tfrecords/train_2ms/148.tfrecords"
        string_val: "topology/tfrecords/train_2ms/1490.tfrecords"
        string_val: "topology/tfrecords/train_2ms/1492.tfrecords"
        string_val: "topology/tfrecords/train_2ms/1493.tfrecords"
        string_val: "topology/tfrecords/train_2ms/1494.tfrecords"
        string_val: "topology/tfrecords/train_2ms/1495.tfrecords"
        string_val: "topology/tfrecords/train_2ms/1496.tfrecords"
        string_val: "topology/tfrecords/train_2ms/1497.tfrecords"
        string_val: "topology/tfrecords/train_2ms/1498.tfrecords"
        string_val: "topology/tfrecords/train_2ms/1499.tfrecords"
        string_val: "topology/tfrecords/train_2ms/149.tfrecords"
        string_val: "topology/tfrecords/train_2ms/1500.tfrecords"
        string_val: "topology/tfrecords/train_2ms/1501.tfrecords"
        string_val: "topology/tfrecords/train_2ms/1504.tfrecords"
        string_val: "topology/tfrecords/train_2ms/1505.tfrecords"
        string_val: "topology/tfrecords/train_2ms/1506.tfrecords"
        string_val: "topology/tfrecords/train_2ms/1507.tfrecords"
        string_val: "topology/tfrecords/train_2ms/1508.tfrecords"
        string_val: "topology/tfrecords/train_2ms/1509.tfrecords"
        string_val: "topology/tfrecords/train_2ms/150.tfrecords"
        string_val: "topology/tfrecords/train_2ms/1511.tfrecords"
        string_val: "topology/tfrecords/train_2ms/1512.tfrecords"
        string_val: "topology/tfrecords/train_2ms/1513.tfrecords"
        string_val: "topology/tfrecords/train_2ms/1514.tfrecords"
        string_val: "topology/tfrecords/train_2ms/1515.tfrecords"
        string_val: "topology/tfrecords/train_2ms/1518.tfrecords"
        string_val: "topology/tfrecords/train_2ms/1519.tfrecords"
        string_val: "topology/tfrecords/train_2ms/151.tfrecords"
        string_val: "topology/tfrecords/train_2ms/1520.tfrecords"
        string_val: "topology/tfrecords/train_2ms/1521.tfrecords"
        string_val: "topology/tfrecords/train_2ms/1523.tfrecords"
        string_val: "topology/tfrecords/train_2ms/1525.tfrecords"
        string_val: "topology/tfrecords/train_2ms/1526.tfrecords"
        string_val: "topology/tfrecords/train_2ms/1527.tfrecords"
        string_val: "topology/tfrecords/train_2ms/1528.tfrecords"
        string_val: "topology/tfrecords/train_2ms/1529.tfrecords"
        string_val: "topology/tfrecords/train_2ms/152.tfrecords"
        string_val: "topology/tfrecords/train_2ms/1530.tfrecords"
        string_val: "topology/tfrecords/train_2ms/1532.tfrecords"
        string_val: "topology/tfrecords/train_2ms/1533.tfrecords"
        string_val: "topology/tfrecords/train_2ms/1534.tfrecords"
        string_val: "topology/tfrecords/train_2ms/1535.tfrecords"
        string_val: "topology/tfrecords/train_2ms/1536.tfrecords"
        string_val: "topology/tfrecords/train_2ms/1538.tfrecords"
        string_val: "topology/tfrecords/train_2ms/153.tfrecords"
        string_val: "topology/tfrecords/train_2ms/1542.tfrecords"
        string_val: "topology/tfrecords/train_2ms/1544.tfrecords"
        string_val: "topology/tfrecords/train_2ms/1545.tfrecords"
        string_val: "topology/tfrecords/train_2ms/1546.tfrecords"
        string_val: "topology/tfrecords/train_2ms/1547.tfrecords"
        string_val: "topology/tfrecords/train_2ms/1548.tfrecords"
        string_val: "topology/tfrecords/train_2ms/1549.tfrecords"
        string_val: "topology/tfrecords/train_2ms/154.tfrecords"
        string_val: "topology/tfrecords/train_2ms/1551.tfrecords"
        string_val: "topology/tfrecords/train_2ms/1552.tfrecords"
        string_val: "topology/tfrecords/train_2ms/1553.tfrecords"
        string_val: "topology/tfrecords/train_2ms/1556.tfrecords"
        string_val: "topology/tfrecords/train_2ms/1557.tfrecords"
        string_val: "topology/tfrecords/train_2ms/1558.tfrecords"
        string_val: "topology/tfrecords/train_2ms/1559.tfrecords"
        string_val: "topology/tfrecords/train_2ms/155.tfrecords"
        string_val: "topology/tfrecords/train_2ms/1560.tfrecords"
        string_val: "topology/tfrecords/train_2ms/1561.tfrecords"
        string_val: "topology/tfrecords/train_2ms/1562.tfrecords"
        string_val: "topology/tfrecords/train_2ms/1564.tfrecords"
        string_val: "topology/tfrecords/train_2ms/1565.tfrecords"
        string_val: "topology/tfrecords/train_2ms/1566.tfrecords"
        string_val: "topology/tfrecords/train_2ms/1567.tfrecords"
        string_val: "topology/tfrecords/train_2ms/1568.tfrecords"
        string_val: "topology/tfrecords/train_2ms/1569.tfrecords"
        string_val: "topology/tfrecords/train_2ms/156.tfrecords"
        string_val: "topology/tfrecords/train_2ms/1570.tfrecords"
        string_val: "topology/tfrecords/train_2ms/1571.tfrecords"
        string_val: "topology/tfrecords/train_2ms/1573.tfrecords"
        string_val: "topology/tfrecords/train_2ms/1574.tfrecords"
        string_val: "topology/tfrecords/train_2ms/1576.tfrecords"
        string_val: "topology/tfrecords/train_2ms/1577.tfrecords"
        string_val: "topology/tfrecords/train_2ms/1578.tfrecords"
        string_val: "topology/tfrecords/train_2ms/157.tfrecords"
        string_val: "topology/tfrecords/train_2ms/1580.tfrecords"
        string_val: "topology/tfrecords/train_2ms/1581.tfrecords"
        string_val: "topology/tfrecords/train_2ms/1582.tfrecords"
        string_val: "topology/tfrecords/train_2ms/1583.tfrecords"
        string_val: "topology/tfrecords/train_2ms/1584.tfrecords"
        string_val: "topology/tfrecords/train_2ms/1585.tfrecords"
        string_val: "topology/tfrecords/train_2ms/1586.tfrecords"
        string_val: "topology/tfrecords/train_2ms/1587.tfrecords"
        string_val: "topology/tfrecords/train_2ms/1588.tfrecords"
        string_val: "topology/tfrecords/train_2ms/1589.tfrecords"
        string_val: "topology/tfrecords/train_2ms/158.tfrecords"
        string_val: "topology/tfrecords/train_2ms/1590.tfrecords"
        string_val: "topology/tfrecords/train_2ms/1593.tfrecords"
        string_val: "topology/tfrecords/train_2ms/1594.tfrecords"
        string_val: "topology/tfrecords/train_2ms/1595.tfrecords"
        string_val: "topology/tfrecords/train_2ms/1597.tfrecords"
        string_val: "topology/tfrecords/train_2ms/1598.tfrecords"
        string_val: "topology/tfrecords/train_2ms/1599.tfrecords"
        string_val: "topology/tfrecords/train_2ms/159.tfrecords"
        string_val: "topology/tfrecords/train_2ms/15.tfrecords"
        string_val: "topology/tfrecords/train_2ms/1600.tfrecords"
        string_val: "topology/tfrecords/train_2ms/1601.tfrecords"
        string_val: "topology/tfrecords/train_2ms/1602.tfrecords"
        string_val: "topology/tfrecords/train_2ms/1603.tfrecords"
        string_val: "topology/tfrecords/train_2ms/1604.tfrecords"
        string_val: "topology/tfrecords/train_2ms/1606.tfrecords"
        string_val: "topology/tfrecords/train_2ms/1607.tfrecords"
        string_val: "topology/tfrecords/train_2ms/1608.tfrecords"
        string_val: "topology/tfrecords/train_2ms/160.tfrecords"
        string_val: "topology/tfrecords/train_2ms/1611.tfrecords"
        string_val: "topology/tfrecords/train_2ms/1612.tfrecords"
        string_val: "topology/tfrecords/train_2ms/1613.tfrecords"
        string_val: "topology/tfrecords/train_2ms/1614.tfrecords"
        string_val: "topology/tfrecords/train_2ms/1615.tfrecords"
        string_val: "topology/tfrecords/train_2ms/1616.tfrecords"
        string_val: "topology/tfrecords/train_2ms/1618.tfrecords"
        string_val: "topology/tfrecords/train_2ms/1619.tfrecords"
        string_val: "topology/tfrecords/train_2ms/1620.tfrecords"
        string_val: "topology/tfrecords/train_2ms/1621.tfrecords"
        string_val: "topology/tfrecords/train_2ms/1622.tfrecords"
        string_val: "topology/tfrecords/train_2ms/1625.tfrecords"
        string_val: "topology/tfrecords/train_2ms/1626.tfrecords"
        string_val: "topology/tfrecords/train_2ms/1627.tfrecords"
        string_val: "topology/tfrecords/train_2ms/1628.tfrecords"
        string_val: "topology/tfrecords/train_2ms/1629.tfrecords"
        string_val: "topology/tfrecords/train_2ms/162.tfrecords"
        string_val: "topology/tfrecords/train_2ms/1630.tfrecords"
        string_val: "topology/tfrecords/train_2ms/1631.tfrecords"
        string_val: "topology/tfrecords/train_2ms/1633.tfrecords"
        string_val: "topology/tfrecords/train_2ms/1634.tfrecords"
        string_val: "topology/tfrecords/train_2ms/1635.tfrecords"
        string_val: "topology/tfrecords/train_2ms/1636.tfrecords"
        string_val: "topology/tfrecords/train_2ms/1637.tfrecords"
        string_val: "topology/tfrecords/train_2ms/1638.tfrecords"
        string_val: "topology/tfrecords/train_2ms/163.tfrecords"
        string_val: "topology/tfrecords/train_2ms/1640.tfrecords"
        string_val: "topology/tfrecords/train_2ms/1641.tfrecords"
        string_val: "topology/tfrecords/train_2ms/1642.tfrecords"
        string_val: "topology/tfrecords/train_2ms/1643.tfrecords"
        string_val: "topology/tfrecords/train_2ms/1644.tfrecords"
        string_val: "topology/tfrecords/train_2ms/1645.tfrecords"
        string_val: "topology/tfrecords/train_2ms/1646.tfrecords"
        string_val: "topology/tfrecords/train_2ms/1647.tfrecords"
        string_val: "topology/tfrecords/train_2ms/1648.tfrecords"
        string_val: "topology/tfrecords/train_2ms/1649.tfrecords"
        string_val: "topology/tfrecords/train_2ms/164.tfrecords"
        string_val: "topology/tfrecords/train_2ms/1650.tfrecords"
        string_val: "topology/tfrecords/train_2ms/1651.tfrecords"
        string_val: "topology/tfrecords/train_2ms/1652.tfrecords"
        string_val: "topology/tfrecords/train_2ms/1653.tfrecords"
        string_val: "topology/tfrecords/train_2ms/1654.tfrecords"
        string_val: "topology/tfrecords/train_2ms/1655.tfrecords"
        string_val: "topology/tfrecords/train_2ms/1656.tfrecords"
        string_val: "topology/tfrecords/train_2ms/1657.tfrecords"
        string_val: "topology/tfrecords/train_2ms/1658.tfrecords"
        string_val: "topology/tfrecords/train_2ms/1659.tfrecords"
        string_val: "topology/tfrecords/train_2ms/165.tfrecords"
        string_val: "topology/tfrecords/train_2ms/1660.tfrecords"
        string_val: "topology/tfrecords/train_2ms/1661.tfrecords"
        string_val: "topology/tfrecords/train_2ms/1662.tfrecords"
        string_val: "topology/tfrecords/train_2ms/1663.tfrecords"
        string_val: "topology/tfrecords/train_2ms/1664.tfrecords"
        string_val: "topology/tfrecords/train_2ms/1665.tfrecords"
        string_val: "topology/tfrecords/train_2ms/1666.tfrecords"
        string_val: "topology/tfrecords/train_2ms/1667.tfrecords"
        string_val: "topology/tfrecords/train_2ms/1668.tfrecords"
        string_val: "topology/tfrecords/train_2ms/166.tfrecords"
        string_val: "topology/tfrecords/train_2ms/1671.tfrecords"
        string_val: "topology/tfrecords/train_2ms/1672.tfrecords"
        string_val: "topology/tfrecords/train_2ms/1673.tfrecords"
        string_val: "topology/tfrecords/train_2ms/1674.tfrecords"
        string_val: "topology/tfrecords/train_2ms/1675.tfrecords"
        string_val: "topology/tfrecords/train_2ms/1676.tfrecords"
        string_val: "topology/tfrecords/train_2ms/1677.tfrecords"
        string_val: "topology/tfrecords/train_2ms/1678.tfrecords"
        string_val: "topology/tfrecords/train_2ms/167.tfrecords"
        string_val: "topology/tfrecords/train_2ms/1680.tfrecords"
        string_val: "topology/tfrecords/train_2ms/1681.tfrecords"
        string_val: "topology/tfrecords/train_2ms/1683.tfrecords"
        string_val: "topology/tfrecords/train_2ms/1685.tfrecords"
        string_val: "topology/tfrecords/train_2ms/1687.tfrecords"
        string_val: "topology/tfrecords/train_2ms/1688.tfrecords"
        string_val: "topology/tfrecords/train_2ms/1689.tfrecords"
        string_val: "topology/tfrecords/train_2ms/168.tfrecords"
        string_val: "topology/tfrecords/train_2ms/1691.tfrecords"
        string_val: "topology/tfrecords/train_2ms/1692.tfrecords"
        string_val: "topology/tfrecords/train_2ms/1694.tfrecords"
        string_val: "topology/tfrecords/train_2ms/1695.tfrecords"
        string_val: "topology/tfrecords/train_2ms/1696.tfrecords"
        string_val: "topology/tfrecords/train_2ms/1697.tfrecords"
        string_val: "topology/tfrecords/train_2ms/1699.tfrecords"
        string_val: "topology/tfrecords/train_2ms/169.tfrecords"
        string_val: "topology/tfrecords/train_2ms/16.tfrecords"
        string_val: "topology/tfrecords/train_2ms/1700.tfrecords"
        string_val: "topology/tfrecords/train_2ms/1702.tfrecords"
        string_val: "topology/tfrecords/train_2ms/1704.tfrecords"
        string_val: "topology/tfrecords/train_2ms/1706.tfrecords"
        string_val: "topology/tfrecords/train_2ms/1707.tfrecords"
        string_val: "topology/tfrecords/train_2ms/1708.tfrecords"
        string_val: "topology/tfrecords/train_2ms/170.tfrecords"
        string_val: "topology/tfrecords/train_2ms/1710.tfrecords"
        string_val: "topology/tfrecords/train_2ms/1711.tfrecords"
        string_val: "topology/tfrecords/train_2ms/1712.tfrecords"
        string_val: "topology/tfrecords/train_2ms/1714.tfrecords"
        string_val: "topology/tfrecords/train_2ms/1715.tfrecords"
        string_val: "topology/tfrecords/train_2ms/1716.tfrecords"
        string_val: "topology/tfrecords/train_2ms/1717.tfrecords"
        string_val: "topology/tfrecords/train_2ms/1718.tfrecords"
        string_val: "topology/tfrecords/train_2ms/1719.tfrecords"
        string_val: "topology/tfrecords/train_2ms/1720.tfrecords"
        string_val: "topology/tfrecords/train_2ms/1721.tfrecords"
        string_val: "topology/tfrecords/train_2ms/1722.tfrecords"
        string_val: "topology/tfrecords/train_2ms/1725.tfrecords"
        string_val: "topology/tfrecords/train_2ms/1726.tfrecords"
        string_val: "topology/tfrecords/train_2ms/1728.tfrecords"
        string_val: "topology/tfrecords/train_2ms/1729.tfrecords"
        string_val: "topology/tfrecords/train_2ms/172.tfrecords"
        string_val: "topology/tfrecords/train_2ms/1730.tfrecords"
        string_val: "topology/tfrecords/train_2ms/1731.tfrecords"
        string_val: "topology/tfrecords/train_2ms/1732.tfrecords"
        string_val: "topology/tfrecords/train_2ms/1733.tfrecords"
        string_val: "topology/tfrecords/train_2ms/1734.tfrecords"
        string_val: "topology/tfrecords/train_2ms/1735.tfrecords"
        string_val: "topology/tfrecords/train_2ms/1736.tfrecords"
        string_val: "topology/tfrecords/train_2ms/1737.tfrecords"
        string_val: "topology/tfrecords/train_2ms/1738.tfrecords"
        string_val: "topology/tfrecords/train_2ms/1739.tfrecords"
        string_val: "topology/tfrecords/train_2ms/173.tfrecords"
        string_val: "topology/tfrecords/train_2ms/1740.tfrecords"
        string_val: "topology/tfrecords/train_2ms/1741.tfrecords"
        string_val: "topology/tfrecords/train_2ms/1743.tfrecords"
        string_val: "topology/tfrecords/train_2ms/1744.tfrecords"
        string_val: "topology/tfrecords/train_2ms/1745.tfrecords"
        string_val: "topology/tfrecords/train_2ms/1747.tfrecords"
        string_val: "topology/tfrecords/train_2ms/1748.tfrecords"
        string_val: "topology/tfrecords/train_2ms/1749.tfrecords"
        string_val: "topology/tfrecords/train_2ms/174.tfrecords"
        string_val: "topology/tfrecords/train_2ms/1750.tfrecords"
        string_val: "topology/tfrecords/train_2ms/1752.tfrecords"
        string_val: "topology/tfrecords/train_2ms/1753.tfrecords"
        string_val: "topology/tfrecords/train_2ms/1754.tfrecords"
        string_val: "topology/tfrecords/train_2ms/1755.tfrecords"
        string_val: "topology/tfrecords/train_2ms/1757.tfrecords"
        string_val: "topology/tfrecords/train_2ms/1759.tfrecords"
        string_val: "topology/tfrecords/train_2ms/175.tfrecords"
        string_val: "topology/tfrecords/train_2ms/1761.tfrecords"
        string_val: "topology/tfrecords/train_2ms/1762.tfrecords"
        string_val: "topology/tfrecords/train_2ms/1763.tfrecords"
        string_val: "topology/tfrecords/train_2ms/1764.tfrecords"
        string_val: "topology/tfrecords/train_2ms/1765.tfrecords"
        string_val: "topology/tfrecords/train_2ms/1766.tfrecords"
        string_val: "topology/tfrecords/train_2ms/1768.tfrecords"
        string_val: "topology/tfrecords/train_2ms/176.tfrecords"
        string_val: "topology/tfrecords/train_2ms/1770.tfrecords"
        string_val: "topology/tfrecords/train_2ms/1771.tfrecords"
        string_val: "topology/tfrecords/train_2ms/1772.tfrecords"
        string_val: "topology/tfrecords/train_2ms/1773.tfrecords"
        string_val: "topology/tfrecords/train_2ms/1774.tfrecords"
        string_val: "topology/tfrecords/train_2ms/1775.tfrecords"
        string_val: "topology/tfrecords/train_2ms/1776.tfrecords"
        string_val: "topology/tfrecords/train_2ms/1778.tfrecords"
        string_val: "topology/tfrecords/train_2ms/1779.tfrecords"
        string_val: "topology/tfrecords/train_2ms/1780.tfrecords"
        string_val: "topology/tfrecords/train_2ms/1781.tfrecords"
        string_val: "topology/tfrecords/train_2ms/1782.tfrecords"
        string_val: "topology/tfrecords/train_2ms/1783.tfrecords"
        string_val: "topology/tfrecords/train_2ms/1784.tfrecords"
        string_val: "topology/tfrecords/train_2ms/1788.tfrecords"
        string_val: "topology/tfrecords/train_2ms/1789.tfrecords"
        string_val: "topology/tfrecords/train_2ms/178.tfrecords"
        string_val: "topology/tfrecords/train_2ms/1790.tfrecords"
        string_val: "topology/tfrecords/train_2ms/1791.tfrecords"
        string_val: "topology/tfrecords/train_2ms/1792.tfrecords"
        string_val: "topology/tfrecords/train_2ms/1793.tfrecords"
        string_val: "topology/tfrecords/train_2ms/1794.tfrecords"
        string_val: "topology/tfrecords/train_2ms/1796.tfrecords"
        string_val: "topology/tfrecords/train_2ms/1797.tfrecords"
        string_val: "topology/tfrecords/train_2ms/1798.tfrecords"
        string_val: "topology/tfrecords/train_2ms/1799.tfrecords"
        string_val: "topology/tfrecords/train_2ms/179.tfrecords"
        string_val: "topology/tfrecords/train_2ms/17.tfrecords"
        string_val: "topology/tfrecords/train_2ms/1800.tfrecords"
        string_val: "topology/tfrecords/train_2ms/1801.tfrecords"
        string_val: "topology/tfrecords/train_2ms/1802.tfrecords"
        string_val: "topology/tfrecords/train_2ms/1804.tfrecords"
        string_val: "topology/tfrecords/train_2ms/1806.tfrecords"
        string_val: "topology/tfrecords/train_2ms/1807.tfrecords"
        string_val: "topology/tfrecords/train_2ms/1808.tfrecords"
        string_val: "topology/tfrecords/train_2ms/1809.tfrecords"
        string_val: "topology/tfrecords/train_2ms/180.tfrecords"
        string_val: "topology/tfrecords/train_2ms/1810.tfrecords"
        string_val: "topology/tfrecords/train_2ms/1811.tfrecords"
        string_val: "topology/tfrecords/train_2ms/1812.tfrecords"
        string_val: "topology/tfrecords/train_2ms/1813.tfrecords"
        string_val: "topology/tfrecords/train_2ms/1814.tfrecords"
        string_val: "topology/tfrecords/train_2ms/1815.tfrecords"
        string_val: "topology/tfrecords/train_2ms/1816.tfrecords"
        string_val: "topology/tfrecords/train_2ms/1817.tfrecords"
        string_val: "topology/tfrecords/train_2ms/1818.tfrecords"
        string_val: "topology/tfrecords/train_2ms/1819.tfrecords"
        string_val: "topology/tfrecords/train_2ms/181.tfrecords"
        string_val: "topology/tfrecords/train_2ms/1820.tfrecords"
        string_val: "topology/tfrecords/train_2ms/1821.tfrecords"
        string_val: "topology/tfrecords/train_2ms/1824.tfrecords"
        string_val: "topology/tfrecords/train_2ms/1825.tfrecords"
        string_val: "topology/tfrecords/train_2ms/1829.tfrecords"
        string_val: "topology/tfrecords/train_2ms/182.tfrecords"
        string_val: "topology/tfrecords/train_2ms/1830.tfrecords"
        string_val: "topology/tfrecords/train_2ms/1831.tfrecords"
        string_val: "topology/tfrecords/train_2ms/1832.tfrecords"
        string_val: "topology/tfrecords/train_2ms/1833.tfrecords"
        string_val: "topology/tfrecords/train_2ms/1834.tfrecords"
        string_val: "topology/tfrecords/train_2ms/1835.tfrecords"
        string_val: "topology/tfrecords/train_2ms/1836.tfrecords"
        string_val: "topology/tfrecords/train_2ms/1837.tfrecords"
        string_val: "topology/tfrecords/train_2ms/1838.tfrecords"
        string_val: "topology/tfrecords/train_2ms/1840.tfrecords"
        string_val: "topology/tfrecords/train_2ms/1843.tfrecords"
        string_val: "topology/tfrecords/train_2ms/1844.tfrecords"
        string_val: "topology/tfrecords/train_2ms/1845.tfrecords"
        string_val: "topology/tfrecords/train_2ms/1846.tfrecords"
        string_val: "topology/tfrecords/train_2ms/1847.tfrecords"
        string_val: "topology/tfrecords/train_2ms/1848.tfrecords"
        string_val: "topology/tfrecords/train_2ms/1849.tfrecords"
        string_val: "topology/tfrecords/train_2ms/184.tfrecords"
        string_val: "topology/tfrecords/train_2ms/1850.tfrecords"
        string_val: "topology/tfrecords/train_2ms/1851.tfrecords"
        string_val: "topology/tfrecords/train_2ms/1852.tfrecords"
        string_val: "topology/tfrecords/train_2ms/1853.tfrecords"
        string_val: "topology/tfrecords/train_2ms/1855.tfrecords"
        string_val: "topology/tfrecords/train_2ms/1856.tfrecords"
        string_val: "topology/tfrecords/train_2ms/1857.tfrecords"
        string_val: "topology/tfrecords/train_2ms/1858.tfrecords"
        string_val: "topology/tfrecords/train_2ms/1859.tfrecords"
        string_val: "topology/tfrecords/train_2ms/185.tfrecords"
        string_val: "topology/tfrecords/train_2ms/1860.tfrecords"
        string_val: "topology/tfrecords/train_2ms/1861.tfrecords"
        string_val: "topology/tfrecords/train_2ms/1864.tfrecords"
        string_val: "topology/tfrecords/train_2ms/1865.tfrecords"
        string_val: "topology/tfrecords/train_2ms/1866.tfrecords"
        string_val: "topology/tfrecords/train_2ms/1867.tfrecords"
        string_val: "topology/tfrecords/train_2ms/1868.tfrecords"
        string_val: "topology/tfrecords/train_2ms/186.tfrecords"
        string_val: "topology/tfrecords/train_2ms/1870.tfrecords"
        string_val: "topology/tfrecords/train_2ms/1871.tfrecords"
        string_val: "topology/tfrecords/train_2ms/1873.tfrecords"
        string_val: "topology/tfrecords/train_2ms/1874.tfrecords"
        string_val: "topology/tfrecords/train_2ms/1875.tfrecords"
        string_val: "topology/tfrecords/train_2ms/1876.tfrecords"
        string_val: "topology/tfrecords/train_2ms/1877.tfrecords"
        string_val: "topology/tfrecords/train_2ms/1878.tfrecords"
        string_val: "topology/tfrecords/train_2ms/187.tfrecords"
        string_val: "topology/tfrecords/train_2ms/1880.tfrecords"
        string_val: "topology/tfrecords/train_2ms/1881.tfrecords"
        string_val: "topology/tfrecords/train_2ms/1882.tfrecords"
        string_val: "topology/tfrecords/train_2ms/1883.tfrecords"
        string_val: "topology/tfrecords/train_2ms/1884.tfrecords"
        string_val: "topology/tfrecords/train_2ms/1886.tfrecords"
        string_val: "topology/tfrecords/train_2ms/1889.tfrecords"
        string_val: "topology/tfrecords/train_2ms/188.tfrecords"
        string_val: "topology/tfrecords/train_2ms/1890.tfrecords"
        string_val: "topology/tfrecords/train_2ms/1892.tfrecords"
        string_val: "topology/tfrecords/train_2ms/1893.tfrecords"
        string_val: "topology/tfrecords/train_2ms/1894.tfrecords"
        string_val: "topology/tfrecords/train_2ms/1896.tfrecords"
        string_val: "topology/tfrecords/train_2ms/1897.tfrecords"
        string_val: "topology/tfrecords/train_2ms/1898.tfrecords"
        string_val: "topology/tfrecords/train_2ms/1899.tfrecords"
        string_val: "topology/tfrecords/train_2ms/189.tfrecords"
        string_val: "topology/tfrecords/train_2ms/18.tfrecords"
        string_val: "topology/tfrecords/train_2ms/1900.tfrecords"
        string_val: "topology/tfrecords/train_2ms/1902.tfrecords"
        string_val: "topology/tfrecords/train_2ms/1903.tfrecords"
        string_val: "topology/tfrecords/train_2ms/1904.tfrecords"
        string_val: "topology/tfrecords/train_2ms/1906.tfrecords"
        string_val: "topology/tfrecords/train_2ms/1907.tfrecords"
        string_val: "topology/tfrecords/train_2ms/1908.tfrecords"
        string_val: "topology/tfrecords/train_2ms/1909.tfrecords"
        string_val: "topology/tfrecords/train_2ms/1910.tfrecords"
        string_val: "topology/tfrecords/train_2ms/1911.tfrecords"
        string_val: "topology/tfrecords/train_2ms/1912.tfrecords"
        string_val: "topology/tfrecords/train_2ms/1914.tfrecords"
        string_val: "topology/tfrecords/train_2ms/1915.tfrecords"
        string_val: "topology/tfrecords/train_2ms/1917.tfrecords"
        string_val: "topology/tfrecords/train_2ms/1918.tfrecords"
        string_val: "topology/tfrecords/train_2ms/1919.tfrecords"
        string_val: "topology/tfrecords/train_2ms/191.tfrecords"
        string_val: "topology/tfrecords/train_2ms/1920.tfrecords"
        string_val: "topology/tfrecords/train_2ms/1921.tfrecords"
        string_val: "topology/tfrecords/train_2ms/1922.tfrecords"
        string_val: "topology/tfrecords/train_2ms/1923.tfrecords"
        string_val: "topology/tfrecords/train_2ms/1924.tfrecords"
        string_val: "topology/tfrecords/train_2ms/1926.tfrecords"
        string_val: "topology/tfrecords/train_2ms/1927.tfrecords"
        string_val: "topology/tfrecords/train_2ms/1928.tfrecords"
        string_val: "topology/tfrecords/train_2ms/1929.tfrecords"
        string_val: "topology/tfrecords/train_2ms/192.tfrecords"
        string_val: "topology/tfrecords/train_2ms/1930.tfrecords"
        string_val: "topology/tfrecords/train_2ms/1933.tfrecords"
        string_val: "topology/tfrecords/train_2ms/1934.tfrecords"
        string_val: "topology/tfrecords/train_2ms/1938.tfrecords"
        string_val: "topology/tfrecords/train_2ms/1939.tfrecords"
        string_val: "topology/tfrecords/train_2ms/193.tfrecords"
        string_val: "topology/tfrecords/train_2ms/1940.tfrecords"
        string_val: "topology/tfrecords/train_2ms/1942.tfrecords"
        string_val: "topology/tfrecords/train_2ms/1943.tfrecords"
        string_val: "topology/tfrecords/train_2ms/1944.tfrecords"
        string_val: "topology/tfrecords/train_2ms/1945.tfrecords"
        string_val: "topology/tfrecords/train_2ms/1946.tfrecords"
        string_val: "topology/tfrecords/train_2ms/1947.tfrecords"
        string_val: "topology/tfrecords/train_2ms/1948.tfrecords"
        string_val: "topology/tfrecords/train_2ms/1949.tfrecords"
        string_val: "topology/tfrecords/train_2ms/194.tfrecords"
        string_val: "topology/tfrecords/train_2ms/1951.tfrecords"
        string_val: "topology/tfrecords/train_2ms/1953.tfrecords"
        string_val: "topology/tfrecords/train_2ms/1954.tfrecords"
        string_val: "topology/tfrecords/train_2ms/1955.tfrecords"
        string_val: "topology/tfrecords/train_2ms/1956.tfrecords"
        string_val: "topology/tfrecords/train_2ms/1958.tfrecords"
        string_val: "topology/tfrecords/train_2ms/1959.tfrecords"
        string_val: "topology/tfrecords/train_2ms/195.tfrecords"
        string_val: "topology/tfrecords/train_2ms/1960.tfrecords"
        string_val: "topology/tfrecords/train_2ms/1962.tfrecords"
        string_val: "topology/tfrecords/train_2ms/1963.tfrecords"
        string_val: "topology/tfrecords/train_2ms/1964.tfrecords"
        string_val: "topology/tfrecords/train_2ms/1967.tfrecords"
        string_val: "topology/tfrecords/train_2ms/1968.tfrecords"
        string_val: "topology/tfrecords/train_2ms/1969.tfrecords"
        string_val: "topology/tfrecords/train_2ms/196.tfrecords"
        string_val: "topology/tfrecords/train_2ms/1970.tfrecords"
        string_val: "topology/tfrecords/train_2ms/1972.tfrecords"
        string_val: "topology/tfrecords/train_2ms/1973.tfrecords"
        string_val: "topology/tfrecords/train_2ms/1975.tfrecords"
        string_val: "topology/tfrecords/train_2ms/1977.tfrecords"
        string_val: "topology/tfrecords/train_2ms/1978.tfrecords"
        string_val: "topology/tfrecords/train_2ms/1979.tfrecords"
        string_val: "topology/tfrecords/train_2ms/197.tfrecords"
        string_val: "topology/tfrecords/train_2ms/1980.tfrecords"
        string_val: "topology/tfrecords/train_2ms/1981.tfrecords"
        string_val: "topology/tfrecords/train_2ms/1982.tfrecords"
        string_val: "topology/tfrecords/train_2ms/1983.tfrecords"
        string_val: "topology/tfrecords/train_2ms/1985.tfrecords"
        string_val: "topology/tfrecords/train_2ms/1986.tfrecords"
        string_val: "topology/tfrecords/train_2ms/1987.tfrecords"
        string_val: "topology/tfrecords/train_2ms/1989.tfrecords"
        string_val: "topology/tfrecords/train_2ms/198.tfrecords"
        string_val: "topology/tfrecords/train_2ms/1990.tfrecords"
        string_val: "topology/tfrecords/train_2ms/1991.tfrecords"
        string_val: "topology/tfrecords/train_2ms/1992.tfrecords"
        string_val: "topology/tfrecords/train_2ms/1993.tfrecords"
        string_val: "topology/tfrecords/train_2ms/1994.tfrecords"
        string_val: "topology/tfrecords/train_2ms/1995.tfrecords"
        string_val: "topology/tfrecords/train_2ms/1996.tfrecords"
        string_val: "topology/tfrecords/train_2ms/1997.tfrecords"
        string_val: "topology/tfrecords/train_2ms/199.tfrecords"
        string_val: "topology/tfrecords/train_2ms/19.tfrecords"
        string_val: "topology/tfrecords/train_2ms/2001.tfrecords"
        string_val: "topology/tfrecords/train_2ms/2002.tfrecords"
        string_val: "topology/tfrecords/train_2ms/2004.tfrecords"
        string_val: "topology/tfrecords/train_2ms/2005.tfrecords"
        string_val: "topology/tfrecords/train_2ms/2009.tfrecords"
        string_val: "topology/tfrecords/train_2ms/200.tfrecords"
        string_val: "topology/tfrecords/train_2ms/2010.tfrecords"
        string_val: "topology/tfrecords/train_2ms/2013.tfrecords"
        string_val: "topology/tfrecords/train_2ms/2015.tfrecords"
        string_val: "topology/tfrecords/train_2ms/2017.tfrecords"
        string_val: "topology/tfrecords/train_2ms/2018.tfrecords"
        string_val: "topology/tfrecords/train_2ms/2019.tfrecords"
        string_val: "topology/tfrecords/train_2ms/201.tfrecords"
        string_val: "topology/tfrecords/train_2ms/2020.tfrecords"
        string_val: "topology/tfrecords/train_2ms/2023.tfrecords"
        string_val: "topology/tfrecords/train_2ms/2024.tfrecords"
        string_val: "topology/tfrecords/train_2ms/2025.tfrecords"
        string_val: "topology/tfrecords/train_2ms/2026.tfrecords"
        string_val: "topology/tfrecords/train_2ms/2028.tfrecords"
        string_val: "topology/tfrecords/train_2ms/2029.tfrecords"
        string_val: "topology/tfrecords/train_2ms/202.tfrecords"
        string_val: "topology/tfrecords/train_2ms/2030.tfrecords"
        string_val: "topology/tfrecords/train_2ms/2031.tfrecords"
        string_val: "topology/tfrecords/train_2ms/2032.tfrecords"
        string_val: "topology/tfrecords/train_2ms/2033.tfrecords"
        string_val: "topology/tfrecords/train_2ms/2034.tfrecords"
        string_val: "topology/tfrecords/train_2ms/2035.tfrecords"
        string_val: "topology/tfrecords/train_2ms/2036.tfrecords"
        string_val: "topology/tfrecords/train_2ms/2037.tfrecords"
        string_val: "topology/tfrecords/train_2ms/2038.tfrecords"
        string_val: "topology/tfrecords/train_2ms/2039.tfrecords"
        string_val: "topology/tfrecords/train_2ms/203.tfrecords"
        string_val: "topology/tfrecords/train_2ms/2040.tfrecords"
        string_val: "topology/tfrecords/train_2ms/2041.tfrecords"
        string_val: "topology/tfrecords/train_2ms/2042.tfrecords"
        string_val: "topology/tfrecords/train_2ms/2044.tfrecords"
        string_val: "topology/tfrecords/train_2ms/2045.tfrecords"
        string_val: "topology/tfrecords/train_2ms/2046.tfrecords"
        string_val: "topology/tfrecords/train_2ms/2047.tfrecords"
        string_val: "topology/tfrecords/train_2ms/2048.tfrecords"
        string_val: "topology/tfrecords/train_2ms/2049.tfrecords"
        string_val: "topology/tfrecords/train_2ms/204.tfrecords"
        string_val: "topology/tfrecords/train_2ms/2051.tfrecords"
        string_val: "topology/tfrecords/train_2ms/2053.tfrecords"
        string_val: "topology/tfrecords/train_2ms/2054.tfrecords"
        string_val: "topology/tfrecords/train_2ms/2055.tfrecords"
        string_val: "topology/tfrecords/train_2ms/2056.tfrecords"
        string_val: "topology/tfrecords/train_2ms/2057.tfrecords"
        string_val: "topology/tfrecords/train_2ms/2058.tfrecords"
        string_val: "topology/tfrecords/train_2ms/2059.tfrecords"
        string_val: "topology/tfrecords/train_2ms/205.tfrecords"
        string_val: "topology/tfrecords/train_2ms/2062.tfrecords"
        string_val: "topology/tfrecords/train_2ms/2063.tfrecords"
        string_val: "topology/tfrecords/train_2ms/2064.tfrecords"
        string_val: "topology/tfrecords/train_2ms/2065.tfrecords"
        string_val: "topology/tfrecords/train_2ms/2066.tfrecords"
        string_val: "topology/tfrecords/train_2ms/2067.tfrecords"
        string_val: "topology/tfrecords/train_2ms/2068.tfrecords"
        string_val: "topology/tfrecords/train_2ms/206.tfrecords"
        string_val: "topology/tfrecords/train_2ms/2070.tfrecords"
        string_val: "topology/tfrecords/train_2ms/2071.tfrecords"
        string_val: "topology/tfrecords/train_2ms/2072.tfrecords"
        string_val: "topology/tfrecords/train_2ms/2073.tfrecords"
        string_val: "topology/tfrecords/train_2ms/2074.tfrecords"
        string_val: "topology/tfrecords/train_2ms/2075.tfrecords"
        string_val: "topology/tfrecords/train_2ms/2076.tfrecords"
        string_val: "topology/tfrecords/train_2ms/2077.tfrecords"
        string_val: "topology/tfrecords/train_2ms/2078.tfrecords"
        string_val: "topology/tfrecords/train_2ms/2079.tfrecords"
        string_val: "topology/tfrecords/train_2ms/207.tfrecords"
        string_val: "topology/tfrecords/train_2ms/2080.tfrecords"
        string_val: "topology/tfrecords/train_2ms/2083.tfrecords"
        string_val: "topology/tfrecords/train_2ms/2084.tfrecords"
        string_val: "topology/tfrecords/train_2ms/2085.tfrecords"
        string_val: "topology/tfrecords/train_2ms/2086.tfrecords"
        string_val: "topology/tfrecords/train_2ms/2087.tfrecords"
        string_val: "topology/tfrecords/train_2ms/2088.tfrecords"
        string_val: "topology/tfrecords/train_2ms/2089.tfrecords"
        string_val: "topology/tfrecords/train_2ms/208.tfrecords"
        string_val: "topology/tfrecords/train_2ms/2090.tfrecords"
        string_val: "topology/tfrecords/train_2ms/2094.tfrecords"
        string_val: "topology/tfrecords/train_2ms/2095.tfrecords"
        string_val: "topology/tfrecords/train_2ms/2096.tfrecords"
        string_val: "topology/tfrecords/train_2ms/2097.tfrecords"
        string_val: "topology/tfrecords/train_2ms/2098.tfrecords"
        string_val: "topology/tfrecords/train_2ms/209.tfrecords"
        string_val: "topology/tfrecords/train_2ms/20.tfrecords"
        string_val: "topology/tfrecords/train_2ms/2100.tfrecords"
        string_val: "topology/tfrecords/train_2ms/2101.tfrecords"
        string_val: "topology/tfrecords/train_2ms/2102.tfrecords"
        string_val: "topology/tfrecords/train_2ms/2103.tfrecords"
        string_val: "topology/tfrecords/train_2ms/2104.tfrecords"
        string_val: "topology/tfrecords/train_2ms/2105.tfrecords"
        string_val: "topology/tfrecords/train_2ms/2106.tfrecords"
        string_val: "topology/tfrecords/train_2ms/2108.tfrecords"
        string_val: "topology/tfrecords/train_2ms/210.tfrecords"
        string_val: "topology/tfrecords/train_2ms/2110.tfrecords"
        string_val: "topology/tfrecords/train_2ms/2111.tfrecords"
        string_val: "topology/tfrecords/train_2ms/2112.tfrecords"
        string_val: "topology/tfrecords/train_2ms/2114.tfrecords"
        string_val: "topology/tfrecords/train_2ms/2115.tfrecords"
        string_val: "topology/tfrecords/train_2ms/2116.tfrecords"
        string_val: "topology/tfrecords/train_2ms/2117.tfrecords"
        string_val: "topology/tfrecords/train_2ms/2118.tfrecords"
        string_val: "topology/tfrecords/train_2ms/2119.tfrecords"
        string_val: "topology/tfrecords/train_2ms/211.tfrecords"
        string_val: "topology/tfrecords/train_2ms/2120.tfrecords"
        string_val: "topology/tfrecords/train_2ms/2121.tfrecords"
        string_val: "topology/tfrecords/train_2ms/2124.tfrecords"
        string_val: "topology/tfrecords/train_2ms/2125.tfrecords"
        string_val: "topology/tfrecords/train_2ms/2126.tfrecords"
        string_val: "topology/tfrecords/train_2ms/2127.tfrecords"
        string_val: "topology/tfrecords/train_2ms/2129.tfrecords"
        string_val: "topology/tfrecords/train_2ms/212.tfrecords"
        string_val: "topology/tfrecords/train_2ms/2130.tfrecords"
        string_val: "topology/tfrecords/train_2ms/2132.tfrecords"
        string_val: "topology/tfrecords/train_2ms/2133.tfrecords"
        string_val: "topology/tfrecords/train_2ms/2134.tfrecords"
        string_val: "topology/tfrecords/train_2ms/2136.tfrecords"
        string_val: "topology/tfrecords/train_2ms/2137.tfrecords"
        string_val: "topology/tfrecords/train_2ms/2139.tfrecords"
        string_val: "topology/tfrecords/train_2ms/213.tfrecords"
        string_val: "topology/tfrecords/train_2ms/2140.tfrecords"
        string_val: "topology/tfrecords/train_2ms/2141.tfrecords"
        string_val: "topology/tfrecords/train_2ms/2142.tfrecords"
        string_val: "topology/tfrecords/train_2ms/2143.tfrecords"
        string_val: "topology/tfrecords/train_2ms/2144.tfrecords"
        string_val: "topology/tfrecords/train_2ms/2146.tfrecords"
        string_val: "topology/tfrecords/train_2ms/2148.tfrecords"
        string_val: "topology/tfrecords/train_2ms/2149.tfrecords"
        string_val: "topology/tfrecords/train_2ms/214.tfrecords"
        string_val: "topology/tfrecords/train_2ms/2150.tfrecords"
        string_val: "topology/tfrecords/train_2ms/2151.tfrecords"
        string_val: "topology/tfrecords/train_2ms/2152.tfrecords"
        string_val: "topology/tfrecords/train_2ms/2154.tfrecords"
        string_val: "topology/tfrecords/train_2ms/2155.tfrecords"
        string_val: "topology/tfrecords/train_2ms/2157.tfrecords"
        string_val: "topology/tfrecords/train_2ms/2158.tfrecords"
        string_val: "topology/tfrecords/train_2ms/215.tfrecords"
        string_val: "topology/tfrecords/train_2ms/2160.tfrecords"
        string_val: "topology/tfrecords/train_2ms/2162.tfrecords"
        string_val: "topology/tfrecords/train_2ms/2163.tfrecords"
        string_val: "topology/tfrecords/train_2ms/2166.tfrecords"
        string_val: "topology/tfrecords/train_2ms/2167.tfrecords"
        string_val: "topology/tfrecords/train_2ms/2168.tfrecords"
        string_val: "topology/tfrecords/train_2ms/2169.tfrecords"
        string_val: "topology/tfrecords/train_2ms/2170.tfrecords"
        string_val: "topology/tfrecords/train_2ms/2171.tfrecords"
        string_val: "topology/tfrecords/train_2ms/2172.tfrecords"
        string_val: "topology/tfrecords/train_2ms/2173.tfrecords"
        string_val: "topology/tfrecords/train_2ms/2174.tfrecords"
        string_val: "topology/tfrecords/train_2ms/2176.tfrecords"
        string_val: "topology/tfrecords/train_2ms/2177.tfrecords"
        string_val: "topology/tfrecords/train_2ms/2178.tfrecords"
        string_val: "topology/tfrecords/train_2ms/2179.tfrecords"
        string_val: "topology/tfrecords/train_2ms/217.tfrecords"
        string_val: "topology/tfrecords/train_2ms/2180.tfrecords"
        string_val: "topology/tfrecords/train_2ms/2181.tfrecords"
        string_val: "topology/tfrecords/train_2ms/2182.tfrecords"
        string_val: "topology/tfrecords/train_2ms/2185.tfrecords"
        string_val: "topology/tfrecords/train_2ms/2186.tfrecords"
        string_val: "topology/tfrecords/train_2ms/2187.tfrecords"
        string_val: "topology/tfrecords/train_2ms/2188.tfrecords"
        string_val: "topology/tfrecords/train_2ms/2189.tfrecords"
        string_val: "topology/tfrecords/train_2ms/218.tfrecords"
        string_val: "topology/tfrecords/train_2ms/2190.tfrecords"
        string_val: "topology/tfrecords/train_2ms/2191.tfrecords"
        string_val: "topology/tfrecords/train_2ms/2192.tfrecords"
        string_val: "topology/tfrecords/train_2ms/2193.tfrecords"
        string_val: "topology/tfrecords/train_2ms/2194.tfrecords"
        string_val: "topology/tfrecords/train_2ms/2195.tfrecords"
        string_val: "topology/tfrecords/train_2ms/2196.tfrecords"
        string_val: "topology/tfrecords/train_2ms/2197.tfrecords"
        string_val: "topology/tfrecords/train_2ms/2198.tfrecords"
        string_val: "topology/tfrecords/train_2ms/2199.tfrecords"
        string_val: "topology/tfrecords/train_2ms/219.tfrecords"
        string_val: "topology/tfrecords/train_2ms/21.tfrecords"
        string_val: "topology/tfrecords/train_2ms/2200.tfrecords"
        string_val: "topology/tfrecords/train_2ms/2201.tfrecords"
        string_val: "topology/tfrecords/train_2ms/2203.tfrecords"
        string_val: "topology/tfrecords/train_2ms/2204.tfrecords"
        string_val: "topology/tfrecords/train_2ms/2206.tfrecords"
        string_val: "topology/tfrecords/train_2ms/2207.tfrecords"
        string_val: "topology/tfrecords/train_2ms/2208.tfrecords"
        string_val: "topology/tfrecords/train_2ms/2209.tfrecords"
        string_val: "topology/tfrecords/train_2ms/220.tfrecords"
        string_val: "topology/tfrecords/train_2ms/2211.tfrecords"
        string_val: "topology/tfrecords/train_2ms/2212.tfrecords"
        string_val: "topology/tfrecords/train_2ms/2215.tfrecords"
        string_val: "topology/tfrecords/train_2ms/2216.tfrecords"
        string_val: "topology/tfrecords/train_2ms/2219.tfrecords"
        string_val: "topology/tfrecords/train_2ms/221.tfrecords"
        string_val: "topology/tfrecords/train_2ms/2220.tfrecords"
        string_val: "topology/tfrecords/train_2ms/2221.tfrecords"
        string_val: "topology/tfrecords/train_2ms/2222.tfrecords"
        string_val: "topology/tfrecords/train_2ms/2223.tfrecords"
        string_val: "topology/tfrecords/train_2ms/2224.tfrecords"
        string_val: "topology/tfrecords/train_2ms/2225.tfrecords"
        string_val: "topology/tfrecords/train_2ms/2226.tfrecords"
        string_val: "topology/tfrecords/train_2ms/2227.tfrecords"
        string_val: "topology/tfrecords/train_2ms/2228.tfrecords"
        string_val: "topology/tfrecords/train_2ms/2229.tfrecords"
        string_val: "topology/tfrecords/train_2ms/2231.tfrecords"
        string_val: "topology/tfrecords/train_2ms/2233.tfrecords"
        string_val: "topology/tfrecords/train_2ms/2234.tfrecords"
        string_val: "topology/tfrecords/train_2ms/2235.tfrecords"
        string_val: "topology/tfrecords/train_2ms/2236.tfrecords"
        string_val: "topology/tfrecords/train_2ms/2237.tfrecords"
        string_val: "topology/tfrecords/train_2ms/2239.tfrecords"
        string_val: "topology/tfrecords/train_2ms/2240.tfrecords"
        string_val: "topology/tfrecords/train_2ms/2241.tfrecords"
        string_val: "topology/tfrecords/train_2ms/2242.tfrecords"
        string_val: "topology/tfrecords/train_2ms/2243.tfrecords"
        string_val: "topology/tfrecords/train_2ms/2244.tfrecords"
        string_val: "topology/tfrecords/train_2ms/2245.tfrecords"
        string_val: "topology/tfrecords/train_2ms/2246.tfrecords"
        string_val: "topology/tfrecords/train_2ms/2247.tfrecords"
        string_val: "topology/tfrecords/train_2ms/2248.tfrecords"
        string_val: "topology/tfrecords/train_2ms/2250.tfrecords"
        string_val: "topology/tfrecords/train_2ms/2253.tfrecords"
        string_val: "topology/tfrecords/train_2ms/2254.tfrecords"
        string_val: "topology/tfrecords/train_2ms/2255.tfrecords"
        string_val: "topology/tfrecords/train_2ms/2257.tfrecords"
        string_val: "topology/tfrecords/train_2ms/2259.tfrecords"
        string_val: "topology/tfrecords/train_2ms/225.tfrecords"
        string_val: "topology/tfrecords/train_2ms/2260.tfrecords"
        string_val: "topology/tfrecords/train_2ms/2261.tfrecords"
        string_val: "topology/tfrecords/train_2ms/2262.tfrecords"
        string_val: "topology/tfrecords/train_2ms/2264.tfrecords"
        string_val: "topology/tfrecords/train_2ms/2265.tfrecords"
        string_val: "topology/tfrecords/train_2ms/2266.tfrecords"
        string_val: "topology/tfrecords/train_2ms/2267.tfrecords"
        string_val: "topology/tfrecords/train_2ms/2269.tfrecords"
        string_val: "topology/tfrecords/train_2ms/2271.tfrecords"
        string_val: "topology/tfrecords/train_2ms/2272.tfrecords"
        string_val: "topology/tfrecords/train_2ms/2274.tfrecords"
        string_val: "topology/tfrecords/train_2ms/2275.tfrecords"
        string_val: "topology/tfrecords/train_2ms/2276.tfrecords"
        string_val: "topology/tfrecords/train_2ms/2277.tfrecords"
        string_val: "topology/tfrecords/train_2ms/2278.tfrecords"
        string_val: "topology/tfrecords/train_2ms/2279.tfrecords"
        string_val: "topology/tfrecords/train_2ms/227.tfrecords"
        string_val: "topology/tfrecords/train_2ms/2281.tfrecords"
        string_val: "topology/tfrecords/train_2ms/2283.tfrecords"
        string_val: "topology/tfrecords/train_2ms/2284.tfrecords"
        string_val: "topology/tfrecords/train_2ms/2285.tfrecords"
        string_val: "topology/tfrecords/train_2ms/2286.tfrecords"
        string_val: "topology/tfrecords/train_2ms/2287.tfrecords"
        string_val: "topology/tfrecords/train_2ms/2289.tfrecords"
        string_val: "topology/tfrecords/train_2ms/228.tfrecords"
        string_val: "topology/tfrecords/train_2ms/2290.tfrecords"
        string_val: "topology/tfrecords/train_2ms/2291.tfrecords"
        string_val: "topology/tfrecords/train_2ms/2292.tfrecords"
        string_val: "topology/tfrecords/train_2ms/2295.tfrecords"
        string_val: "topology/tfrecords/train_2ms/2296.tfrecords"
        string_val: "topology/tfrecords/train_2ms/2297.tfrecords"
        string_val: "topology/tfrecords/train_2ms/2298.tfrecords"
        string_val: "topology/tfrecords/train_2ms/229.tfrecords"
        string_val: "topology/tfrecords/train_2ms/22.tfrecords"
        string_val: "topology/tfrecords/train_2ms/2300.tfrecords"
        string_val: "topology/tfrecords/train_2ms/2301.tfrecords"
        string_val: "topology/tfrecords/train_2ms/2302.tfrecords"
        string_val: "topology/tfrecords/train_2ms/2303.tfrecords"
        string_val: "topology/tfrecords/train_2ms/2304.tfrecords"
        string_val: "topology/tfrecords/train_2ms/2305.tfrecords"
        string_val: "topology/tfrecords/train_2ms/2307.tfrecords"
        string_val: "topology/tfrecords/train_2ms/2308.tfrecords"
        string_val: "topology/tfrecords/train_2ms/2309.tfrecords"
        string_val: "topology/tfrecords/train_2ms/230.tfrecords"
        string_val: "topology/tfrecords/train_2ms/2311.tfrecords"
        string_val: "topology/tfrecords/train_2ms/2312.tfrecords"
        string_val: "topology/tfrecords/train_2ms/2313.tfrecords"
        string_val: "topology/tfrecords/train_2ms/2314.tfrecords"
        string_val: "topology/tfrecords/train_2ms/2315.tfrecords"
        string_val: "topology/tfrecords/train_2ms/2316.tfrecords"
        string_val: "topology/tfrecords/train_2ms/2318.tfrecords"
        string_val: "topology/tfrecords/train_2ms/2319.tfrecords"
        string_val: "topology/tfrecords/train_2ms/231.tfrecords"
        string_val: "topology/tfrecords/train_2ms/2320.tfrecords"
        string_val: "topology/tfrecords/train_2ms/2321.tfrecords"
        string_val: "topology/tfrecords/train_2ms/2322.tfrecords"
        string_val: "topology/tfrecords/train_2ms/2323.tfrecords"
        string_val: "topology/tfrecords/train_2ms/2324.tfrecords"
        string_val: "topology/tfrecords/train_2ms/2326.tfrecords"
        string_val: "topology/tfrecords/train_2ms/2327.tfrecords"
        string_val: "topology/tfrecords/train_2ms/2328.tfrecords"
        string_val: "topology/tfrecords/train_2ms/2329.tfrecords"
        string_val: "topology/tfrecords/train_2ms/232.tfrecords"
        string_val: "topology/tfrecords/train_2ms/2330.tfrecords"
        string_val: "topology/tfrecords/train_2ms/2331.tfrecords"
        string_val: "topology/tfrecords/train_2ms/2333.tfrecords"
        string_val: "topology/tfrecords/train_2ms/2334.tfrecords"
        string_val: "topology/tfrecords/train_2ms/2335.tfrecords"
        string_val: "topology/tfrecords/train_2ms/2336.tfrecords"
        string_val: "topology/tfrecords/train_2ms/2337.tfrecords"
        string_val: "topology/tfrecords/train_2ms/2338.tfrecords"
        string_val: "topology/tfrecords/train_2ms/2339.tfrecords"
        string_val: "topology/tfrecords/train_2ms/233.tfrecords"
        string_val: "topology/tfrecords/train_2ms/2340.tfrecords"
        string_val: "topology/tfrecords/train_2ms/2341.tfrecords"
        string_val: "topology/tfrecords/train_2ms/2342.tfrecords"
        string_val: "topology/tfrecords/train_2ms/2343.tfrecords"
        string_val: "topology/tfrecords/train_2ms/2344.tfrecords"
        string_val: "topology/tfrecords/train_2ms/2345.tfrecords"
        string_val: "topology/tfrecords/train_2ms/2346.tfrecords"
        string_val: "topology/tfrecords/train_2ms/2347.tfrecords"
        string_val: "topology/tfrecords/train_2ms/2349.tfrecords"
        string_val: "topology/tfrecords/train_2ms/234.tfrecords"
        string_val: "topology/tfrecords/train_2ms/2350.tfrecords"
        string_val: "topology/tfrecords/train_2ms/2351.tfrecords"
        string_val: "topology/tfrecords/train_2ms/2353.tfrecords"
        string_val: "topology/tfrecords/train_2ms/2354.tfrecords"
        string_val: "topology/tfrecords/train_2ms/2355.tfrecords"
        string_val: "topology/tfrecords/train_2ms/2356.tfrecords"
        string_val: "topology/tfrecords/train_2ms/2357.tfrecords"
        string_val: "topology/tfrecords/train_2ms/2358.tfrecords"
        string_val: "topology/tfrecords/train_2ms/2359.tfrecords"
        string_val: "topology/tfrecords/train_2ms/2360.tfrecords"
        string_val: "topology/tfrecords/train_2ms/2361.tfrecords"
        string_val: "topology/tfrecords/train_2ms/2362.tfrecords"
        string_val: "topology/tfrecords/train_2ms/2364.tfrecords"
        string_val: "topology/tfrecords/train_2ms/2365.tfrecords"
        string_val: "topology/tfrecords/train_2ms/2366.tfrecords"
        string_val: "topology/tfrecords/train_2ms/2367.tfrecords"
        string_val: "topology/tfrecords/train_2ms/2369.tfrecords"
        string_val: "topology/tfrecords/train_2ms/236.tfrecords"
        string_val: "topology/tfrecords/train_2ms/2370.tfrecords"
        string_val: "topology/tfrecords/train_2ms/2372.tfrecords"
        string_val: "topology/tfrecords/train_2ms/2373.tfrecords"
        string_val: "topology/tfrecords/train_2ms/2374.tfrecords"
        string_val: "topology/tfrecords/train_2ms/2376.tfrecords"
        string_val: "topology/tfrecords/train_2ms/2377.tfrecords"
        string_val: "topology/tfrecords/train_2ms/2379.tfrecords"
        string_val: "topology/tfrecords/train_2ms/237.tfrecords"
        string_val: "topology/tfrecords/train_2ms/2381.tfrecords"
        string_val: "topology/tfrecords/train_2ms/2383.tfrecords"
        string_val: "topology/tfrecords/train_2ms/2384.tfrecords"
        string_val: "topology/tfrecords/train_2ms/2385.tfrecords"
        string_val: "topology/tfrecords/train_2ms/2386.tfrecords"
        string_val: "topology/tfrecords/train_2ms/2387.tfrecords"
        string_val: "topology/tfrecords/train_2ms/2389.tfrecords"
        string_val: "topology/tfrecords/train_2ms/238.tfrecords"
        string_val: "topology/tfrecords/train_2ms/2390.tfrecords"
        string_val: "topology/tfrecords/train_2ms/2391.tfrecords"
        string_val: "topology/tfrecords/train_2ms/2392.tfrecords"
        string_val: "topology/tfrecords/train_2ms/2393.tfrecords"
        string_val: "topology/tfrecords/train_2ms/2395.tfrecords"
        string_val: "topology/tfrecords/train_2ms/2396.tfrecords"
        string_val: "topology/tfrecords/train_2ms/2397.tfrecords"
        string_val: "topology/tfrecords/train_2ms/239.tfrecords"
        string_val: "topology/tfrecords/train_2ms/23.tfrecords"
        string_val: "topology/tfrecords/train_2ms/2400.tfrecords"
        string_val: "topology/tfrecords/train_2ms/2403.tfrecords"
        string_val: "topology/tfrecords/train_2ms/2404.tfrecords"
        string_val: "topology/tfrecords/train_2ms/2405.tfrecords"
        string_val: "topology/tfrecords/train_2ms/2406.tfrecords"
        string_val: "topology/tfrecords/train_2ms/2407.tfrecords"
        string_val: "topology/tfrecords/train_2ms/2408.tfrecords"
        string_val: "topology/tfrecords/train_2ms/2409.tfrecords"
        string_val: "topology/tfrecords/train_2ms/2410.tfrecords"
        string_val: "topology/tfrecords/train_2ms/2411.tfrecords"
        string_val: "topology/tfrecords/train_2ms/2412.tfrecords"
        string_val: "topology/tfrecords/train_2ms/2413.tfrecords"
        string_val: "topology/tfrecords/train_2ms/2414.tfrecords"
        string_val: "topology/tfrecords/train_2ms/2415.tfrecords"
        string_val: "topology/tfrecords/train_2ms/2416.tfrecords"
        string_val: "topology/tfrecords/train_2ms/2417.tfrecords"
        string_val: "topology/tfrecords/train_2ms/2419.tfrecords"
        string_val: "topology/tfrecords/train_2ms/241.tfrecords"
        string_val: "topology/tfrecords/train_2ms/2420.tfrecords"
        string_val: "topology/tfrecords/train_2ms/2422.tfrecords"
        string_val: "topology/tfrecords/train_2ms/2424.tfrecords"
        string_val: "topology/tfrecords/train_2ms/2425.tfrecords"
        string_val: "topology/tfrecords/train_2ms/2426.tfrecords"
        string_val: "topology/tfrecords/train_2ms/2427.tfrecords"
        string_val: "topology/tfrecords/train_2ms/2428.tfrecords"
        string_val: "topology/tfrecords/train_2ms/2429.tfrecords"
        string_val: "topology/tfrecords/train_2ms/242.tfrecords"
        string_val: "topology/tfrecords/train_2ms/2431.tfrecords"
        string_val: "topology/tfrecords/train_2ms/2433.tfrecords"
        string_val: "topology/tfrecords/train_2ms/2434.tfrecords"
        string_val: "topology/tfrecords/train_2ms/2435.tfrecords"
        string_val: "topology/tfrecords/train_2ms/2436.tfrecords"
        string_val: "topology/tfrecords/train_2ms/2437.tfrecords"
        string_val: "topology/tfrecords/train_2ms/2438.tfrecords"
        string_val: "topology/tfrecords/train_2ms/2439.tfrecords"
        string_val: "topology/tfrecords/train_2ms/243.tfrecords"
        string_val: "topology/tfrecords/train_2ms/2442.tfrecords"
        string_val: "topology/tfrecords/train_2ms/2443.tfrecords"
        string_val: "topology/tfrecords/train_2ms/2444.tfrecords"
        string_val: "topology/tfrecords/train_2ms/2445.tfrecords"
        string_val: "topology/tfrecords/train_2ms/2446.tfrecords"
        string_val: "topology/tfrecords/train_2ms/2448.tfrecords"
        string_val: "topology/tfrecords/train_2ms/2449.tfrecords"
        string_val: "topology/tfrecords/train_2ms/244.tfrecords"
        string_val: "topology/tfrecords/train_2ms/2450.tfrecords"
        string_val: "topology/tfrecords/train_2ms/2451.tfrecords"
        string_val: "topology/tfrecords/train_2ms/2452.tfrecords"
        string_val: "topology/tfrecords/train_2ms/2453.tfrecords"
        string_val: "topology/tfrecords/train_2ms/2454.tfrecords"
        string_val: "topology/tfrecords/train_2ms/2456.tfrecords"
        string_val: "topology/tfrecords/train_2ms/2457.tfrecords"
        string_val: "topology/tfrecords/train_2ms/2458.tfrecords"
        string_val: "topology/tfrecords/train_2ms/2459.tfrecords"
        string_val: "topology/tfrecords/train_2ms/245.tfrecords"
        string_val: "topology/tfrecords/train_2ms/2460.tfrecords"
        string_val: "topology/tfrecords/train_2ms/2461.tfrecords"
        string_val: "topology/tfrecords/train_2ms/2462.tfrecords"
        string_val: "topology/tfrecords/train_2ms/2463.tfrecords"
        string_val: "topology/tfrecords/train_2ms/2464.tfrecords"
        string_val: "topology/tfrecords/train_2ms/2465.tfrecords"
        string_val: "topology/tfrecords/train_2ms/2466.tfrecords"
        string_val: "topology/tfrecords/train_2ms/2467.tfrecords"
        string_val: "topology/tfrecords/train_2ms/2468.tfrecords"
        string_val: "topology/tfrecords/train_2ms/2469.tfrecords"
        string_val: "topology/tfrecords/train_2ms/246.tfrecords"
        string_val: "topology/tfrecords/train_2ms/2471.tfrecords"
        string_val: "topology/tfrecords/train_2ms/2472.tfrecords"
        string_val: "topology/tfrecords/train_2ms/2473.tfrecords"
        string_val: "topology/tfrecords/train_2ms/2474.tfrecords"
        string_val: "topology/tfrecords/train_2ms/2475.tfrecords"
        string_val: "topology/tfrecords/train_2ms/2476.tfrecords"
        string_val: "topology/tfrecords/train_2ms/2478.tfrecords"
        string_val: "topology/tfrecords/train_2ms/2479.tfrecords"
        string_val: "topology/tfrecords/train_2ms/247.tfrecords"
        string_val: "topology/tfrecords/train_2ms/2480.tfrecords"
        string_val: "topology/tfrecords/train_2ms/2481.tfrecords"
        string_val: "topology/tfrecords/train_2ms/2482.tfrecords"
        string_val: "topology/tfrecords/train_2ms/2483.tfrecords"
        string_val: "topology/tfrecords/train_2ms/2484.tfrecords"
        string_val: "topology/tfrecords/train_2ms/2485.tfrecords"
        string_val: "topology/tfrecords/train_2ms/2486.tfrecords"
        string_val: "topology/tfrecords/train_2ms/2487.tfrecords"
        string_val: "topology/tfrecords/train_2ms/2488.tfrecords"
        string_val: "topology/tfrecords/train_2ms/2489.tfrecords"
        string_val: "topology/tfrecords/train_2ms/248.tfrecords"
        string_val: "topology/tfrecords/train_2ms/2494.tfrecords"
        string_val: "topology/tfrecords/train_2ms/2495.tfrecords"
        string_val: "topology/tfrecords/train_2ms/2496.tfrecords"
        string_val: "topology/tfrecords/train_2ms/2497.tfrecords"
        string_val: "topology/tfrecords/train_2ms/2498.tfrecords"
        string_val: "topology/tfrecords/train_2ms/2499.tfrecords"
        string_val: "topology/tfrecords/train_2ms/249.tfrecords"
        string_val: "topology/tfrecords/train_2ms/24.tfrecords"
        string_val: "topology/tfrecords/train_2ms/2500.tfrecords"
        string_val: "topology/tfrecords/train_2ms/2501.tfrecords"
        string_val: "topology/tfrecords/train_2ms/2502.tfrecords"
        string_val: "topology/tfrecords/train_2ms/2503.tfrecords"
        string_val: "topology/tfrecords/train_2ms/2504.tfrecords"
        string_val: "topology/tfrecords/train_2ms/2505.tfrecords"
        string_val: "topology/tfrecords/train_2ms/2506.tfrecords"
        string_val: "topology/tfrecords/train_2ms/2507.tfrecords"
        string_val: "topology/tfrecords/train_2ms/2508.tfrecords"
        string_val: "topology/tfrecords/train_2ms/2509.tfrecords"
        string_val: "topology/tfrecords/train_2ms/250.tfrecords"
        string_val: "topology/tfrecords/train_2ms/2510.tfrecords"
        string_val: "topology/tfrecords/train_2ms/2512.tfrecords"
        string_val: "topology/tfrecords/train_2ms/2513.tfrecords"
        string_val: "topology/tfrecords/train_2ms/2514.tfrecords"
        string_val: "topology/tfrecords/train_2ms/2515.tfrecords"
        string_val: "topology/tfrecords/train_2ms/2517.tfrecords"
        string_val: "topology/tfrecords/train_2ms/2518.tfrecords"
        string_val: "topology/tfrecords/train_2ms/2519.tfrecords"
        string_val: "topology/tfrecords/train_2ms/2520.tfrecords"
        string_val: "topology/tfrecords/train_2ms/2521.tfrecords"
        string_val: "topology/tfrecords/train_2ms/2522.tfrecords"
        string_val: "topology/tfrecords/train_2ms/2523.tfrecords"
        string_val: "topology/tfrecords/train_2ms/2524.tfrecords"
        string_val: "topology/tfrecords/train_2ms/2525.tfrecords"
        string_val: "topology/tfrecords/train_2ms/2528.tfrecords"
        string_val: "topology/tfrecords/train_2ms/2529.tfrecords"
        string_val: "topology/tfrecords/train_2ms/252.tfrecords"
        string_val: "topology/tfrecords/train_2ms/2530.tfrecords"
        string_val: "topology/tfrecords/train_2ms/2531.tfrecords"
        string_val: "topology/tfrecords/train_2ms/2533.tfrecords"
        string_val: "topology/tfrecords/train_2ms/2534.tfrecords"
        string_val: "topology/tfrecords/train_2ms/2536.tfrecords"
        string_val: "topology/tfrecords/train_2ms/2537.tfrecords"
        string_val: "topology/tfrecords/train_2ms/2539.tfrecords"
        string_val: "topology/tfrecords/train_2ms/253.tfrecords"
        string_val: "topology/tfrecords/train_2ms/2540.tfrecords"
        string_val: "topology/tfrecords/train_2ms/2541.tfrecords"
        string_val: "topology/tfrecords/train_2ms/2542.tfrecords"
        string_val: "topology/tfrecords/train_2ms/2543.tfrecords"
        string_val: "topology/tfrecords/train_2ms/2544.tfrecords"
        string_val: "topology/tfrecords/train_2ms/2545.tfrecords"
        string_val: "topology/tfrecords/train_2ms/2546.tfrecords"
        string_val: "topology/tfrecords/train_2ms/2547.tfrecords"
        string_val: "topology/tfrecords/train_2ms/2548.tfrecords"
        string_val: "topology/tfrecords/train_2ms/254.tfrecords"
        string_val: "topology/tfrecords/train_2ms/2553.tfrecords"
        string_val: "topology/tfrecords/train_2ms/2554.tfrecords"
        string_val: "topology/tfrecords/train_2ms/2556.tfrecords"
        string_val: "topology/tfrecords/train_2ms/2557.tfrecords"
        string_val: "topology/tfrecords/train_2ms/2558.tfrecords"
        string_val: "topology/tfrecords/train_2ms/2559.tfrecords"
        string_val: "topology/tfrecords/train_2ms/255.tfrecords"
        string_val: "topology/tfrecords/train_2ms/2561.tfrecords"
        string_val: "topology/tfrecords/train_2ms/2562.tfrecords"
        string_val: "topology/tfrecords/train_2ms/2563.tfrecords"
        string_val: "topology/tfrecords/train_2ms/2565.tfrecords"
        string_val: "topology/tfrecords/train_2ms/2566.tfrecords"
        string_val: "topology/tfrecords/train_2ms/2567.tfrecords"
        string_val: "topology/tfrecords/train_2ms/2569.tfrecords"
        string_val: "topology/tfrecords/train_2ms/2570.tfrecords"
        string_val: "topology/tfrecords/train_2ms/2571.tfrecords"
        string_val: "topology/tfrecords/train_2ms/2572.tfrecords"
        string_val: "topology/tfrecords/train_2ms/2573.tfrecords"
        string_val: "topology/tfrecords/train_2ms/2574.tfrecords"
        string_val: "topology/tfrecords/train_2ms/2575.tfrecords"
        string_val: "topology/tfrecords/train_2ms/2577.tfrecords"
        string_val: "topology/tfrecords/train_2ms/2579.tfrecords"
        string_val: "topology/tfrecords/train_2ms/257.tfrecords"
        string_val: "topology/tfrecords/train_2ms/2580.tfrecords"
        string_val: "topology/tfrecords/train_2ms/2581.tfrecords"
        string_val: "topology/tfrecords/train_2ms/2582.tfrecords"
        string_val: "topology/tfrecords/train_2ms/2583.tfrecords"
        string_val: "topology/tfrecords/train_2ms/2584.tfrecords"
        string_val: "topology/tfrecords/train_2ms/2585.tfrecords"
        string_val: "topology/tfrecords/train_2ms/2586.tfrecords"
        string_val: "topology/tfrecords/train_2ms/2587.tfrecords"
        string_val: "topology/tfrecords/train_2ms/2588.tfrecords"
        string_val: "topology/tfrecords/train_2ms/258.tfrecords"
        string_val: "topology/tfrecords/train_2ms/2591.tfrecords"
        string_val: "topology/tfrecords/train_2ms/2592.tfrecords"
        string_val: "topology/tfrecords/train_2ms/2593.tfrecords"
        string_val: "topology/tfrecords/train_2ms/2594.tfrecords"
        string_val: "topology/tfrecords/train_2ms/2595.tfrecords"
        string_val: "topology/tfrecords/train_2ms/2596.tfrecords"
        string_val: "topology/tfrecords/train_2ms/2597.tfrecords"
        string_val: "topology/tfrecords/train_2ms/2598.tfrecords"
        string_val: "topology/tfrecords/train_2ms/2599.tfrecords"
        string_val: "topology/tfrecords/train_2ms/259.tfrecords"
        string_val: "topology/tfrecords/train_2ms/2600.tfrecords"
        string_val: "topology/tfrecords/train_2ms/2601.tfrecords"
        string_val: "topology/tfrecords/train_2ms/2602.tfrecords"
        string_val: "topology/tfrecords/train_2ms/2603.tfrecords"
        string_val: "topology/tfrecords/train_2ms/2604.tfrecords"
        string_val: "topology/tfrecords/train_2ms/2605.tfrecords"
        string_val: "topology/tfrecords/train_2ms/2606.tfrecords"
        string_val: "topology/tfrecords/train_2ms/2607.tfrecords"
        string_val: "topology/tfrecords/train_2ms/2608.tfrecords"
        string_val: "topology/tfrecords/train_2ms/2609.tfrecords"
        string_val: "topology/tfrecords/train_2ms/260.tfrecords"
        string_val: "topology/tfrecords/train_2ms/2610.tfrecords"
        string_val: "topology/tfrecords/train_2ms/2611.tfrecords"
        string_val: "topology/tfrecords/train_2ms/2612.tfrecords"
        string_val: "topology/tfrecords/train_2ms/2613.tfrecords"
        string_val: "topology/tfrecords/train_2ms/2614.tfrecords"
        string_val: "topology/tfrecords/train_2ms/2615.tfrecords"
        string_val: "topology/tfrecords/train_2ms/2616.tfrecords"
        string_val: "topology/tfrecords/train_2ms/2617.tfrecords"
        string_val: "topology/tfrecords/train_2ms/2618.tfrecords"
        string_val: "topology/tfrecords/train_2ms/261.tfrecords"
        string_val: "topology/tfrecords/train_2ms/2620.tfrecords"
        string_val: "topology/tfrecords/train_2ms/2621.tfrecords"
        string_val: "topology/tfrecords/train_2ms/2622.tfrecords"
        string_val: "topology/tfrecords/train_2ms/2623.tfrecords"
        string_val: "topology/tfrecords/train_2ms/2624.tfrecords"
        string_val: "topology/tfrecords/train_2ms/2625.tfrecords"
        string_val: "topology/tfrecords/train_2ms/2627.tfrecords"
        string_val: "topology/tfrecords/train_2ms/2629.tfrecords"
        string_val: "topology/tfrecords/train_2ms/262.tfrecords"
        string_val: "topology/tfrecords/train_2ms/2630.tfrecords"
        string_val: "topology/tfrecords/train_2ms/2631.tfrecords"
        string_val: "topology/tfrecords/train_2ms/2632.tfrecords"
        string_val: "topology/tfrecords/train_2ms/2634.tfrecords"
        string_val: "topology/tfrecords/train_2ms/2635.tfrecords"
        string_val: "topology/tfrecords/train_2ms/2636.tfrecords"
        string_val: "topology/tfrecords/train_2ms/2638.tfrecords"
        string_val: "topology/tfrecords/train_2ms/263.tfrecords"
        string_val: "topology/tfrecords/train_2ms/2641.tfrecords"
        string_val: "topology/tfrecords/train_2ms/2642.tfrecords"
        string_val: "topology/tfrecords/train_2ms/2644.tfrecords"
        string_val: "topology/tfrecords/train_2ms/2645.tfrecords"
        string_val: "topology/tfrecords/train_2ms/2646.tfrecords"
        string_val: "topology/tfrecords/train_2ms/2647.tfrecords"
        string_val: "topology/tfrecords/train_2ms/2648.tfrecords"
        string_val: "topology/tfrecords/train_2ms/2651.tfrecords"
        string_val: "topology/tfrecords/train_2ms/2653.tfrecords"
        string_val: "topology/tfrecords/train_2ms/2654.tfrecords"
        string_val: "topology/tfrecords/train_2ms/2655.tfrecords"
        string_val: "topology/tfrecords/train_2ms/2656.tfrecords"
        string_val: "topology/tfrecords/train_2ms/2657.tfrecords"
        string_val: "topology/tfrecords/train_2ms/2658.tfrecords"
        string_val: "topology/tfrecords/train_2ms/2659.tfrecords"
        string_val: "topology/tfrecords/train_2ms/2660.tfrecords"
        string_val: "topology/tfrecords/train_2ms/2661.tfrecords"
        string_val: "topology/tfrecords/train_2ms/2662.tfrecords"
        string_val: "topology/tfrecords/train_2ms/2664.tfrecords"
        string_val: "topology/tfrecords/train_2ms/2665.tfrecords"
        string_val: "topology/tfrecords/train_2ms/2666.tfrecords"
        string_val: "topology/tfrecords/train_2ms/2667.tfrecords"
        string_val: "topology/tfrecords/train_2ms/2668.tfrecords"
        string_val: "topology/tfrecords/train_2ms/2669.tfrecords"
        string_val: "topology/tfrecords/train_2ms/266.tfrecords"
        string_val: "topology/tfrecords/train_2ms/2670.tfrecords"
        string_val: "topology/tfrecords/train_2ms/2671.tfrecords"
        string_val: "topology/tfrecords/train_2ms/2672.tfrecords"
        string_val: "topology/tfrecords/train_2ms/2674.tfrecords"
        string_val: "topology/tfrecords/train_2ms/2675.tfrecords"
        string_val: "topology/tfrecords/train_2ms/2676.tfrecords"
        string_val: "topology/tfrecords/train_2ms/2677.tfrecords"
        string_val: "topology/tfrecords/train_2ms/2678.tfrecords"
        string_val: "topology/tfrecords/train_2ms/2679.tfrecords"
        string_val: "topology/tfrecords/train_2ms/267.tfrecords"
        string_val: "topology/tfrecords/train_2ms/2680.tfrecords"
        string_val: "topology/tfrecords/train_2ms/2681.tfrecords"
        string_val: "topology/tfrecords/train_2ms/2682.tfrecords"
        string_val: "topology/tfrecords/train_2ms/2685.tfrecords"
        string_val: "topology/tfrecords/train_2ms/2686.tfrecords"
        string_val: "topology/tfrecords/train_2ms/2688.tfrecords"
        string_val: "topology/tfrecords/train_2ms/2689.tfrecords"
        string_val: "topology/tfrecords/train_2ms/268.tfrecords"
        string_val: "topology/tfrecords/train_2ms/2690.tfrecords"
        string_val: "topology/tfrecords/train_2ms/2691.tfrecords"
        string_val: "topology/tfrecords/train_2ms/2692.tfrecords"
        string_val: "topology/tfrecords/train_2ms/2693.tfrecords"
        string_val: "topology/tfrecords/train_2ms/2694.tfrecords"
        string_val: "topology/tfrecords/train_2ms/2695.tfrecords"
        string_val: "topology/tfrecords/train_2ms/2696.tfrecords"
        string_val: "topology/tfrecords/train_2ms/2697.tfrecords"
        string_val: "topology/tfrecords/train_2ms/2698.tfrecords"
        string_val: "topology/tfrecords/train_2ms/2699.tfrecords"
        string_val: "topology/tfrecords/train_2ms/26.tfrecords"
        string_val: "topology/tfrecords/train_2ms/2701.tfrecords"
        string_val: "topology/tfrecords/train_2ms/2702.tfrecords"
        string_val: "topology/tfrecords/train_2ms/2703.tfrecords"
        string_val: "topology/tfrecords/train_2ms/2704.tfrecords"
        string_val: "topology/tfrecords/train_2ms/2707.tfrecords"
        string_val: "topology/tfrecords/train_2ms/2708.tfrecords"
        string_val: "topology/tfrecords/train_2ms/2709.tfrecords"
        string_val: "topology/tfrecords/train_2ms/270.tfrecords"
        string_val: "topology/tfrecords/train_2ms/2710.tfrecords"
        string_val: "topology/tfrecords/train_2ms/2711.tfrecords"
        string_val: "topology/tfrecords/train_2ms/2712.tfrecords"
        string_val: "topology/tfrecords/train_2ms/2713.tfrecords"
        string_val: "topology/tfrecords/train_2ms/2714.tfrecords"
        string_val: "topology/tfrecords/train_2ms/2716.tfrecords"
        string_val: "topology/tfrecords/train_2ms/2717.tfrecords"
        string_val: "topology/tfrecords/train_2ms/2718.tfrecords"
        string_val: "topology/tfrecords/train_2ms/2719.tfrecords"
        string_val: "topology/tfrecords/train_2ms/271.tfrecords"
        string_val: "topology/tfrecords/train_2ms/2720.tfrecords"
        string_val: "topology/tfrecords/train_2ms/2722.tfrecords"
        string_val: "topology/tfrecords/train_2ms/2724.tfrecords"
        string_val: "topology/tfrecords/train_2ms/2725.tfrecords"
        string_val: "topology/tfrecords/train_2ms/2726.tfrecords"
        string_val: "topology/tfrecords/train_2ms/2727.tfrecords"
        string_val: "topology/tfrecords/train_2ms/2728.tfrecords"
        string_val: "topology/tfrecords/train_2ms/2729.tfrecords"
        string_val: "topology/tfrecords/train_2ms/272.tfrecords"
        string_val: "topology/tfrecords/train_2ms/2730.tfrecords"
        string_val: "topology/tfrecords/train_2ms/2731.tfrecords"
        string_val: "topology/tfrecords/train_2ms/2732.tfrecords"
        string_val: "topology/tfrecords/train_2ms/2733.tfrecords"
        string_val: "topology/tfrecords/train_2ms/2734.tfrecords"
        string_val: "topology/tfrecords/train_2ms/2735.tfrecords"
        string_val: "topology/tfrecords/train_2ms/2736.tfrecords"
        string_val: "topology/tfrecords/train_2ms/2737.tfrecords"
        string_val: "topology/tfrecords/train_2ms/2738.tfrecords"
        string_val: "topology/tfrecords/train_2ms/2739.tfrecords"
        string_val: "topology/tfrecords/train_2ms/273.tfrecords"
        string_val: "topology/tfrecords/train_2ms/2740.tfrecords"
        string_val: "topology/tfrecords/train_2ms/2742.tfrecords"
        string_val: "topology/tfrecords/train_2ms/2743.tfrecords"
        string_val: "topology/tfrecords/train_2ms/2744.tfrecords"
        string_val: "topology/tfrecords/train_2ms/2745.tfrecords"
        string_val: "topology/tfrecords/train_2ms/2746.tfrecords"
        string_val: "topology/tfrecords/train_2ms/2748.tfrecords"
        string_val: "topology/tfrecords/train_2ms/2749.tfrecords"
        string_val: "topology/tfrecords/train_2ms/274.tfrecords"
        string_val: "topology/tfrecords/train_2ms/2750.tfrecords"
        string_val: "topology/tfrecords/train_2ms/2751.tfrecords"
        string_val: "topology/tfrecords/train_2ms/2752.tfrecords"
        string_val: "topology/tfrecords/train_2ms/2753.tfrecords"
        string_val: "topology/tfrecords/train_2ms/2755.tfrecords"
        string_val: "topology/tfrecords/train_2ms/2756.tfrecords"
        string_val: "topology/tfrecords/train_2ms/2757.tfrecords"
        string_val: "topology/tfrecords/train_2ms/2759.tfrecords"
        string_val: "topology/tfrecords/train_2ms/275.tfrecords"
        string_val: "topology/tfrecords/train_2ms/2760.tfrecords"
        string_val: "topology/tfrecords/train_2ms/2761.tfrecords"
        string_val: "topology/tfrecords/train_2ms/2762.tfrecords"
        string_val: "topology/tfrecords/train_2ms/2765.tfrecords"
        string_val: "topology/tfrecords/train_2ms/2767.tfrecords"
        string_val: "topology/tfrecords/train_2ms/2768.tfrecords"
        string_val: "topology/tfrecords/train_2ms/2769.tfrecords"
        string_val: "topology/tfrecords/train_2ms/276.tfrecords"
        string_val: "topology/tfrecords/train_2ms/2770.tfrecords"
        string_val: "topology/tfrecords/train_2ms/2771.tfrecords"
        string_val: "topology/tfrecords/train_2ms/2772.tfrecords"
        string_val: "topology/tfrecords/train_2ms/2773.tfrecords"
        string_val: "topology/tfrecords/train_2ms/2774.tfrecords"
        string_val: "topology/tfrecords/train_2ms/2775.tfrecords"
        string_val: "topology/tfrecords/train_2ms/2776.tfrecords"
        string_val: "topology/tfrecords/train_2ms/2777.tfrecords"
        string_val: "topology/tfrecords/train_2ms/2778.tfrecords"
        string_val: "topology/tfrecords/train_2ms/2779.tfrecords"
        string_val: "topology/tfrecords/train_2ms/277.tfrecords"
        string_val: "topology/tfrecords/train_2ms/2780.tfrecords"
        string_val: "topology/tfrecords/train_2ms/2781.tfrecords"
        string_val: "topology/tfrecords/train_2ms/2783.tfrecords"
        string_val: "topology/tfrecords/train_2ms/2784.tfrecords"
        string_val: "topology/tfrecords/train_2ms/2786.tfrecords"
        string_val: "topology/tfrecords/train_2ms/2787.tfrecords"
        string_val: "topology/tfrecords/train_2ms/2788.tfrecords"
        string_val: "topology/tfrecords/train_2ms/2789.tfrecords"
        string_val: "topology/tfrecords/train_2ms/2791.tfrecords"
        string_val: "topology/tfrecords/train_2ms/2792.tfrecords"
        string_val: "topology/tfrecords/train_2ms/2793.tfrecords"
        string_val: "topology/tfrecords/train_2ms/2794.tfrecords"
        string_val: "topology/tfrecords/train_2ms/2795.tfrecords"
        string_val: "topology/tfrecords/train_2ms/2796.tfrecords"
        string_val: "topology/tfrecords/train_2ms/2797.tfrecords"
        string_val: "topology/tfrecords/train_2ms/2798.tfrecords"
        string_val: "topology/tfrecords/train_2ms/279.tfrecords"
        string_val: "topology/tfrecords/train_2ms/27.tfrecords"
        string_val: "topology/tfrecords/train_2ms/2801.tfrecords"
        string_val: "topology/tfrecords/train_2ms/2802.tfrecords"
        string_val: "topology/tfrecords/train_2ms/2804.tfrecords"
        string_val: "topology/tfrecords/train_2ms/2805.tfrecords"
        string_val: "topology/tfrecords/train_2ms/2806.tfrecords"
        string_val: "topology/tfrecords/train_2ms/2807.tfrecords"
        string_val: "topology/tfrecords/train_2ms/2809.tfrecords"
        string_val: "topology/tfrecords/train_2ms/280.tfrecords"
        string_val: "topology/tfrecords/train_2ms/2810.tfrecords"
        string_val: "topology/tfrecords/train_2ms/2812.tfrecords"
        string_val: "topology/tfrecords/train_2ms/2813.tfrecords"
        string_val: "topology/tfrecords/train_2ms/2814.tfrecords"
        string_val: "topology/tfrecords/train_2ms/2815.tfrecords"
        string_val: "topology/tfrecords/train_2ms/2816.tfrecords"
        string_val: "topology/tfrecords/train_2ms/2817.tfrecords"
        string_val: "topology/tfrecords/train_2ms/2818.tfrecords"
        string_val: "topology/tfrecords/train_2ms/2819.tfrecords"
        string_val: "topology/tfrecords/train_2ms/281.tfrecords"
        string_val: "topology/tfrecords/train_2ms/2820.tfrecords"
        string_val: "topology/tfrecords/train_2ms/2821.tfrecords"
        string_val: "topology/tfrecords/train_2ms/2822.tfrecords"
        string_val: "topology/tfrecords/train_2ms/2823.tfrecords"
        string_val: "topology/tfrecords/train_2ms/2824.tfrecords"
        string_val: "topology/tfrecords/train_2ms/2825.tfrecords"
        string_val: "topology/tfrecords/train_2ms/2826.tfrecords"
        string_val: "topology/tfrecords/train_2ms/2827.tfrecords"
        string_val: "topology/tfrecords/train_2ms/2828.tfrecords"
        string_val: "topology/tfrecords/train_2ms/2829.tfrecords"
        string_val: "topology/tfrecords/train_2ms/282.tfrecords"
        string_val: "topology/tfrecords/train_2ms/2830.tfrecords"
        string_val: "topology/tfrecords/train_2ms/2832.tfrecords"
        string_val: "topology/tfrecords/train_2ms/2833.tfrecords"
        string_val: "topology/tfrecords/train_2ms/2834.tfrecords"
        string_val: "topology/tfrecords/train_2ms/2835.tfrecords"
        string_val: "topology/tfrecords/train_2ms/2836.tfrecords"
        string_val: "topology/tfrecords/train_2ms/2837.tfrecords"
        string_val: "topology/tfrecords/train_2ms/2838.tfrecords"
        string_val: "topology/tfrecords/train_2ms/283.tfrecords"
        string_val: "topology/tfrecords/train_2ms/2840.tfrecords"
        string_val: "topology/tfrecords/train_2ms/2841.tfrecords"
        string_val: "topology/tfrecords/train_2ms/2843.tfrecords"
        string_val: "topology/tfrecords/train_2ms/2844.tfrecords"
        string_val: "topology/tfrecords/train_2ms/2845.tfrecords"
        string_val: "topology/tfrecords/train_2ms/2846.tfrecords"
        string_val: "topology/tfrecords/train_2ms/2847.tfrecords"
        string_val: "topology/tfrecords/train_2ms/2848.tfrecords"
        string_val: "topology/tfrecords/train_2ms/2849.tfrecords"
        string_val: "topology/tfrecords/train_2ms/284.tfrecords"
        string_val: "topology/tfrecords/train_2ms/2850.tfrecords"
        string_val: "topology/tfrecords/train_2ms/2851.tfrecords"
        string_val: "topology/tfrecords/train_2ms/2852.tfrecords"
        string_val: "topology/tfrecords/train_2ms/2854.tfrecords"
        string_val: "topology/tfrecords/train_2ms/2855.tfrecords"
        string_val: "topology/tfrecords/train_2ms/2856.tfrecords"
        string_val: "topology/tfrecords/train_2ms/2857.tfrecords"
        string_val: "topology/tfrecords/train_2ms/2858.tfrecords"
        string_val: "topology/tfrecords/train_2ms/2859.tfrecords"
        string_val: "topology/tfrecords/train_2ms/2860.tfrecords"
        string_val: "topology/tfrecords/train_2ms/2861.tfrecords"
        string_val: "topology/tfrecords/train_2ms/2862.tfrecords"
        string_val: "topology/tfrecords/train_2ms/2863.tfrecords"
        string_val: "topology/tfrecords/train_2ms/2868.tfrecords"
        string_val: "topology/tfrecords/train_2ms/2869.tfrecords"
        string_val: "topology/tfrecords/train_2ms/286.tfrecords"
        string_val: "topology/tfrecords/train_2ms/2870.tfrecords"
        string_val: "topology/tfrecords/train_2ms/2872.tfrecords"
        string_val: "topology/tfrecords/train_2ms/2874.tfrecords"
        string_val: "topology/tfrecords/train_2ms/2875.tfrecords"
        string_val: "topology/tfrecords/train_2ms/2876.tfrecords"
        string_val: "topology/tfrecords/train_2ms/2877.tfrecords"
        string_val: "topology/tfrecords/train_2ms/2878.tfrecords"
        string_val: "topology/tfrecords/train_2ms/2879.tfrecords"
        string_val: "topology/tfrecords/train_2ms/287.tfrecords"
        string_val: "topology/tfrecords/train_2ms/2881.tfrecords"
        string_val: "topology/tfrecords/train_2ms/2882.tfrecords"
        string_val: "topology/tfrecords/train_2ms/2883.tfrecords"
        string_val: "topology/tfrecords/train_2ms/2884.tfrecords"
        string_val: "topology/tfrecords/train_2ms/2885.tfrecords"
        string_val: "topology/tfrecords/train_2ms/2886.tfrecords"
        string_val: "topology/tfrecords/train_2ms/2887.tfrecords"
        string_val: "topology/tfrecords/train_2ms/2888.tfrecords"
        string_val: "topology/tfrecords/train_2ms/288.tfrecords"
        string_val: "topology/tfrecords/train_2ms/2890.tfrecords"
        string_val: "topology/tfrecords/train_2ms/2891.tfrecords"
        string_val: "topology/tfrecords/train_2ms/2892.tfrecords"
        string_val: "topology/tfrecords/train_2ms/2893.tfrecords"
        string_val: "topology/tfrecords/train_2ms/2894.tfrecords"
        string_val: "topology/tfrecords/train_2ms/2896.tfrecords"
        string_val: "topology/tfrecords/train_2ms/2898.tfrecords"
        string_val: "topology/tfrecords/train_2ms/2899.tfrecords"
        string_val: "topology/tfrecords/train_2ms/28.tfrecords"
        string_val: "topology/tfrecords/train_2ms/2901.tfrecords"
        string_val: "topology/tfrecords/train_2ms/2902.tfrecords"
        string_val: "topology/tfrecords/train_2ms/2903.tfrecords"
        string_val: "topology/tfrecords/train_2ms/2904.tfrecords"
        string_val: "topology/tfrecords/train_2ms/2905.tfrecords"
        string_val: "topology/tfrecords/train_2ms/2906.tfrecords"
        string_val: "topology/tfrecords/train_2ms/2907.tfrecords"
        string_val: "topology/tfrecords/train_2ms/2908.tfrecords"
        string_val: "topology/tfrecords/train_2ms/290.tfrecords"
        string_val: "topology/tfrecords/train_2ms/2910.tfrecords"
        string_val: "topology/tfrecords/train_2ms/2912.tfrecords"
        string_val: "topology/tfrecords/train_2ms/2913.tfrecords"
        string_val: "topology/tfrecords/train_2ms/2916.tfrecords"
        string_val: "topology/tfrecords/train_2ms/2918.tfrecords"
        string_val: "topology/tfrecords/train_2ms/2919.tfrecords"
        string_val: "topology/tfrecords/train_2ms/291.tfrecords"
        string_val: "topology/tfrecords/train_2ms/2922.tfrecords"
        string_val: "topology/tfrecords/train_2ms/2924.tfrecords"
        string_val: "topology/tfrecords/train_2ms/2925.tfrecords"
        string_val: "topology/tfrecords/train_2ms/2926.tfrecords"
        string_val: "topology/tfrecords/train_2ms/2927.tfrecords"
        string_val: "topology/tfrecords/train_2ms/2928.tfrecords"
        string_val: "topology/tfrecords/train_2ms/2929.tfrecords"
        string_val: "topology/tfrecords/train_2ms/2931.tfrecords"
        string_val: "topology/tfrecords/train_2ms/2932.tfrecords"
        string_val: "topology/tfrecords/train_2ms/2933.tfrecords"
        string_val: "topology/tfrecords/train_2ms/2936.tfrecords"
        string_val: "topology/tfrecords/train_2ms/2937.tfrecords"
        string_val: "topology/tfrecords/train_2ms/2938.tfrecords"
        string_val: "topology/tfrecords/train_2ms/2939.tfrecords"
        string_val: "topology/tfrecords/train_2ms/2940.tfrecords"
        string_val: "topology/tfrecords/train_2ms/2941.tfrecords"
        string_val: "topology/tfrecords/train_2ms/2942.tfrecords"
        string_val: "topology/tfrecords/train_2ms/2943.tfrecords"
        string_val: "topology/tfrecords/train_2ms/2944.tfrecords"
        string_val: "topology/tfrecords/train_2ms/2946.tfrecords"
        string_val: "topology/tfrecords/train_2ms/2947.tfrecords"
        string_val: "topology/tfrecords/train_2ms/2948.tfrecords"
        string_val: "topology/tfrecords/train_2ms/2949.tfrecords"
        string_val: "topology/tfrecords/train_2ms/294.tfrecords"
        string_val: "topology/tfrecords/train_2ms/2950.tfrecords"
        string_val: "topology/tfrecords/train_2ms/2951.tfrecords"
        string_val: "topology/tfrecords/train_2ms/2952.tfrecords"
        string_val: "topology/tfrecords/train_2ms/2954.tfrecords"
        string_val: "topology/tfrecords/train_2ms/2955.tfrecords"
        string_val: "topology/tfrecords/train_2ms/2956.tfrecords"
        string_val: "topology/tfrecords/train_2ms/2957.tfrecords"
        string_val: "topology/tfrecords/train_2ms/2959.tfrecords"
        string_val: "topology/tfrecords/train_2ms/2961.tfrecords"
        string_val: "topology/tfrecords/train_2ms/2962.tfrecords"
        string_val: "topology/tfrecords/train_2ms/2963.tfrecords"
        string_val: "topology/tfrecords/train_2ms/2964.tfrecords"
        string_val: "topology/tfrecords/train_2ms/2965.tfrecords"
        string_val: "topology/tfrecords/train_2ms/2966.tfrecords"
        string_val: "topology/tfrecords/train_2ms/2968.tfrecords"
        string_val: "topology/tfrecords/train_2ms/2969.tfrecords"
        string_val: "topology/tfrecords/train_2ms/296.tfrecords"
        string_val: "topology/tfrecords/train_2ms/2970.tfrecords"
        string_val: "topology/tfrecords/train_2ms/2971.tfrecords"
        string_val: "topology/tfrecords/train_2ms/2974.tfrecords"
        string_val: "topology/tfrecords/train_2ms/2976.tfrecords"
        string_val: "topology/tfrecords/train_2ms/2978.tfrecords"
        string_val: "topology/tfrecords/train_2ms/2979.tfrecords"
        string_val: "topology/tfrecords/train_2ms/2980.tfrecords"
        string_val: "topology/tfrecords/train_2ms/2981.tfrecords"
        string_val: "topology/tfrecords/train_2ms/2983.tfrecords"
        string_val: "topology/tfrecords/train_2ms/2984.tfrecords"
        string_val: "topology/tfrecords/train_2ms/2986.tfrecords"
        string_val: "topology/tfrecords/train_2ms/2987.tfrecords"
        string_val: "topology/tfrecords/train_2ms/2988.tfrecords"
        string_val: "topology/tfrecords/train_2ms/2989.tfrecords"
        string_val: "topology/tfrecords/train_2ms/298.tfrecords"
        string_val: "topology/tfrecords/train_2ms/2990.tfrecords"
        string_val: "topology/tfrecords/train_2ms/2991.tfrecords"
        string_val: "topology/tfrecords/train_2ms/2993.tfrecords"
        string_val: "topology/tfrecords/train_2ms/2994.tfrecords"
        string_val: "topology/tfrecords/train_2ms/2995.tfrecords"
        string_val: "topology/tfrecords/train_2ms/2996.tfrecords"
        string_val: "topology/tfrecords/train_2ms/2997.tfrecords"
        string_val: "topology/tfrecords/train_2ms/2998.tfrecords"
        string_val: "topology/tfrecords/train_2ms/299.tfrecords"
        string_val: "topology/tfrecords/train_2ms/29.tfrecords"
        string_val: "topology/tfrecords/train_2ms/3000.tfrecords"
        string_val: "topology/tfrecords/train_2ms/3001.tfrecords"
        string_val: "topology/tfrecords/train_2ms/3002.tfrecords"
        string_val: "topology/tfrecords/train_2ms/3004.tfrecords"
        string_val: "topology/tfrecords/train_2ms/3005.tfrecords"
        string_val: "topology/tfrecords/train_2ms/3007.tfrecords"
        string_val: "topology/tfrecords/train_2ms/3008.tfrecords"
        string_val: "topology/tfrecords/train_2ms/3009.tfrecords"
        string_val: "topology/tfrecords/train_2ms/300.tfrecords"
        string_val: "topology/tfrecords/train_2ms/3010.tfrecords"
        string_val: "topology/tfrecords/train_2ms/3011.tfrecords"
        string_val: "topology/tfrecords/train_2ms/3012.tfrecords"
        string_val: "topology/tfrecords/train_2ms/3013.tfrecords"
        string_val: "topology/tfrecords/train_2ms/3015.tfrecords"
        string_val: "topology/tfrecords/train_2ms/3017.tfrecords"
        string_val: "topology/tfrecords/train_2ms/3018.tfrecords"
        string_val: "topology/tfrecords/train_2ms/3019.tfrecords"
        string_val: "topology/tfrecords/train_2ms/301.tfrecords"
        string_val: "topology/tfrecords/train_2ms/3021.tfrecords"
        string_val: "topology/tfrecords/train_2ms/3022.tfrecords"
        string_val: "topology/tfrecords/train_2ms/3024.tfrecords"
        string_val: "topology/tfrecords/train_2ms/3025.tfrecords"
        string_val: "topology/tfrecords/train_2ms/3027.tfrecords"
        string_val: "topology/tfrecords/train_2ms/3028.tfrecords"
        string_val: "topology/tfrecords/train_2ms/3029.tfrecords"
        string_val: "topology/tfrecords/train_2ms/302.tfrecords"
        string_val: "topology/tfrecords/train_2ms/3030.tfrecords"
        string_val: "topology/tfrecords/train_2ms/3031.tfrecords"
        string_val: "topology/tfrecords/train_2ms/3032.tfrecords"
        string_val: "topology/tfrecords/train_2ms/3033.tfrecords"
        string_val: "topology/tfrecords/train_2ms/3034.tfrecords"
        string_val: "topology/tfrecords/train_2ms/3035.tfrecords"
        string_val: "topology/tfrecords/train_2ms/3036.tfrecords"
        string_val: "topology/tfrecords/train_2ms/3037.tfrecords"
        string_val: "topology/tfrecords/train_2ms/3038.tfrecords"
        string_val: "topology/tfrecords/train_2ms/3039.tfrecords"
        string_val: "topology/tfrecords/train_2ms/303.tfrecords"
        string_val: "topology/tfrecords/train_2ms/3040.tfrecords"
        string_val: "topology/tfrecords/train_2ms/3041.tfrecords"
        string_val: "topology/tfrecords/train_2ms/3042.tfrecords"
        string_val: "topology/tfrecords/train_2ms/3043.tfrecords"
        string_val: "topology/tfrecords/train_2ms/3044.tfrecords"
        string_val: "topology/tfrecords/train_2ms/3045.tfrecords"
        string_val: "topology/tfrecords/train_2ms/3046.tfrecords"
        string_val: "topology/tfrecords/train_2ms/3047.tfrecords"
        string_val: "topology/tfrecords/train_2ms/3048.tfrecords"
        string_val: "topology/tfrecords/train_2ms/3049.tfrecords"
        string_val: "topology/tfrecords/train_2ms/304.tfrecords"
        string_val: "topology/tfrecords/train_2ms/3050.tfrecords"
        string_val: "topology/tfrecords/train_2ms/3051.tfrecords"
        string_val: "topology/tfrecords/train_2ms/3052.tfrecords"
        string_val: "topology/tfrecords/train_2ms/3053.tfrecords"
        string_val: "topology/tfrecords/train_2ms/3054.tfrecords"
        string_val: "topology/tfrecords/train_2ms/3055.tfrecords"
        string_val: "topology/tfrecords/train_2ms/3056.tfrecords"
        string_val: "topology/tfrecords/train_2ms/3058.tfrecords"
        string_val: "topology/tfrecords/train_2ms/3059.tfrecords"
        string_val: "topology/tfrecords/train_2ms/305.tfrecords"
        string_val: "topology/tfrecords/train_2ms/3061.tfrecords"
        string_val: "topology/tfrecords/train_2ms/3062.tfrecords"
        string_val: "topology/tfrecords/train_2ms/3063.tfrecords"
        string_val: "topology/tfrecords/train_2ms/3064.tfrecords"
        string_val: "topology/tfrecords/train_2ms/3065.tfrecords"
        string_val: "topology/tfrecords/train_2ms/3066.tfrecords"
        string_val: "topology/tfrecords/train_2ms/3067.tfrecords"
        string_val: "topology/tfrecords/train_2ms/3068.tfrecords"
        string_val: "topology/tfrecords/train_2ms/306.tfrecords"
        string_val: "topology/tfrecords/train_2ms/3071.tfrecords"
        string_val: "topology/tfrecords/train_2ms/3072.tfrecords"
        string_val: "topology/tfrecords/train_2ms/3073.tfrecords"
        string_val: "topology/tfrecords/train_2ms/3075.tfrecords"
        string_val: "topology/tfrecords/train_2ms/3076.tfrecords"
        string_val: "topology/tfrecords/train_2ms/3077.tfrecords"
        string_val: "topology/tfrecords/train_2ms/3079.tfrecords"
        string_val: "topology/tfrecords/train_2ms/3080.tfrecords"
        string_val: "topology/tfrecords/train_2ms/3081.tfrecords"
        string_val: "topology/tfrecords/train_2ms/3082.tfrecords"
        string_val: "topology/tfrecords/train_2ms/3083.tfrecords"
        string_val: "topology/tfrecords/train_2ms/3085.tfrecords"
        string_val: "topology/tfrecords/train_2ms/3086.tfrecords"
        string_val: "topology/tfrecords/train_2ms/3087.tfrecords"
        string_val: "topology/tfrecords/train_2ms/3088.tfrecords"
        string_val: "topology/tfrecords/train_2ms/3089.tfrecords"
        string_val: "topology/tfrecords/train_2ms/308.tfrecords"
        string_val: "topology/tfrecords/train_2ms/3090.tfrecords"
        string_val: "topology/tfrecords/train_2ms/3091.tfrecords"
        string_val: "topology/tfrecords/train_2ms/3093.tfrecords"
        string_val: "topology/tfrecords/train_2ms/3097.tfrecords"
        string_val: "topology/tfrecords/train_2ms/3099.tfrecords"
        string_val: "topology/tfrecords/train_2ms/309.tfrecords"
        string_val: "topology/tfrecords/train_2ms/30.tfrecords"
        string_val: "topology/tfrecords/train_2ms/3100.tfrecords"
        string_val: "topology/tfrecords/train_2ms/3101.tfrecords"
        string_val: "topology/tfrecords/train_2ms/3102.tfrecords"
        string_val: "topology/tfrecords/train_2ms/3103.tfrecords"
        string_val: "topology/tfrecords/train_2ms/3104.tfrecords"
        string_val: "topology/tfrecords/train_2ms/3105.tfrecords"
        string_val: "topology/tfrecords/train_2ms/3107.tfrecords"
        string_val: "topology/tfrecords/train_2ms/3108.tfrecords"
        string_val: "topology/tfrecords/train_2ms/3109.tfrecords"
        string_val: "topology/tfrecords/train_2ms/310.tfrecords"
        string_val: "topology/tfrecords/train_2ms/3110.tfrecords"
        string_val: "topology/tfrecords/train_2ms/3113.tfrecords"
        string_val: "topology/tfrecords/train_2ms/3114.tfrecords"
        string_val: "topology/tfrecords/train_2ms/3115.tfrecords"
        string_val: "topology/tfrecords/train_2ms/3116.tfrecords"
        string_val: "topology/tfrecords/train_2ms/3118.tfrecords"
        string_val: "topology/tfrecords/train_2ms/3119.tfrecords"
        string_val: "topology/tfrecords/train_2ms/311.tfrecords"
        string_val: "topology/tfrecords/train_2ms/3120.tfrecords"
        string_val: "topology/tfrecords/train_2ms/3122.tfrecords"
        string_val: "topology/tfrecords/train_2ms/3123.tfrecords"
        string_val: "topology/tfrecords/train_2ms/3124.tfrecords"
        string_val: "topology/tfrecords/train_2ms/3125.tfrecords"
        string_val: "topology/tfrecords/train_2ms/3126.tfrecords"
        string_val: "topology/tfrecords/train_2ms/3127.tfrecords"
        string_val: "topology/tfrecords/train_2ms/3128.tfrecords"
        string_val: "topology/tfrecords/train_2ms/3129.tfrecords"
        string_val: "topology/tfrecords/train_2ms/312.tfrecords"
        string_val: "topology/tfrecords/train_2ms/3130.tfrecords"
        string_val: "topology/tfrecords/train_2ms/3132.tfrecords"
        string_val: "topology/tfrecords/train_2ms/3133.tfrecords"
        string_val: "topology/tfrecords/train_2ms/3134.tfrecords"
        string_val: "topology/tfrecords/train_2ms/3136.tfrecords"
        string_val: "topology/tfrecords/train_2ms/3137.tfrecords"
        string_val: "topology/tfrecords/train_2ms/3139.tfrecords"
        string_val: "topology/tfrecords/train_2ms/313.tfrecords"
        string_val: "topology/tfrecords/train_2ms/3140.tfrecords"
        string_val: "topology/tfrecords/train_2ms/3142.tfrecords"
        string_val: "topology/tfrecords/train_2ms/3143.tfrecords"
        string_val: "topology/tfrecords/train_2ms/3144.tfrecords"
        string_val: "topology/tfrecords/train_2ms/3145.tfrecords"
        string_val: "topology/tfrecords/train_2ms/3147.tfrecords"
        string_val: "topology/tfrecords/train_2ms/3148.tfrecords"
        string_val: "topology/tfrecords/train_2ms/3149.tfrecords"
        string_val: "topology/tfrecords/train_2ms/314.tfrecords"
        string_val: "topology/tfrecords/train_2ms/3150.tfrecords"
        string_val: "topology/tfrecords/train_2ms/3151.tfrecords"
        string_val: "topology/tfrecords/train_2ms/3152.tfrecords"
        string_val: "topology/tfrecords/train_2ms/3153.tfrecords"
        string_val: "topology/tfrecords/train_2ms/3154.tfrecords"
        string_val: "topology/tfrecords/train_2ms/3155.tfrecords"
        string_val: "topology/tfrecords/train_2ms/3156.tfrecords"
        string_val: "topology/tfrecords/train_2ms/3158.tfrecords"
        string_val: "topology/tfrecords/train_2ms/315.tfrecords"
        string_val: "topology/tfrecords/train_2ms/3160.tfrecords"
        string_val: "topology/tfrecords/train_2ms/3161.tfrecords"
        string_val: "topology/tfrecords/train_2ms/3162.tfrecords"
        string_val: "topology/tfrecords/train_2ms/3163.tfrecords"
        string_val: "topology/tfrecords/train_2ms/3164.tfrecords"
        string_val: "topology/tfrecords/train_2ms/3166.tfrecords"
        string_val: "topology/tfrecords/train_2ms/3167.tfrecords"
        string_val: "topology/tfrecords/train_2ms/3168.tfrecords"
        string_val: "topology/tfrecords/train_2ms/3169.tfrecords"
        string_val: "topology/tfrecords/train_2ms/316.tfrecords"
        string_val: "topology/tfrecords/train_2ms/3170.tfrecords"
        string_val: "topology/tfrecords/train_2ms/3171.tfrecords"
        string_val: "topology/tfrecords/train_2ms/3172.tfrecords"
        string_val: "topology/tfrecords/train_2ms/3173.tfrecords"
        string_val: "topology/tfrecords/train_2ms/3174.tfrecords"
        string_val: "topology/tfrecords/train_2ms/3175.tfrecords"
        string_val: "topology/tfrecords/train_2ms/3176.tfrecords"
        string_val: "topology/tfrecords/train_2ms/3177.tfrecords"
        string_val: "topology/tfrecords/train_2ms/3178.tfrecords"
        string_val: "topology/tfrecords/train_2ms/3179.tfrecords"
        string_val: "topology/tfrecords/train_2ms/317.tfrecords"
        string_val: "topology/tfrecords/train_2ms/3180.tfrecords"
        string_val: "topology/tfrecords/train_2ms/3181.tfrecords"
        string_val: "topology/tfrecords/train_2ms/3182.tfrecords"
        string_val: "topology/tfrecords/train_2ms/3183.tfrecords"
        string_val: "topology/tfrecords/train_2ms/3184.tfrecords"
        string_val: "topology/tfrecords/train_2ms/3185.tfrecords"
        string_val: "topology/tfrecords/train_2ms/3187.tfrecords"
        string_val: "topology/tfrecords/train_2ms/3188.tfrecords"
        string_val: "topology/tfrecords/train_2ms/3189.tfrecords"
        string_val: "topology/tfrecords/train_2ms/318.tfrecords"
        string_val: "topology/tfrecords/train_2ms/3190.tfrecords"
        string_val: "topology/tfrecords/train_2ms/3191.tfrecords"
        string_val: "topology/tfrecords/train_2ms/3192.tfrecords"
        string_val: "topology/tfrecords/train_2ms/3193.tfrecords"
        string_val: "topology/tfrecords/train_2ms/3194.tfrecords"
        string_val: "topology/tfrecords/train_2ms/3196.tfrecords"
        string_val: "topology/tfrecords/train_2ms/3197.tfrecords"
        string_val: "topology/tfrecords/train_2ms/3198.tfrecords"
        string_val: "topology/tfrecords/train_2ms/3199.tfrecords"
        string_val: "topology/tfrecords/train_2ms/319.tfrecords"
        string_val: "topology/tfrecords/train_2ms/31.tfrecords"
        string_val: "topology/tfrecords/train_2ms/3200.tfrecords"
        string_val: "topology/tfrecords/train_2ms/3201.tfrecords"
        string_val: "topology/tfrecords/train_2ms/3202.tfrecords"
        string_val: "topology/tfrecords/train_2ms/3203.tfrecords"
        string_val: "topology/tfrecords/train_2ms/3205.tfrecords"
        string_val: "topology/tfrecords/train_2ms/3207.tfrecords"
        string_val: "topology/tfrecords/train_2ms/3208.tfrecords"
        string_val: "topology/tfrecords/train_2ms/3209.tfrecords"
        string_val: "topology/tfrecords/train_2ms/320.tfrecords"
        string_val: "topology/tfrecords/train_2ms/3210.tfrecords"
        string_val: "topology/tfrecords/train_2ms/3211.tfrecords"
        string_val: "topology/tfrecords/train_2ms/3212.tfrecords"
        string_val: "topology/tfrecords/train_2ms/3213.tfrecords"
        string_val: "topology/tfrecords/train_2ms/3215.tfrecords"
        string_val: "topology/tfrecords/train_2ms/3217.tfrecords"
        string_val: "topology/tfrecords/train_2ms/3218.tfrecords"
        string_val: "topology/tfrecords/train_2ms/3219.tfrecords"
        string_val: "topology/tfrecords/train_2ms/321.tfrecords"
        string_val: "topology/tfrecords/train_2ms/3220.tfrecords"
        string_val: "topology/tfrecords/train_2ms/3221.tfrecords"
        string_val: "topology/tfrecords/train_2ms/3223.tfrecords"
        string_val: "topology/tfrecords/train_2ms/3224.tfrecords"
        string_val: "topology/tfrecords/train_2ms/3225.tfrecords"
        string_val: "topology/tfrecords/train_2ms/3227.tfrecords"
        string_val: "topology/tfrecords/train_2ms/3228.tfrecords"
        string_val: "topology/tfrecords/train_2ms/3229.tfrecords"
        string_val: "topology/tfrecords/train_2ms/322.tfrecords"
        string_val: "topology/tfrecords/train_2ms/3230.tfrecords"
        string_val: "topology/tfrecords/train_2ms/3231.tfrecords"
        string_val: "topology/tfrecords/train_2ms/3232.tfrecords"
        string_val: "topology/tfrecords/train_2ms/3233.tfrecords"
        string_val: "topology/tfrecords/train_2ms/3234.tfrecords"
        string_val: "topology/tfrecords/train_2ms/3235.tfrecords"
        string_val: "topology/tfrecords/train_2ms/3236.tfrecords"
        string_val: "topology/tfrecords/train_2ms/3237.tfrecords"
        string_val: "topology/tfrecords/train_2ms/3238.tfrecords"
        string_val: "topology/tfrecords/train_2ms/3239.tfrecords"
        string_val: "topology/tfrecords/train_2ms/323.tfrecords"
        string_val: "topology/tfrecords/train_2ms/3241.tfrecords"
        string_val: "topology/tfrecords/train_2ms/3242.tfrecords"
        string_val: "topology/tfrecords/train_2ms/3244.tfrecords"
        string_val: "topology/tfrecords/train_2ms/3245.tfrecords"
        string_val: "topology/tfrecords/train_2ms/3246.tfrecords"
        string_val: "topology/tfrecords/train_2ms/3248.tfrecords"
        string_val: "topology/tfrecords/train_2ms/3249.tfrecords"
        string_val: "topology/tfrecords/train_2ms/324.tfrecords"
        string_val: "topology/tfrecords/train_2ms/3250.tfrecords"
        string_val: "topology/tfrecords/train_2ms/3251.tfrecords"
        string_val: "topology/tfrecords/train_2ms/3254.tfrecords"
        string_val: "topology/tfrecords/train_2ms/3255.tfrecords"
        string_val: "topology/tfrecords/train_2ms/3256.tfrecords"
        string_val: "topology/tfrecords/train_2ms/3258.tfrecords"
        string_val: "topology/tfrecords/train_2ms/325.tfrecords"
        string_val: "topology/tfrecords/train_2ms/3260.tfrecords"
        string_val: "topology/tfrecords/train_2ms/3261.tfrecords"
        string_val: "topology/tfrecords/train_2ms/3262.tfrecords"
        string_val: "topology/tfrecords/train_2ms/3264.tfrecords"
        string_val: "topology/tfrecords/train_2ms/3265.tfrecords"
        string_val: "topology/tfrecords/train_2ms/3266.tfrecords"
        string_val: "topology/tfrecords/train_2ms/3268.tfrecords"
        string_val: "topology/tfrecords/train_2ms/3269.tfrecords"
        string_val: "topology/tfrecords/train_2ms/326.tfrecords"
        string_val: "topology/tfrecords/train_2ms/3271.tfrecords"
        string_val: "topology/tfrecords/train_2ms/3272.tfrecords"
        string_val: "topology/tfrecords/train_2ms/3273.tfrecords"
        string_val: "topology/tfrecords/train_2ms/3274.tfrecords"
        string_val: "topology/tfrecords/train_2ms/3278.tfrecords"
        string_val: "topology/tfrecords/train_2ms/3279.tfrecords"
        string_val: "topology/tfrecords/train_2ms/327.tfrecords"
        string_val: "topology/tfrecords/train_2ms/3281.tfrecords"
        string_val: "topology/tfrecords/train_2ms/3284.tfrecords"
        string_val: "topology/tfrecords/train_2ms/3285.tfrecords"
        string_val: "topology/tfrecords/train_2ms/3286.tfrecords"
        string_val: "topology/tfrecords/train_2ms/3287.tfrecords"
        string_val: "topology/tfrecords/train_2ms/328.tfrecords"
        string_val: "topology/tfrecords/train_2ms/3290.tfrecords"
        string_val: "topology/tfrecords/train_2ms/3291.tfrecords"
        string_val: "topology/tfrecords/train_2ms/3292.tfrecords"
        string_val: "topology/tfrecords/train_2ms/3293.tfrecords"
        string_val: "topology/tfrecords/train_2ms/3294.tfrecords"
        string_val: "topology/tfrecords/train_2ms/3295.tfrecords"
        string_val: "topology/tfrecords/train_2ms/3296.tfrecords"
        string_val: "topology/tfrecords/train_2ms/3298.tfrecords"
        string_val: "topology/tfrecords/train_2ms/3299.tfrecords"
        string_val: "topology/tfrecords/train_2ms/329.tfrecords"
        string_val: "topology/tfrecords/train_2ms/3301.tfrecords"
        string_val: "topology/tfrecords/train_2ms/3302.tfrecords"
        string_val: "topology/tfrecords/train_2ms/3303.tfrecords"
        string_val: "topology/tfrecords/train_2ms/3304.tfrecords"
        string_val: "topology/tfrecords/train_2ms/3305.tfrecords"
        string_val: "topology/tfrecords/train_2ms/3306.tfrecords"
        string_val: "topology/tfrecords/train_2ms/3307.tfrecords"
        string_val: "topology/tfrecords/train_2ms/3308.tfrecords"
        string_val: "topology/tfrecords/train_2ms/3309.tfrecords"
        string_val: "topology/tfrecords/train_2ms/3310.tfrecords"
        string_val: "topology/tfrecords/train_2ms/3311.tfrecords"
        string_val: "topology/tfrecords/train_2ms/3312.tfrecords"
        string_val: "topology/tfrecords/train_2ms/3313.tfrecords"
        string_val: "topology/tfrecords/train_2ms/3315.tfrecords"
        string_val: "topology/tfrecords/train_2ms/3316.tfrecords"
        string_val: "topology/tfrecords/train_2ms/3317.tfrecords"
        string_val: "topology/tfrecords/train_2ms/3318.tfrecords"
        string_val: "topology/tfrecords/train_2ms/3319.tfrecords"
        string_val: "topology/tfrecords/train_2ms/331.tfrecords"
        string_val: "topology/tfrecords/train_2ms/3321.tfrecords"
        string_val: "topology/tfrecords/train_2ms/3322.tfrecords"
        string_val: "topology/tfrecords/train_2ms/3324.tfrecords"
        string_val: "topology/tfrecords/train_2ms/3326.tfrecords"
        string_val: "topology/tfrecords/train_2ms/3327.tfrecords"
        string_val: "topology/tfrecords/train_2ms/3329.tfrecords"
        string_val: "topology/tfrecords/train_2ms/3330.tfrecords"
        string_val: "topology/tfrecords/train_2ms/3331.tfrecords"
        string_val: "topology/tfrecords/train_2ms/3332.tfrecords"
        string_val: "topology/tfrecords/train_2ms/3333.tfrecords"
        string_val: "topology/tfrecords/train_2ms/3334.tfrecords"
        string_val: "topology/tfrecords/train_2ms/3335.tfrecords"
        string_val: "topology/tfrecords/train_2ms/3337.tfrecords"
        string_val: "topology/tfrecords/train_2ms/3338.tfrecords"
        string_val: "topology/tfrecords/train_2ms/3339.tfrecords"
        string_val: "topology/tfrecords/train_2ms/333.tfrecords"
        string_val: "topology/tfrecords/train_2ms/3341.tfrecords"
        string_val: "topology/tfrecords/train_2ms/3342.tfrecords"
        string_val: "topology/tfrecords/train_2ms/3344.tfrecords"
        string_val: "topology/tfrecords/train_2ms/3345.tfrecords"
        string_val: "topology/tfrecords/train_2ms/3347.tfrecords"
        string_val: "topology/tfrecords/train_2ms/3348.tfrecords"
        string_val: "topology/tfrecords/train_2ms/3349.tfrecords"
        string_val: "topology/tfrecords/train_2ms/3350.tfrecords"
        string_val: "topology/tfrecords/train_2ms/3353.tfrecords"
        string_val: "topology/tfrecords/train_2ms/3354.tfrecords"
        string_val: "topology/tfrecords/train_2ms/3355.tfrecords"
        string_val: "topology/tfrecords/train_2ms/3356.tfrecords"
        string_val: "topology/tfrecords/train_2ms/3357.tfrecords"
        string_val: "topology/tfrecords/train_2ms/3358.tfrecords"
        string_val: "topology/tfrecords/train_2ms/3359.tfrecords"
        string_val: "topology/tfrecords/train_2ms/335.tfrecords"
        string_val: "topology/tfrecords/train_2ms/3360.tfrecords"
        string_val: "topology/tfrecords/train_2ms/3361.tfrecords"
        string_val: "topology/tfrecords/train_2ms/3362.tfrecords"
        string_val: "topology/tfrecords/train_2ms/3363.tfrecords"
        string_val: "topology/tfrecords/train_2ms/3366.tfrecords"
        string_val: "topology/tfrecords/train_2ms/3367.tfrecords"
        string_val: "topology/tfrecords/train_2ms/3368.tfrecords"
        string_val: "topology/tfrecords/train_2ms/336.tfrecords"
        string_val: "topology/tfrecords/train_2ms/3370.tfrecords"
        string_val: "topology/tfrecords/train_2ms/3371.tfrecords"
        string_val: "topology/tfrecords/train_2ms/3372.tfrecords"
        string_val: "topology/tfrecords/train_2ms/3373.tfrecords"
        string_val: "topology/tfrecords/train_2ms/3374.tfrecords"
        string_val: "topology/tfrecords/train_2ms/3375.tfrecords"
        string_val: "topology/tfrecords/train_2ms/3378.tfrecords"
        string_val: "topology/tfrecords/train_2ms/3380.tfrecords"
        string_val: "topology/tfrecords/train_2ms/3382.tfrecords"
        string_val: "topology/tfrecords/train_2ms/3383.tfrecords"
        string_val: "topology/tfrecords/train_2ms/3384.tfrecords"
        string_val: "topology/tfrecords/train_2ms/3386.tfrecords"
        string_val: "topology/tfrecords/train_2ms/3387.tfrecords"
        string_val: "topology/tfrecords/train_2ms/3388.tfrecords"
        string_val: "topology/tfrecords/train_2ms/3389.tfrecords"
        string_val: "topology/tfrecords/train_2ms/338.tfrecords"
        string_val: "topology/tfrecords/train_2ms/3390.tfrecords"
        string_val: "topology/tfrecords/train_2ms/3391.tfrecords"
        string_val: "topology/tfrecords/train_2ms/3392.tfrecords"
        string_val: "topology/tfrecords/train_2ms/3393.tfrecords"
        string_val: "topology/tfrecords/train_2ms/3395.tfrecords"
        string_val: "topology/tfrecords/train_2ms/3397.tfrecords"
        string_val: "topology/tfrecords/train_2ms/3398.tfrecords"
        string_val: "topology/tfrecords/train_2ms/3399.tfrecords"
        string_val: "topology/tfrecords/train_2ms/339.tfrecords"
        string_val: "topology/tfrecords/train_2ms/33.tfrecords"
        string_val: "topology/tfrecords/train_2ms/3402.tfrecords"
        string_val: "topology/tfrecords/train_2ms/3404.tfrecords"
        string_val: "topology/tfrecords/train_2ms/3405.tfrecords"
        string_val: "topology/tfrecords/train_2ms/3406.tfrecords"
        string_val: "topology/tfrecords/train_2ms/3407.tfrecords"
        string_val: "topology/tfrecords/train_2ms/3409.tfrecords"
        string_val: "topology/tfrecords/train_2ms/340.tfrecords"
        string_val: "topology/tfrecords/train_2ms/3410.tfrecords"
        string_val: "topology/tfrecords/train_2ms/3411.tfrecords"
        string_val: "topology/tfrecords/train_2ms/3412.tfrecords"
        string_val: "topology/tfrecords/train_2ms/3414.tfrecords"
        string_val: "topology/tfrecords/train_2ms/3416.tfrecords"
        string_val: "topology/tfrecords/train_2ms/3417.tfrecords"
        string_val: "topology/tfrecords/train_2ms/3418.tfrecords"
        string_val: "topology/tfrecords/train_2ms/3419.tfrecords"
        string_val: "topology/tfrecords/train_2ms/341.tfrecords"
        string_val: "topology/tfrecords/train_2ms/3420.tfrecords"
        string_val: "topology/tfrecords/train_2ms/3421.tfrecords"
        string_val: "topology/tfrecords/train_2ms/3422.tfrecords"
        string_val: "topology/tfrecords/train_2ms/3423.tfrecords"
        string_val: "topology/tfrecords/train_2ms/3424.tfrecords"
        string_val: "topology/tfrecords/train_2ms/3425.tfrecords"
        string_val: "topology/tfrecords/train_2ms/3426.tfrecords"
        string_val: "topology/tfrecords/train_2ms/3427.tfrecords"
        string_val: "topology/tfrecords/train_2ms/3428.tfrecords"
        string_val: "topology/tfrecords/train_2ms/342.tfrecords"
        string_val: "topology/tfrecords/train_2ms/3430.tfrecords"
        string_val: "topology/tfrecords/train_2ms/3431.tfrecords"
        string_val: "topology/tfrecords/train_2ms/3432.tfrecords"
        string_val: "topology/tfrecords/train_2ms/3434.tfrecords"
        string_val: "topology/tfrecords/train_2ms/3435.tfrecords"
        string_val: "topology/tfrecords/train_2ms/3436.tfrecords"
        string_val: "topology/tfrecords/train_2ms/3437.tfrecords"
        string_val: "topology/tfrecords/train_2ms/3439.tfrecords"
        string_val: "topology/tfrecords/train_2ms/343.tfrecords"
        string_val: "topology/tfrecords/train_2ms/3440.tfrecords"
        string_val: "topology/tfrecords/train_2ms/3441.tfrecords"
        string_val: "topology/tfrecords/train_2ms/3442.tfrecords"
        string_val: "topology/tfrecords/train_2ms/3443.tfrecords"
        string_val: "topology/tfrecords/train_2ms/3444.tfrecords"
        string_val: "topology/tfrecords/train_2ms/3445.tfrecords"
…
            string_val: "topology/tfrecords/train_2ms/419.tfrecords"
            string_val: "topology/tfrecords/train_2ms/421.tfrecords"
            string_val: "topology/tfrecords/train_2ms/422.tfrecords"
            string_val: "topology/tfrecords/train_2ms/423.tfrecords"
            string_val: "topology/tfrecords/train_2ms/424.tfrecords"
            string_val: "topology/tfrecords/train_2ms/425.tfrecords"
            string_val: "topology/tfrecords/train_2ms/426.tfrecords"
            string_val: "topology/tfrecords/train_2ms/427.tfrecords"
            string_val: "topology/tfrecords/train_2ms/428.tfrecords"
            string_val: "topology/tfrecords/train_2ms/42.tfrecords"
            string_val: "topology/tfrecords/train_2ms/430.tfrecords"
            string_val: "topology/tfrecords/train_2ms/431.tfrecords"
            string_val: "topology/tfrecords/train_2ms/432.tfrecords"
            string_val: "topology/tfrecords/train_2ms/435.tfrecords"
            string_val: "topology/tfrecords/train_2ms/438.tfrecords"
            string_val: "topology/tfrecords/train_2ms/440.tfrecords"
            string_val: "topology/tfrecords/train_2ms/441.tfrecords"
            string_val: "topology/tfrecords/train_2ms/442.tfrecords"
            string_val: "topology/tfrecords/train_2ms/443.tfrecords"
            string_val: "topology/tfrecords/train_2ms/444.tfrecords"
            string_val: "topology/tfrecords/train_2ms/445.tfrecords"
            string_val: "topology/tfrecords/train_2ms/447.tfrecords"
            string_val: "topology/tfrecords/train_2ms/448.tfrecords"
            string_val: "topology/tfrecords/train_2ms/449.tfrecords"
            string_val: "topology/tfrecords/train_2ms/44.tfrecords"
            string_val: "topology/tfrecords/train_2ms/450.tfrecords"
            string_val: "topology/tfrecords/train_2ms/451.tfrecords"
            string_val: "topology/tfrecords/train_2ms/452.tfrecords"
            string_val: "topology/tfrecords/train_2ms/453.tfrecords"
            string_val: "topology/tfrecords/train_2ms/454.tfrecords"
            string_val: "topology/tfrecords/train_2ms/455.tfrecords"
            string_val: "topology/tfrecords/train_2ms/456.tfrecords"
            string_val: "topology/tfrecords/train_2ms/457.tfrecords"
            string_val: "topology/tfrecords/train_2ms/459.tfrecords"
            string_val: "topology/tfrecords/train_2ms/45.tfrecords"
            string_val: "topology/tfrecords/train_2ms/460.tfrecords"
            string_val: "topology/tfrecords/train_2ms/461.tfrecords"
            string_val: "topology/tfrecords/train_2ms/462.tfrecords"
            string_val: "topology/tfrecords/train_2ms/463.tfrecords"
            string_val: "topology/tfrecords/train_2ms/464.tfrecords"
            string_val: "topology/tfrecords/train_2ms/465.tfrecords"
            string_val: "topology/tfrecords/train_2ms/467.tfrecords"
            string_val: "topology/tfrecords/train_2ms/468.tfrecords"
            string_val: "topology/tfrecords/train_2ms/470.tfrecords"
            string_val: "topology/tfrecords/train_2ms/471.tfrecords"
            string_val: "topology/tfrecords/train_2ms/473.tfrecords"
            string_val: "topology/tfrecords/train_2ms/474.tfrecords"
            string_val: "topology/tfrecords/train_2ms/475.tfrecords"
            string_val: "topology/tfrecords/train_2ms/476.tfrecords"
            string_val: "topology/tfrecords/train_2ms/477.tfrecords"
            string_val: "topology/tfrecords/train_2ms/478.tfrecords"
            string_val: "topology/tfrecords/train_2ms/479.tfrecords"
            string_val: "topology/tfrecords/train_2ms/47.tfrecords"
            string_val: "topology/tfrecords/train_2ms/481.tfrecords"
            string_val: "topology/tfrecords/train_2ms/482.tfrecords"
            string_val: "topology/tfrecords/train_2ms/483.tfrecords"
            string_val: "topology/tfrecords/train_2ms/484.tfrecords"
            string_val: "topology/tfrecords/train_2ms/485.tfrecords"
            string_val: "topology/tfrecords/train_2ms/486.tfrecords"
            string_val: "topology/tfrecords/train_2ms/487.tfrecords"
            string_val: "topology/tfrecords/train_2ms/488.tfrecords"
            string_val: "topology/tfrecords/train_2ms/489.tfrecords"
            string_val: "topology/tfrecords/train_2ms/48.tfrecords"
            string_val: "topology/tfrecords/train_2ms/490.tfrecords"
            string_val: "topology/tfrecords/train_2ms/491.tfrecords"
            string_val: "topology/tfrecords/train_2ms/492.tfrecords"
            string_val: "topology/tfrecords/train_2ms/494.tfrecords"
            string_val: "topology/tfrecords/train_2ms/495.tfrecords"
            string_val: "topology/tfrecords/train_2ms/496.tfrecords"
            string_val: "topology/tfrecords/train_2ms/497.tfrecords"
            string_val: "topology/tfrecords/train_2ms/498.tfrecords"
            string_val: "topology/tfrecords/train_2ms/49.tfrecords"
            string_val: "topology/tfrecords/train_2ms/500.tfrecords"
            string_val: "topology/tfrecords/train_2ms/502.tfrecords"
            string_val: "topology/tfrecords/train_2ms/503.tfrecords"
            string_val: "topology/tfrecords/train_2ms/504.tfrecords"
            string_val: "topology/tfrecords/train_2ms/505.tfrecords"
            string_val: "topology/tfrecords/train_2ms/506.tfrecords"
            string_val: "topology/tfrecords/train_2ms/508.tfrecords"
            string_val: "topology/tfrecords/train_2ms/50.tfrecords"
            string_val: "topology/tfrecords/train_2ms/510.tfrecords"
            string_val: "topology/tfrecords/train_2ms/511.tfrecords"
            string_val: "topology/tfrecords/train_2ms/512.tfrecords"
            string_val: "topology/tfrecords/train_2ms/515.tfrecords"
            string_val: "topology/tfrecords/train_2ms/516.tfrecords"
            string_val: "topology/tfrecords/train_2ms/517.tfrecords"
            string_val: "topology/tfrecords/train_2ms/518.tfrecords"
            string_val: "topology/tfrecords/train_2ms/519.tfrecords"
            string_val: "topology/tfrecords/train_2ms/51.tfrecords"
            string_val: "topology/tfrecords/train_2ms/521.tfrecords"
            string_val: "topology/tfrecords/train_2ms/522.tfrecords"
            string_val: "topology/tfrecords/train_2ms/523.tfrecords"
            string_val: "topology/tfrecords/train_2ms/524.tfrecords"
            string_val: "topology/tfrecords/train_2ms/526.tfrecords"
            string_val: "topology/tfrecords/train_2ms/527.tfrecords"
            string_val: "topology/tfrecords/train_2ms/528.tfrecords"
            string_val: "topology/tfrecords/train_2ms/533.tfrecords"
            string_val: "topology/tfrecords/train_2ms/534.tfrecords"
            string_val: "topology/tfrecords/train_2ms/535.tfrecords"
            string_val: "topology/tfrecords/train_2ms/536.tfrecords"
            string_val: "topology/tfrecords/train_2ms/537.tfrecords"
            string_val: "topology/tfrecords/train_2ms/538.tfrecords"
            string_val: "topology/tfrecords/train_2ms/539.tfrecords"
            string_val: "topology/tfrecords/train_2ms/540.tfrecords"
            string_val: "topology/tfrecords/train_2ms/541.tfrecords"
            string_val: "topology/tfrecords/train_2ms/542.tfrecords"
            string_val: "topology/tfrecords/train_2ms/543.tfrecords"
            string_val: "topology/tfrecords/train_2ms/544.tfrecords"
            string_val: "topology/tfrecords/train_2ms/545.tfrecords"
            string_val: "topology/tfrecords/train_2ms/546.tfrecords"
            string_val: "topology/tfrecords/train_2ms/547.tfrecords"
            string_val: "topology/tfrecords/train_2ms/549.tfrecords"
            string_val: "topology/tfrecords/train_2ms/54.tfrecords"
            string_val: "topology/tfrecords/train_2ms/550.tfrecords"
            string_val: "topology/tfrecords/train_2ms/552.tfrecords"
            string_val: "topology/tfrecords/train_2ms/553.tfrecords"
            string_val: "topology/tfrecords/train_2ms/556.tfrecords"
            string_val: "topology/tfrecords/train_2ms/558.tfrecords"
            string_val: "topology/tfrecords/train_2ms/559.tfrecords"
            string_val: "topology/tfrecords/train_2ms/55.tfrecords"
            string_val: "topology/tfrecords/train_2ms/561.tfrecords"
            string_val: "topology/tfrecords/train_2ms/562.tfrecords"
            string_val: "topology/tfrecords/train_2ms/563.tfrecords"
            string_val: "topology/tfrecords/train_2ms/564.tfrecords"
            string_val: "topology/tfrecords/train_2ms/565.tfrecords"
            string_val: "topology/tfrecords/train_2ms/566.tfrecords"
            string_val: "topology/tfrecords/train_2ms/568.tfrecords"
            string_val: "topology/tfrecords/train_2ms/569.tfrecords"
            string_val: "topology/tfrecords/train_2ms/56.tfrecords"
            string_val: "topology/tfrecords/train_2ms/570.tfrecords"
            string_val: "topology/tfrecords/train_2ms/571.tfrecords"
            string_val: "topology/tfrecords/train_2ms/572.tfrecords"
            string_val: "topology/tfrecords/train_2ms/574.tfrecords"
            string_val: "topology/tfrecords/train_2ms/576.tfrecords"
            string_val: "topology/tfrecords/train_2ms/578.tfrecords"
            string_val: "topology/tfrecords/train_2ms/57.tfrecords"
            string_val: "topology/tfrecords/train_2ms/580.tfrecords"
            string_val: "topology/tfrecords/train_2ms/581.tfrecords"
            string_val: "topology/tfrecords/train_2ms/582.tfrecords"
            string_val: "topology/tfrecords/train_2ms/583.tfrecords"
            string_val: "topology/tfrecords/train_2ms/584.tfrecords"
            string_val: "topology/tfrecords/train_2ms/586.tfrecords"
            string_val: "topology/tfrecords/train_2ms/587.tfrecords"
            string_val: "topology/tfrecords/train_2ms/588.tfrecords"
            string_val: "topology/tfrecords/train_2ms/589.tfrecords"
            string_val: "topology/tfrecords/train_2ms/58.tfrecords"
            string_val: "topology/tfrecords/train_2ms/590.tfrecords"
            string_val: "topology/tfrecords/train_2ms/591.tfrecords"
            string_val: "topology/tfrecords/train_2ms/592.tfrecords"
            string_val: "topology/tfrecords/train_2ms/593.tfrecords"
            string_val: "topology/tfrecords/train_2ms/594.tfrecords"
            string_val: "topology/tfrecords/train_2ms/595.tfrecords"
            string_val: "topology/tfrecords/train_2ms/596.tfrecords"
            string_val: "topology/tfrecords/train_2ms/597.tfrecords"
            string_val: "topology/tfrecords/train_2ms/598.tfrecords"
            string_val: "topology/tfrecords/train_2ms/599.tfrecords"
            string_val: "topology/tfrecords/train_2ms/59.tfrecords"
            string_val: "topology/tfrecords/train_2ms/5.tfrecords"
            string_val: "topology/tfrecords/train_2ms/600.tfrecords"
            string_val: "topology/tfrecords/train_2ms/602.tfrecords"
            string_val: "topology/tfrecords/train_2ms/603.tfrecords"
            string_val: "topology/tfrecords/train_2ms/604.tfrecords"
            string_val: "topology/tfrecords/train_2ms/605.tfrecords"
            string_val: "topology/tfrecords/train_2ms/606.tfrecords"
            string_val: "topology/tfrecords/train_2ms/607.tfrecords"
            string_val: "topology/tfrecords/train_2ms/608.tfrecords"
            string_val: "topology/tfrecords/train_2ms/609.tfrecords"
            string_val: "topology/tfrecords/train_2ms/60.tfrecords"
            string_val: "topology/tfrecords/train_2ms/610.tfrecords"
            string_val: "topology/tfrecords/train_2ms/611.tfrecords"
            string_val: "topology/tfrecords/train_2ms/612.tfrecords"
            string_val: "topology/tfrecords/train_2ms/613.tfrecords"
            string_val: "topology/tfrecords/train_2ms/614.tfrecords"
            string_val: "topology/tfrecords/train_2ms/615.tfrecords"
            string_val: "topology/tfrecords/train_2ms/618.tfrecords"
            string_val: "topology/tfrecords/train_2ms/619.tfrecords"
            string_val: "topology/tfrecords/train_2ms/61.tfrecords"
            string_val: "topology/tfrecords/train_2ms/620.tfrecords"
            string_val: "topology/tfrecords/train_2ms/621.tfrecords"
            string_val: "topology/tfrecords/train_2ms/623.tfrecords"
            string_val: "topology/tfrecords/train_2ms/624.tfrecords"
            string_val: "topology/tfrecords/train_2ms/625.tfrecords"
            string_val: "topology/tfrecords/train_2ms/626.tfrecords"
            string_val: "topology/tfrecords/train_2ms/627.tfrecords"
            string_val: "topology/tfrecords/train_2ms/628.tfrecords"
            string_val: "topology/tfrecords/train_2ms/629.tfrecords"
            string_val: "topology/tfrecords/train_2ms/630.tfrecords"
            string_val: "topology/tfrecords/train_2ms/631.tfrecords"
            string_val: "topology/tfrecords/train_2ms/632.tfrecords"
            string_val: "topology/tfrecords/train_2ms/633.tfrecords"
            string_val: "topology/tfrecords/train_2ms/634.tfrecords"
            string_val: "topology/tfrecords/train_2ms/635.tfrecords"
            string_val: "topology/tfrecords/train_2ms/638.tfrecords"
            string_val: "topology/tfrecords/train_2ms/639.tfrecords"
            string_val: "topology/tfrecords/train_2ms/63.tfrecords"
            string_val: "topology/tfrecords/train_2ms/640.tfrecords"
            string_val: "topology/tfrecords/train_2ms/642.tfrecords"
            string_val: "topology/tfrecords/train_2ms/643.tfrecords"
            string_val: "topology/tfrecords/train_2ms/644.tfrecords"
            string_val: "topology/tfrecords/train_2ms/646.tfrecords"
            string_val: "topology/tfrecords/train_2ms/647.tfrecords"
            string_val: "topology/tfrecords/train_2ms/648.tfrecords"
            string_val: "topology/tfrecords/train_2ms/64.tfrecords"
            string_val: "topology/tfrecords/train_2ms/650.tfrecords"
            string_val: "topology/tfrecords/train_2ms/651.tfrecords"
            string_val: "topology/tfrecords/train_2ms/652.tfrecords"
            string_val: "topology/tfrecords/train_2ms/653.tfrecords"
            string_val: "topology/tfrecords/train_2ms/654.tfrecords"
            string_val: "topology/tfrecords/train_2ms/657.tfrecords"
            string_val: "topology/tfrecords/train_2ms/658.tfrecords"
            string_val: "topology/tfrecords/train_2ms/65.tfrecords"
            string_val: "topology/tfrecords/train_2ms/661.tfrecords"
            string_val: "topology/tfrecords/train_2ms/663.tfrecords"
            string_val: "topology/tfrecords/train_2ms/665.tfrecords"
            string_val: "topology/tfrecords/train_2ms/666.tfrecords"
            string_val: "topology/tfrecords/train_2ms/667.tfrecords"
            string_val: "topology/tfrecords/train_2ms/668.tfrecords"
            string_val: "topology/tfrecords/train_2ms/669.tfrecords"
            string_val: "topology/tfrecords/train_2ms/66.tfrecords"
            string_val: "topology/tfrecords/train_2ms/670.tfrecords"
            string_val: "topology/tfrecords/train_2ms/672.tfrecords"
            string_val: "topology/tfrecords/train_2ms/673.tfrecords"
            string_val: "topology/tfrecords/train_2ms/674.tfrecords"
            string_val: "topology/tfrecords/train_2ms/675.tfrecords"
            string_val: "topology/tfrecords/train_2ms/677.tfrecords"
            string_val: "topology/tfrecords/train_2ms/678.tfrecords"
            string_val: "topology/tfrecords/train_2ms/680.tfrecords"
            string_val: "topology/tfrecords/train_2ms/681.tfrecords"
            string_val: "topology/tfrecords/train_2ms/682.tfrecords"
            string_val: "topology/tfrecords/train_2ms/684.tfrecords"
            string_val: "topology/tfrecords/train_2ms/685.tfrecords"
            string_val: "topology/tfrecords/train_2ms/686.tfrecords"
            string_val: "topology/tfrecords/train_2ms/687.tfrecords"
            string_val: "topology/tfrecords/train_2ms/688.tfrecords"
            string_val: "topology/tfrecords/train_2ms/689.tfrecords"
            string_val: "topology/tfrecords/train_2ms/68.tfrecords"
            string_val: "topology/tfrecords/train_2ms/690.tfrecords"
            string_val: "topology/tfrecords/train_2ms/691.tfrecords"
            string_val: "topology/tfrecords/train_2ms/692.tfrecords"
            string_val: "topology/tfrecords/train_2ms/694.tfrecords"
            string_val: "topology/tfrecords/train_2ms/695.tfrecords"
            string_val: "topology/tfrecords/train_2ms/697.tfrecords"
            string_val: "topology/tfrecords/train_2ms/698.tfrecords"
            string_val: "topology/tfrecords/train_2ms/699.tfrecords"
            string_val: "topology/tfrecords/train_2ms/69.tfrecords"
            string_val: "topology/tfrecords/train_2ms/6.tfrecords"
            string_val: "topology/tfrecords/train_2ms/700.tfrecords"
            string_val: "topology/tfrecords/train_2ms/701.tfrecords"
            string_val: "topology/tfrecords/train_2ms/702.tfrecords"
            string_val: "topology/tfrecords/train_2ms/703.tfrecords"
            string_val: "topology/tfrecords/train_2ms/704.tfrecords"
            string_val: "topology/tfrecords/train_2ms/705.tfrecords"
            string_val: "topology/tfrecords/train_2ms/706.tfrecords"
            string_val: "topology/tfrecords/train_2ms/708.tfrecords"
            string_val: "topology/tfrecords/train_2ms/709.tfrecords"
            string_val: "topology/tfrecords/train_2ms/70.tfrecords"
            string_val: "topology/tfrecords/train_2ms/711.tfrecords"
            string_val: "topology/tfrecords/train_2ms/712.tfrecords"
            string_val: "topology/tfrecords/train_2ms/713.tfrecords"
            string_val: "topology/tfrecords/train_2ms/714.tfrecords"
            string_val: "topology/tfrecords/train_2ms/715.tfrecords"
            string_val: "topology/tfrecords/train_2ms/716.tfrecords"
            string_val: "topology/tfrecords/train_2ms/717.tfrecords"
            string_val: "topology/tfrecords/train_2ms/718.tfrecords"
            string_val: "topology/tfrecords/train_2ms/719.tfrecords"
            string_val: "topology/tfrecords/train_2ms/71.tfrecords"
            string_val: "topology/tfrecords/train_2ms/721.tfrecords"
            string_val: "topology/tfrecords/train_2ms/723.tfrecords"
            string_val: "topology/tfrecords/train_2ms/724.tfrecords"
            string_val: "topology/tfrecords/train_2ms/725.tfrecords"
            string_val: "topology/tfrecords/train_2ms/726.tfrecords"
            string_val: "topology/tfrecords/train_2ms/728.tfrecords"
            string_val: "topology/tfrecords/train_2ms/729.tfrecords"
            string_val: "topology/tfrecords/train_2ms/72.tfrecords"
            string_val: "topology/tfrecords/train_2ms/731.tfrecords"
            string_val: "topology/tfrecords/train_2ms/732.tfrecords"
            string_val: "topology/tfrecords/train_2ms/733.tfrecords"
            string_val: "topology/tfrecords/train_2ms/734.tfrecords"
            string_val: "topology/tfrecords/train_2ms/735.tfrecords"
            string_val: "topology/tfrecords/train_2ms/736.tfrecords"
            string_val: "topology/tfrecords/train_2ms/737.tfrecords"
            string_val: "topology/tfrecords/train_2ms/738.tfrecords"
            string_val: "topology/tfrecords/train_2ms/739.tfrecords"
            string_val: "topology/tfrecords/train_2ms/73.tfrecords"
            string_val: "topology/tfrecords/train_2ms/740.tfrecords"
            string_val: "topology/tfrecords/train_2ms/742.tfrecords"
            string_val: "topology/tfrecords/train_2ms/744.tfrecords"
            string_val: "topology/tfrecords/train_2ms/745.tfrecords"
            string_val: "topology/tfrecords/train_2ms/746.tfrecords"
            string_val: "topology/tfrecords/train_2ms/748.tfrecords"
            string_val: "topology/tfrecords/train_2ms/74.tfrecords"
            string_val: "topology/tfrecords/train_2ms/750.tfrecords"
            string_val: "topology/tfrecords/train_2ms/751.tfrecords"
            string_val: "topology/tfrecords/train_2ms/752.tfrecords"
            string_val: "topology/tfrecords/train_2ms/754.tfrecords"
            string_val: "topology/tfrecords/train_2ms/756.tfrecords"
            string_val: "topology/tfrecords/train_2ms/757.tfrecords"
            string_val: "topology/tfrecords/train_2ms/758.tfrecords"
            string_val: "topology/tfrecords/train_2ms/759.tfrecords"
            string_val: "topology/tfrecords/train_2ms/75.tfrecords"
            string_val: "topology/tfrecords/train_2ms/760.tfrecords"
            string_val: "topology/tfrecords/train_2ms/761.tfrecords"
            string_val: "topology/tfrecords/train_2ms/763.tfrecords"
            string_val: "topology/tfrecords/train_2ms/767.tfrecords"
            string_val: "topology/tfrecords/train_2ms/768.tfrecords"
            string_val: "topology/tfrecords/train_2ms/769.tfrecords"
            string_val: "topology/tfrecords/train_2ms/76.tfrecords"
            string_val: "topology/tfrecords/train_2ms/771.tfrecords"
            string_val: "topology/tfrecords/train_2ms/772.tfrecords"
            string_val: "topology/tfrecords/train_2ms/774.tfrecords"
            string_val: "topology/tfrecords/train_2ms/775.tfrecords"
            string_val: "topology/tfrecords/train_2ms/776.tfrecords"
            string_val: "topology/tfrecords/train_2ms/777.tfrecords"
            string_val: "topology/tfrecords/train_2ms/778.tfrecords"
            string_val: "topology/tfrecords/train_2ms/779.tfrecords"
            string_val: "topology/tfrecords/train_2ms/77.tfrecords"
            string_val: "topology/tfrecords/train_2ms/780.tfrecords"
            string_val: "topology/tfrecords/train_2ms/781.tfrecords"
            string_val: "topology/tfrecords/train_2ms/783.tfrecords"
            string_val: "topology/tfrecords/train_2ms/785.tfrecords"
            string_val: "topology/tfrecords/train_2ms/786.tfrecords"
            string_val: "topology/tfrecords/train_2ms/787.tfrecords"
            string_val: "topology/tfrecords/train_2ms/788.tfrecords"
            string_val: "topology/tfrecords/train_2ms/789.tfrecords"
            string_val: "topology/tfrecords/train_2ms/78.tfrecords"
            string_val: "topology/tfrecords/train_2ms/790.tfrecords"
            string_val: "topology/tfrecords/train_2ms/792.tfrecords"
            string_val: "topology/tfrecords/train_2ms/794.tfrecords"
            string_val: "topology/tfrecords/train_2ms/795.tfrecords"
            string_val: "topology/tfrecords/train_2ms/796.tfrecords"
            string_val: "topology/tfrecords/train_2ms/797.tfrecords"
            string_val: "topology/tfrecords/train_2ms/798.tfrecords"
            string_val: "topology/tfrecords/train_2ms/799.tfrecords"
            string_val: "topology/tfrecords/train_2ms/79.tfrecords"
            string_val: "topology/tfrecords/train_2ms/7.tfrecords"
            string_val: "topology/tfrecords/train_2ms/800.tfrecords"
            string_val: "topology/tfrecords/train_2ms/801.tfrecords"
            string_val: "topology/tfrecords/train_2ms/802.tfrecords"
            string_val: "topology/tfrecords/train_2ms/804.tfrecords"
            string_val: "topology/tfrecords/train_2ms/805.tfrecords"
            string_val: "topology/tfrecords/train_2ms/806.tfrecords"
            string_val: "topology/tfrecords/train_2ms/807.tfrecords"
            string_val: "topology/tfrecords/train_2ms/808.tfrecords"
            string_val: "topology/tfrecords/train_2ms/809.tfrecords"
            string_val: "topology/tfrecords/train_2ms/811.tfrecords"
            string_val: "topology/tfrecords/train_2ms/812.tfrecords"
            string_val: "topology/tfrecords/train_2ms/813.tfrecords"
            string_val: "topology/tfrecords/train_2ms/814.tfrecords"
            string_val: "topology/tfrecords/train_2ms/815.tfrecords"
            string_val: "topology/tfrecords/train_2ms/816.tfrecords"
            string_val: "topology/tfrecords/train_2ms/817.tfrecords"
            string_val: "topology/tfrecords/train_2ms/818.tfrecords"
            string_val: "topology/tfrecords/train_2ms/819.tfrecords"
            string_val: "topology/tfrecords/train_2ms/81.tfrecords"
            string_val: "topology/tfrecords/train_2ms/820.tfrecords"
            string_val: "topology/tfrecords/train_2ms/824.tfrecords"
            string_val: "topology/tfrecords/train_2ms/826.tfrecords"
            string_val: "topology/tfrecords/train_2ms/827.tfrecords"
            string_val: "topology/tfrecords/train_2ms/828.tfrecords"
            string_val: "topology/tfrecords/train_2ms/82.tfrecords"
            string_val: "topology/tfrecords/train_2ms/831.tfrecords"
            string_val: "topology/tfrecords/train_2ms/832.tfrecords"
            string_val: "topology/tfrecords/train_2ms/834.tfrecords"
            string_val: "topology/tfrecords/train_2ms/835.tfrecords"
            string_val: "topology/tfrecords/train_2ms/836.tfrecords"
            string_val: "topology/tfrecords/train_2ms/837.tfrecords"
            string_val: "topology/tfrecords/train_2ms/838.tfrecords"
            string_val: "topology/tfrecords/train_2ms/839.tfrecords"
            string_val: "topology/tfrecords/train_2ms/83.tfrecords"
            string_val: "topology/tfrecords/train_2ms/841.tfrecords"
            string_val: "topology/tfrecords/train_2ms/842.tfrecords"
            string_val: "topology/tfrecords/train_2ms/844.tfrecords"
            string_val: "topology/tfrecords/train_2ms/845.tfrecords"
            string_val: "topology/tfrecords/train_2ms/846.tfrecords"
            string_val: "topology/tfrecords/train_2ms/847.tfrecords"
            string_val: "topology/tfrecords/train_2ms/849.tfrecords"
            string_val: "topology/tfrecords/train_2ms/84.tfrecords"
            string_val: "topology/tfrecords/train_2ms/850.tfrecords"
            string_val: "topology/tfrecords/train_2ms/851.tfrecords"
            string_val: "topology/tfrecords/train_2ms/852.tfrecords"
            string_val: "topology/tfrecords/train_2ms/853.tfrecords"
            string_val: "topology/tfrecords/train_2ms/854.tfrecords"
            string_val: "topology/tfrecords/train_2ms/855.tfrecords"
            string_val: "topology/tfrecords/train_2ms/857.tfrecords"
            string_val: "topology/tfrecords/train_2ms/858.tfrecords"
            string_val: "topology/tfrecords/train_2ms/859.tfrecords"
            string_val: "topology/tfrecords/train_2ms/85.tfrecords"
            string_val: "topology/tfrecords/train_2ms/860.tfrecords"
            string_val: "topology/tfrecords/train_2ms/861.tfrecords"
            string_val: "topology/tfrecords/train_2ms/862.tfrecords"
            string_val: "topology/tfrecords/train_2ms/863.tfrecords"
            string_val: "topology/tfrecords/train_2ms/864.tfrecords"
            string_val: "topology/tfrecords/train_2ms/865.tfrecords"
            string_val: "topology/tfrecords/train_2ms/867.tfrecords"
            string_val: "topology/tfrecords/train_2ms/868.tfrecords"
            string_val: "topology/tfrecords/train_2ms/869.tfrecords"
            string_val: "topology/tfrecords/train_2ms/870.tfrecords"
            string_val: "topology/tfrecords/train_2ms/872.tfrecords"
            string_val: "topology/tfrecords/train_2ms/873.tfrecords"
            string_val: "topology/tfrecords/train_2ms/874.tfrecords"
            string_val: "topology/tfrecords/train_2ms/876.tfrecords"
            string_val: "topology/tfrecords/train_2ms/877.tfrecords"
            string_val: "topology/tfrecords/train_2ms/878.tfrecords"
            string_val: "topology/tfrecords/train_2ms/87.tfrecords"
            string_val: "topology/tfrecords/train_2ms/880.tfrecords"
            string_val: "topology/tfrecords/train_2ms/881.tfrecords"
            string_val: "topology/tfrecords/train_2ms/882.tfrecords"
            string_val: "topology/tfrecords/train_2ms/883.tfrecords"
            string_val: "topology/tfrecords/train_2ms/884.tfrecords"
            string_val: "topology/tfrecords/train_2ms/886.tfrecords"
            string_val: "topology/tfrecords/train_2ms/887.tfrecords"
            string_val: "topology/tfrecords/train_2ms/888.tfrecords"
            string_val: "topology/tfrecords/train_2ms/889.tfrecords"
            string_val: "topology/tfrecords/train_2ms/890.tfrecords"
            string_val: "topology/tfrecords/train_2ms/892.tfrecords"
            string_val: "topology/tfrecords/train_2ms/893.tfrecords"
            string_val: "topology/tfrecords/train_2ms/894.tfrecords"
            string_val: "topology/tfrecords/train_2ms/896.tfrecords"
            string_val: "topology/tfrecords/train_2ms/897.tfrecords"
            string_val: "topology/tfrecords/train_2ms/898.tfrecords"
            string_val: "topology/tfrecords/train_2ms/899.tfrecords"
            string_val: "topology/tfrecords/train_2ms/89.tfrecords"
            string_val: "topology/tfrecords/train_2ms/900.tfrecords"
            string_val: "topology/tfrecords/train_2ms/901.tfrecords"
            string_val: "topology/tfrecords/train_2ms/902.tfrecords"
            string_val: "topology/tfrecords/train_2ms/904.tfrecords"
            string_val: "topology/tfrecords/train_2ms/906.tfrecords"
            string_val: "topology/tfrecords/train_2ms/909.tfrecords"
            string_val: "topology/tfrecords/train_2ms/910.tfrecords"
            string_val: "topology/tfrecords/train_2ms/911.tfrecords"
            string_val: "topology/tfrecords/train_2ms/912.tfrecords"
            string_val: "topology/tfrecords/train_2ms/913.tfrecords"
            string_val: "topology/tfrecords/train_2ms/914.tfrecords"
            string_val: "topology/tfrecords/train_2ms/915.tfrecords"
            string_val: "topology/tfrecords/train_2ms/916.tfrecords"
            string_val: "topology/tfrecords/train_2ms/917.tfrecords"
            string_val: "topology/tfrecords/train_2ms/918.tfrecords"
            string_val: "topology/tfrecords/train_2ms/919.tfrecords"
            string_val: "topology/tfrecords/train_2ms/91.tfrecords"
            string_val: "topology/tfrecords/train_2ms/920.tfrecords"
            string_val: "topology/tfrecords/train_2ms/921.tfrecords"
            string_val: "topology/tfrecords/train_2ms/922.tfrecords"
            string_val: "topology/tfrecords/train_2ms/923.tfrecords"
            string_val: "topology/tfrecords/train_2ms/924.tfrecords"
            string_val: "topology/tfrecords/train_2ms/925.tfrecords"
            string_val: "topology/tfrecords/train_2ms/926.tfrecords"
            string_val: "topology/tfrecords/train_2ms/927.tfrecords"
            string_val: "topology/tfrecords/train_2ms/928.tfrecords"
            string_val: "topology/tfrecords/train_2ms/929.tfrecords"
            string_val: "topology/tfrecords/train_2ms/92.tfrecords"
            string_val: "topology/tfrecords/train_2ms/930.tfrecords"
            string_val: "topology/tfrecords/train_2ms/931.tfrecords"
            string_val: "topology/tfrecords/train_2ms/932.tfrecords"
            string_val: "topology/tfrecords/train_2ms/933.tfrecords"
            string_val: "topology/tfrecords/train_2ms/934.tfrecords"
            string_val: "topology/tfrecords/train_2ms/935.tfrecords"
            string_val: "topology/tfrecords/train_2ms/936.tfrecords"
            string_val: "topology/tfrecords/train_2ms/937.tfrecords"
            string_val: "topology/tfrecords/train_2ms/938.tfrecords"
            string_val: "topology/tfrecords/train_2ms/939.tfrecords"
            string_val: "topology/tfrecords/train_2ms/940.tfrecords"
            string_val: "topology/tfrecords/train_2ms/941.tfrecords"
            string_val: "topology/tfrecords/train_2ms/942.tfrecords"
            string_val: "topology/tfrecords/train_2ms/944.tfrecords"
            string_val: "topology/tfrecords/train_2ms/945.tfrecords"
            string_val: "topology/tfrecords/train_2ms/946.tfrecords"
            string_val: "topology/tfrecords/train_2ms/949.tfrecords"
            string_val: "topology/tfrecords/train_2ms/94.tfrecords"
            string_val: "topology/tfrecords/train_2ms/950.tfrecords"
            string_val: "topology/tfrecords/train_2ms/951.tfrecords"
            string_val: "topology/tfrecords/train_2ms/952.tfrecords"
            string_val: "topology/tfrecords/train_2ms/953.tfrecords"
            string_val: "topology/tfrecords/train_2ms/954.tfrecords"
            string_val: "topology/tfrecords/train_2ms/955.tfrecords"
            string_val: "topology/tfrecords/train_2ms/956.tfrecords"
            string_val: "topology/tfrecords/train_2ms/958.tfrecords"
            string_val: "topology/tfrecords/train_2ms/959.tfrecords"
            string_val: "topology/tfrecords/train_2ms/962.tfrecords"
            string_val: "topology/tfrecords/train_2ms/963.tfrecords"
            string_val: "topology/tfrecords/train_2ms/964.tfrecords"
            string_val: "topology/tfrecords/train_2ms/965.tfrecords"
            string_val: "topology/tfrecords/train_2ms/966.tfrecords"
            string_val: "topology/tfrecords/train_2ms/967.tfrecords"
            string_val: "topology/tfrecords/train_2ms/968.tfrecords"
            string_val: "topology/tfrecords/train_2ms/969.tfrecords"
            string_val: "topology/tfrecords/train_2ms/971.tfrecords"
            string_val: "topology/tfrecords/train_2ms/972.tfrecords"
            string_val: "topology/tfrecords/train_2ms/974.tfrecords"
            string_val: "topology/tfrecords/train_2ms/975.tfrecords"
            string_val: "topology/tfrecords/train_2ms/976.tfrecords"
            string_val: "topology/tfrecords/train_2ms/977.tfrecords"
            string_val: "topology/tfrecords/train_2ms/979.tfrecords"
            string_val: "topology/tfrecords/train_2ms/980.tfrecords"
            string_val: "topology/tfrecords/train_2ms/981.tfrecords"
            string_val: "topology/tfrecords/train_2ms/982.tfrecords"
            string_val: "topology/tfrecords/train_2ms/983.tfrecords"
            string_val: "topology/tfrecords/train_2ms/985.tfrecords"
            string_val: "topology/tfrecords/train_2ms/986.tfrecords"
            string_val: "topology/tfrecords/train_2ms/987.tfrecords"
            string_val: "topology/tfrecords/train_2ms/988.tfrecords"
            string_val: "topology/tfrecords/train_2ms/98.tfrecords"
            string_val: "topology/tfrecords/train_2ms/990.tfrecords"
            string_val: "topology/tfrecords/train_2ms/991.tfrecords"
            string_val: "topology/tfrecords/train_2ms/992.tfrecords"
            string_val: "topology/tfrecords/train_2ms/996.tfrecords"
            string_val: "topology/tfrecords/train_2ms/998.tfrecords"
            string_val: "topology/tfrecords/train_2ms/999.tfrecords"
            string_val: "topology/tfrecords/train_2ms/9.tfrecords"
          }
        }
      }
    }
    node_def {
      name: "OptimizeDataset/TensorSliceDataset"
      op: "TensorSliceDataset"
      input: "OptimizeDataset/tensors/normalize_tensors/component_0:output:0"
      device: "/device:CPU:0"
      attr {
        key: "Toutput_types"
        value {
          list {
            type: DT_STRING
          }
        }
      }
      attr {
        key: "output_shapes"
        value {
          list {
            shape {
            }
          }
        }
      }
    }
    node_def {
      name: "OptimizeDataset/buffer_size"
      op: "Const"
      device: "/device:CPU:0"
      attr {
        key: "dtype"
        value {
          type: DT_INT64
        }
      }
      attr {
        key: "value"
        value {
          tensor {
            dtype: DT_INT64
            tensor_shape {
            }
            int64_val: 2951
          }
        }
      }
    }
    node_def {
      name: "OptimizeDataset/seed"
      op: "Const"
      device: "/device:CPU:0"
      attr {
        key: "dtype"
        value {
          type: DT_INT64
        }
      }
      attr {
        key: "value"
        value {
          tensor {
            dtype: DT_INT64
            tensor_shape {
            }
            int64_val: 0
          }
        }
      }
    }
    node_def {
      name: "OptimizeDataset/seed2"
      op: "Const"
      device: "/device:CPU:0"
      attr {
        key: "dtype"
        value {
          type: DT_INT64
        }
      }
      attr {
        key: "value"
        value {
          tensor {
            dtype: DT_INT64
            tensor_shape {
            }
            int64_val: 0
          }
        }
      }
    }
    node_def {
      name: "OptimizeDataset/ShuffleDataset"
      op: "ShuffleDataset"
      input: "OptimizeDataset/TensorSliceDataset:handle:0"
      input: "OptimizeDataset/buffer_size:output:0"
      input: "OptimizeDataset/seed:output:0"
      input: "OptimizeDataset/seed2:output:0"
      device: "/device:CPU:0"
      attr {
        key: "output_shapes"
        value {
          list {
            shape {
            }
          }
        }
      }
      attr {
        key: "output_types"
        value {
          list {
            type: DT_STRING
          }
        }
      }
      attr {
        key: "reshuffle_each_iteration"
        value {
          b: true
        }
      }
    }
    node_def {
      name: "OptimizeDataset/cycle_length"
      op: "Const"
      device: "/device:CPU:0"
      attr {
        key: "dtype"
        value {
          type: DT_INT64
        }
      }
      attr {
        key: "value"
        value {
          tensor {
            dtype: DT_INT64
            tensor_shape {
            }
            int64_val: 4
          }
        }
      }
    }
    node_def {
      name: "OptimizeDataset/block_length"
      op: "Const"
      device: "/device:CPU:0"
      attr {
        key: "dtype"
        value {
          type: DT_INT64
        }
      }
      attr {
        key: "value"
        value {
          tensor {
            dtype: DT_INT64
            tensor_shape {
            }
            int64_val: 1
          }
        }
      }
    }
    node_def {
      name: "OptimizeDataset/sloppy"
      op: "Const"
      device: "/device:CPU:0"
      attr {
        key: "dtype"
        value {
          type: DT_BOOL
        }
      }
      attr {
        key: "value"
        value {
          tensor {
            dtype: DT_BOOL
            tensor_shape {
            }
            bool_val: false
          }
        }
      }
    }
    node_def {
      name: "OptimizeDataset/buffer_output_elements"
      op: "Const"
      device: "/device:CPU:0"
      attr {
        key: "dtype"
        value {
          type: DT_INT64
        }
      }
      attr {
        key: "value"
        value {
          tensor {
            dtype: DT_INT64
            tensor_shape {
            }
            int64_val: 2
          }
        }
      }
    }
    node_def {
      name: "OptimizeDataset/prefetch_input_elements"
      op: "Const"
      device: "/device:CPU:0"
      attr {
        key: "dtype"
        value {
          type: DT_INT64
        }
      }
      attr {
        key: "value"
        value {
          tensor {
            dtype: DT_INT64
            tensor_shape {
            }
            int64_val: 8
          }
        }
      }
    }
    node_def {
      name: "OptimizeDataset/ExperimentalParallelInterleaveDataset"
      op: "ExperimentalParallelInterleaveDataset"
      input: "OptimizeDataset/ShuffleDataset:handle:0"
      input: "OptimizeDataset/cycle_length:output:0"
      input: "OptimizeDataset/block_length:output:0"
      input: "OptimizeDataset/sloppy:output:0"
      input: "OptimizeDataset/buffer_output_elements:output:0"
      input: "OptimizeDataset/prefetch_input_elements:output:0"
      device: "/device:CPU:0"
      attr {
        key: "Targuments"
        value {
          list {
          }
        }
      }
      attr {
        key: "f"
        value {
          func {
            name: "__inference_tf_data_experimental_parallel_interleave_<class \'abc.ABCMeta\'>_40"
          }
        }
      }
      attr {
        key: "output_shapes"
        value {
          list {
            shape {
            }
          }
        }
      }
      attr {
        key: "output_types"
        value {
          list {
            type: DT_STRING
          }
        }
      }
    }
    node_def {
      name: "OptimizeDataset/buffer_size_1"
      op: "Const"
      device: "/device:CPU:0"
      attr {
        key: "dtype"
        value {
          type: DT_INT64
        }
      }
      attr {
        key: "value"
        value {
          tensor {
            dtype: DT_INT64
            tensor_shape {
            }
            int64_val: 10000
          }
        }
      }
    }
    node_def {
      name: "OptimizeDataset/seed_1"
      op: "Const"
      device: "/device:CPU:0"
      attr {
        key: "dtype"
        value {
          type: DT_INT64
        }
      }
      attr {
        key: "value"
        value {
          tensor {
            dtype: DT_INT64
            tensor_shape {
            }
            int64_val: 0
          }
        }
      }
    }
    node_def {
      name: "OptimizeDataset/seed2_1"
      op: "Const"
      device: "/device:CPU:0"
      attr {
        key: "dtype"
        value {
          type: DT_INT64
        }
      }
      attr {
        key: "value"
        value {
          tensor {
            dtype: DT_INT64
            tensor_shape {
            }
            int64_val: 0
          }
        }
      }
    }
    node_def {
      name: "OptimizeDataset/count"
      op: "Const"
      device: "/device:CPU:0"
      attr {
        key: "dtype"
        value {
          type: DT_INT64
        }
      }
      attr {
        key: "value"
        value {
          tensor {
            dtype: DT_INT64
            tensor_shape {
            }
            int64_val: -1
          }
        }
      }
    }
    node_def {
      name: "OptimizeDataset/ShuffleAndRepeatDataset"
      op: "ShuffleAndRepeatDataset"
      input: "OptimizeDataset/ExperimentalParallelInterleaveDataset:handle:0"
      input: "OptimizeDataset/buffer_size_1:output:0"
      input: "OptimizeDataset/seed_1:output:0"
      input: "OptimizeDataset/seed2_1:output:0"
      input: "OptimizeDataset/count:output:0"
      device: "/device:CPU:0"
      attr {
        key: "output_shapes"
        value {
          list {
            shape {
            }
          }
        }
      }
      attr {
        key: "output_types"
        value {
          list {
            type: DT_STRING
          }
        }
      }
    }
    node_def {
      name: "OptimizeDataset/num_parallel_calls"
      op: "Const"
      device: "/device:CPU:0"
      attr {
        key: "dtype"
        value {
          type: DT_INT32
        }
      }
      attr {
        key: "value"
        value {
          tensor {
            dtype: DT_INT32
            tensor_shape {
            }
            int_val: 2
          }
        }
      }
    }
    node_def {
      name: "OptimizeDataset/ParallelMapDataset"
      op: "ParallelMapDataset"
      input: "OptimizeDataset/ShuffleAndRepeatDataset:handle:0"
      input: "OptimizeDataset/num_parallel_calls:output:0"
      device: "/device:CPU:0"
      attr {
        key: "Targuments"
        value {
          list {
          }
        }
      }
      attr {
        key: "f"
        value {
          func {
            name: "__inference_Dataset_map_<lambda>_99"
          }
        }
      }
      attr {
        key: "output_shapes"
        value {
          list {
            shape {
              dim {
                size: -1
              }
            }
            shape {
              dim {
                size: -1
              }
            }
            shape {
            }
            shape {
            }
            shape {
            }
            shape {
              dim {
                size: -1
              }
            }
            shape {
              dim {
                size: -1
              }
            }
            shape {
              dim {
                size: -1
              }
            }
            shape {
              dim {
                size: -1
              }
            }
          }
        }
      }
      attr {
        key: "output_types"
        value {
          list {
            type: DT_FLOAT
            type: DT_INT64
            type: DT_INT64
            type: DT_INT64
            type: DT_INT64
            type: DT_INT64
            type: DT_INT64
            type: DT_FLOAT
            type: DT_FLOAT
          }
        }
      }
      attr {
        key: "preserve_cardinality"
        value {
          b: false
        }
      }
      attr {
        key: "sloppy"
        value {
          b: false
        }
      }
      attr {
        key: "use_inter_op_parallelism"
        value {
          b: true
        }
      }
    }
    node_def {
      name: "OptimizeDataset/buffer_size_2"
      op: "Const"
      device: "/device:CPU:0"
      attr {
        key: "dtype"
        value {
          type: DT_INT64
        }
      }
      attr {
        key: "value"
        value {
          tensor {
            dtype: DT_INT64
            tensor_shape {
            }
            int64_val: 10
          }
        }
      }
    }
    node_def {
      name: "OptimizeDataset/PrefetchDataset"
      op: "PrefetchDataset"
      input: "OptimizeDataset/ParallelMapDataset:handle:0"
      input: "OptimizeDataset/buffer_size_2:output:0"
      device: "/device:CPU:0"
      attr {
        key: "output_shapes"
        value {
          list {
            shape {
              dim {
                size: -1
              }
            }
            shape {
              dim {
                size: -1
              }
            }
            shape {
            }
            shape {
            }
            shape {
            }
            shape {
              dim {
                size: -1
              }
            }
            shape {
              dim {
                size: -1
              }
            }
            shape {
              dim {
                size: -1
              }
            }
            shape {
              dim {
                size: -1
              }
            }
          }
        }
      }
      attr {
        key: "output_types"
        value {
          list {
            type: DT_FLOAT
            type: DT_INT64
            type: DT_INT64
            type: DT_INT64
            type: DT_INT64
            type: DT_INT64
            type: DT_INT64
            type: DT_FLOAT
            type: DT_FLOAT
          }
        }
      }
      attr {
        key: "slack_period"
        value {
          i: 0
        }
      }
    }
    node_def {
      name: "OptimizeDataset"
      op: "OptimizeDataset"
      input: "OptimizeDataset/PrefetchDataset:handle:0"
      input: "optimizations:output:0"
      device: "/device:CPU:0"
      attr {
        key: "optimization_configs"
        value {
          list {
            s: "map_vectorization:use_choose_fastest:false"
          }
        }
      }
      attr {
        key: "output_shapes"
        value {
          list {
            shape {
              dim {
                size: -1
              }
            }
            shape {
              dim {
                size: -1
              }
            }
            shape {
            }
            shape {
            }
            shape {
            }
            shape {
              dim {
                size: -1
              }
            }
            shape {
              dim {
                size: -1
              }
            }
            shape {
              dim {
                size: -1
              }
            }
            shape {
              dim {
                size: -1
              }
            }
          }
        }
      }
      attr {
        key: "output_types"
        value {
          list {
            type: DT_FLOAT
            type: DT_INT64
            type: DT_INT64
            type: DT_INT64
            type: DT_INT64
            type: DT_INT64
            type: DT_INT64
            type: DT_FLOAT
            type: DT_FLOAT
          }
        }
      }
    }
    node_def {
      name: "ModelDataset"
      op: "ModelDataset"
      input: "OptimizeDataset:handle:0"
      device: "/device:CPU:0"
      attr {
        key: "cpu_budget"
        value {
          i: 0
        }
      }
      attr {
        key: "output_shapes"
        value {
          list {
            shape {
              dim {
                size: -1
              }
            }
            shape {
              dim {
                size: -1
              }
            }
            shape {
            }
            shape {
            }
            shape {
            }
            shape {
              dim {
                size: -1
              }
            }
            shape {
              dim {
                size: -1
              }
            }
            shape {
              dim {
                size: -1
              }
            }
            shape {
              dim {
                size: -1
              }
            }
          }
        }
      }
      attr {
        key: "output_types"
        value {
          list {
            type: DT_FLOAT
            type: DT_INT64
            type: DT_INT64
            type: DT_INT64
            type: DT_INT64
            type: DT_INT64
            type: DT_INT64
            type: DT_FLOAT
            type: DT_FLOAT
          }
        }
      }
    }
    ret {
      key: "modeldataset"
      value: "ModelDataset:handle:0"
    }
    attr {
      key: "_disable_call_shape_inference"
      value {
        b: true
      }
    }
  }
}
versions {
  producer: 38
  min_consumer: 12
}
